transformer/results/st_transformer/t12_r4_i110_n3_h64_e200_l0.01.pth (torch, 321757 bytes, 30 tensors)

embedding.weight f4 [64, 5]
-0.48867455 -0.027287548 -0.53380686 -0.49783254 -0.020397533 0.114057705 0.3999115 0.54693496
0.24855542 -0.21519387 -0.019868862 0.10521138 -0.3196852 0.14588882 -0.31569955 -0.05216837
0.29986814 -0.053240705 0.35046616 0.4057961 0.025555264 -0.23152642 -0.17860201 -0.13700339
0.58566433 0.15694652 -0.51345325 -0.30742013 0.06814748 0.42568174 -0.061246518 -0.4341083
0.23347956 -0.20970789 0.0029220483 0.16803873 -0.61569244 -0.3187849 0.4294554 -0.27415445
0.17337964 -1.0518938 -0.0374541 0.33125085 0.27787346 -0.5255274 0.6878933 0.20993887
-0.5964425 -0.6525457 0.06326163 0.8493157 -0.1566113 -0.09095534 -0.27518043 -0.23212366
-0.6013313 0.046593193 0.006823811 0.023994796 -0.4473955 -0.88103926 0.22937027 0.0071945926
-0.032485846 -0.5308781 -1.0040251 -0.4362925 0.14173439 0.32789412 0.1496534 0.40869868
0.19869451 -0.3800959 -0.1821147 0.4236327 0.26132146 -0.2837487 -0.16628836 -0.066416964
0.20066063 -0.1929836 0.3457478 -0.02333641 0.4523346 0.34587562 -0.12022995 0.25148523
0.38111097 0.0315446 -0.3304452 -0.80682355 -0.44000253 0.4211227 0.24428308 0.3323105
0.41737112 0.36567566 0.22615778 0.006410645 -0.1725329 -0.32194763 -0.10691613 0.30150262
0.41566876 0.17813905 0.7994593 0.011533391 -0.3980317 -0.74896485 0.23880917 -0.2121622
0.29777712 -0.3986365 0.3495695 0.14305978 0.2530754 -0.22246371 -0.23592123 -0.036666907
0.2577429 0.63527745 0.49532694 0.3946728 0.22282162 0.29956445 0.28024307 -0.24785295
0.109614074 -0.3137694 0.14019567 0.37442333 0.2598488 0.108723596 -0.24253505 0.2910996
-0.6560907 -0.27634653 0.39348787 0.7378646 -0.20557521 -0.77178043 0.17790926 0.4555283
0.75560313 -0.14835316 -0.6667181 -0.36560428 -0.35835308 0.3991462 -0.4785296 0.19936484
-0.3138922 -0.4530843 -0.48418608 0.31555235 0.60105014 0.04452961 0.10522942 -0.001052442
-0.2784164 0.31279662 0.32588553 -0.030309012 -0.1491559 0.3308186 0.6599636 0.03237779
-0.18902014 -0.21576196 -0.11210293 -0.7091252 -0.11235614 0.29453862 0.27372798 0.25286224
0.049747717 0.035286516 0.10105631 -0.25412178 -0.15330711 -0.25881523 0.034646682 0.17732397
-0.25260013 -0.34862116 -0.20311296 -0.39168686 -0.022354435 -0.11347671 -0.08183728 0.6901558
-0.13615197 -0.3924964 -0.25570738 -0.4777082 0.9935268 -0.2917136 -0.46194884 -0.5578908
0.33484292 -0.3585156 -0.13834733 -0.13009717 -0.25991288 -0.6559504 0.051025476 -0.14597552
-0.601026 0.22225669 -0.20538019 0.21325852 -0.11203046 -0.42364365 -0.20049885 0.073188365
-0.5480292 -0.094330415 -0.16300593 0.65850514 -0.1160065 0.71815336 -0.15359804 -0.5159667
0.13631071 0.122680046 0.30897763 -0.046333253 -0.44279638 -0.73166573 0.4900269 0.50407505
0.3308157 -0.37387568 -0.034889128 -0.49898815 0.3941203 -0.24156782 -0.2425348 -0.35706887
-0.13250627 -0.82778776 0.10951666 0.030951452 0.19732174 -0.14703915 -0.2306369 -0.22659117
0.26998764 -0.4453327 0.15457954 -1.2001386 -0.465963 0.09445301 0.7443976 -0.006531075
00000000: 8d33 fabe 238a dfbc 91a7 08bf e8e3 febe
00000010: ba18 a7bc 1697 e93d 33c1 cc3e ee03 0c3f
00000020: 5085 7e3e c85b 5cbe 06c4 a2bc 1079 d73d
00000030: c7ad a3be e163 153e 5fa3 a1be 80ae 55bd
00000040: 5188 993e ed12 5abd 4d70 b33e 82c4 cf3e
00000050: 4659 d13c 4315 6dbe 72e3 36be 9e4a 0cbe
00000060: 19ee 153f 97b6 203e ac71 03bf 2c66 9dbe
00000070: e890 8b3d f5f2 d93e a1dd 7abd 7143 debe
00000080: 4415 6f3e aabd 56be d67f 3f3b 5812 2c3e
00000090: 059e 1dbf c637 a3be 94e1 db3e f95d 8cbe
000000a0: 6f8a 313e 75a4 86bf 7869 19bd b699 a93e
000000b0: 6e45 8e3e f788 06bf c619 303f 37fa 563e
000000c0: 75b0 18bf 3c0d 27bf 508f 813d c16c 593f
000000d0: b65e 20be cb46 babd 73e4 8cbe d3b1 6dbe
000000e0: d9f0 19bf 81d8 3e3d 479a df3b bc90 c43c
000000f0: 0611 e5be ca8b 61bf 0ae0 6a3e 9ec0 eb3b
00000100: e10f 05bd a1e7 07bf e583 80bf bb61 dfbe
00000110: d222 113e bde1 a73e be3e 193e f440 d13e
00000120: 9376 4b3e ee9b c2be 477c 3abe 63e6 d83e
00000130: edcb 853e 8247 91be 7f47 2abe 9e05 88bd
00000140: fb79 4d3e 7e9d 45be db05 b13e 002c bfbc
00000150: 6798 e73e 9c16 b13e 1f3b f6bd acc2 803e
00000160: fa20 c33e e934 013d 1d30 a9be fd8b 4ebf
00000170: 0348 e1be 659d d73e 5825 7a3e 9a24 aa3e
00000180: abb1 d53e d739 bb3e e895 673e 6310 d23b
00000190: 77ac 30be 52d6 a4be d8f6 dabd 8d5e 9a3e
000001a0: 89d2 d43e 156a 363e 5da9 4c3f 8cf6 3c3c
000001b0: d0ca cbbe 29bc 3fbf 648a 743e 0c41 59be
000001c0: 3e76 983e 151a ccbe c6fa b23e 437e 123e
000001d0: 1993 813e 87cd 63be 5695 71be 0a30 16bd
000001e0: e1f6 833e 8ba1 223f 7e9b fd3e 8e12 ca3e
000001f0: 5a2b 643e 8360 993e 057c 8f3e 2acd 7dbe
00000200: 587d e03d 62a6 a0be 748f 0f3e 6ab4 bf3e
00000210: e70a 853e 7aaa de3d 1c5b 78be 020b 953e
00000220: 8ff5 27bf 4b7d 8dbe 3e77 c93e b2e4 3c3f
00000230: 4f82 52be 6793 45bf d82d 363e 013b e93e
00000240: 356f 413f e4e9 17be 0aae 2abf 7c30 bbbe
00000250: 0e7a b7be e45c cc3e d501 f5be 4c26 4c3e
00000260: 7ab6 a0be aafa e7be 3de7 f7be 1490 a13e
00000270: 6cde 193f ae64 363d 8682 d73d 18f2 89ba
00000280: 988c 8ebe e126 a03e 78da a63e 9b4a f8bc
00000290: 53bc 18be 0e61 a93e 60f3 283f 939e 043d
000002a0: 7f8e 41be b4f0 5cbe 3996 e5bd 3b89 35bf
000002b0: fa1a e6bd c4cd 963e 1326 8c3e 2977 813e
000002c0: 43c4 4b3d 9888 103d 9cf6 ce3d 401c 82be
000002d0: 8afc 1cbe 6e83 84be aee9 0d3d 6a94 353e
000002e0: ce54 81be 797e b2be d8fc 4fbe 2e8b c8be
000002f0: a620 b7bc 7a66 e8bd 4e9a a7bd 0dae 303f
00000300: 6c6b 0bbe 4af5 c8be 14ec 82be 2b96 f4be
00000310: c657 7e3f 7c5b 95be 8f84 ecbe eed1 0ebf
00000320: 8870 ab3e 5b8f b7be ecaa 0dbe 3138 05be
00000330: 4d13 85be 5eec 27bf 1700 513d 9b7a 15be
00000340: d7dc 19bf 4297 633e 2f4f 52be 7160 5a3e
00000350: 3a70 e5bd d2e7 d8be 924f 4dbe c8e3 953d
00000360: a44b 0cbf 4e30 c1bd 07eb 26be cb93 283f
00000370: d194 edbd e6d8 373f ce48 1dbe 6516 04bf
00000380: 0995 0b3e ad3f fb3d 5132 9e3e f0c7 3dbd
00000390: 35b6 e2be 724e 3bbf cee4 fa3e 100b 013f
000003a0: ad60 a93e a26c bfbe e7e7 0ebd 607b ffbe
000003b0: 23ca c93e 8e5d 77be 0b5b 78be bbd1 b6be
000003c0: b9af 07be e6e9 53bf 454a e03d e68d fd3c
000003d0: b60e 4a3e 6e91 16be 142c 6cbe 8407 68be
000003e0: d23b 8a3e a602 e4be 194a 1e3e 249e 99bf
000003f0: b492 eebe 9470 c13d d790 3e3f a102 d6bb

embedding.bias f4 [64]
0.057008564 0.104372986 0.57791543 -0.4709912 0.4278475 -0.3107249 -0.4988997 -0.072752275
-0.11804447 -0.21202576 -0.29421064 -0.36663666 -0.22789983 -0.1667422 -0.43641037 -0.28465232
-0.32805002 0.28832605 -0.13374048 0.06917215 -0.22122711 -0.120969556 -0.21586935 -0.39265713
-0.34710854 0.27329844 0.21899243 0.32926452 -0.09543328 0.04441744 0.27379104 -0.12229332
0.04181825 -0.0565562 -0.3637383 0.28700057 0.19969529 0.13052395 -0.44682112 -0.20517153
0.0569519 0.12106486 0.03459498 0.33090538 -0.09665126 -0.2749237 -0.0525744 -0.5467045
0.28938234 0.18999341 0.48965648 0.24383676 -0.14113106 0.29587555 -0.2583642 -0.2876306
0.31975257 -0.057630163 0.51757735 -0.2635716 0.20975284 -0.42591903 0.38717943 -0.26726002
00000000: d081 693d 81c1 d53d 44f2 133f c225 f1be
00000010: d40e db3e 5617 9fbe c86f ffbe 25ff 94bd
00000020: 4dc1 f1bd 481d 59be c7a2 96be cdb7 bbbe
00000030: 935e 69be 78be 2abe 2e71 dfbe f3bd 91be
00000040: 2cf6 a7be 799f 933e 44f3 08be 21aa 8d3d
00000050: 5c89 62be e3be f7bd db0c 5dbe 5b0a c9be
00000060: 36b8 b1be c6ed 8b3e 8d3f 603e 5c95 a83e
00000070: 8672 c3bd 10ef 353d 572e 8c3e ec74 fabd
00000080: 9d49 2b3d 79a7 67bd e83b babe bdf1 923e
00000090: ec7c 4c3e 12a8 053e bdc5 e4be 7c18 52be
000000a0: 6546 693d daf0 f73d 77b3 0d3d 6e6c a93e
000000b0: 19f1 c5bd cdc2 8cbe 4158 57bd d3f4 0bbf
000000c0: ec29 943e a28d 423e 41b4 fa3e 58b0 793e
000000d0: a984 10be 007d 973e 5048 84be 5144 93be
000000e0: 9cb6 a33e 9b0d 6cbd f37f 043f dbf2 86be
000000f0: 73c9 563e 0f12 dabe 623c c63e 4ed6 88be

transformer_encoder.layers.0.self_attn.in_proj_weight f4 [192, 64]
0.17093225 -0.20748106 -0.04016146 -0.31821018 -0.0971533 0.1342791 0.1267969 0.10521714
-0.07297234 0.24729347 0.0067522465 0.1396964 0.17971252 -0.15088846 -0.024994032 0.005332692
0.19195785 -0.33503008 -0.2048271 -0.1843694 0.055023514 0.08335167 0.051872186 0.34194756
-0.20558229 -0.05250832 -0.3479504 -0.17190778 -0.21226932 0.32132798 -0.2241866 -0.28493753
-0.27334222 -0.088807896 -0.16662978 -0.2323407 -0.35449037 -0.008686523 0.25753403 0.17343499
-0.071368724 0.13901243 0.30038244 -0.40960318 0.12822264 -0.09962778 -0.17155798 0.3561244
-0.09930763 -0.3969693 -0.49679968 -0.250924 0.0074742706 -0.33893672 0.29931438 -0.26082382
-0.12461101 -0.2827749 -0.41332978 -0.14754198 -0.16971645 -0.32275406 -0.08208327 0.10180313
-0.05686629 0.32137722 0.023893055 0.15787828 -0.14404796 -0.26261917 -0.2752824 -0.061342463
0.013657952 -0.3452349 -0.32823598 0.2437838 -0.17657259 0.0067155072 0.16660559 0.092697814
-0.252318 0.35721225 0.074701555 0.16192709 -0.19487399 0.10486803 0.057581868 -0.29680228
0.28096285 0.008202712 0.19371995 0.08591583 0.25388387 -0.1396925 0.1578106 0.34994525
0.25147316 0.23833899 0.079781346 0.1377623 0.2554024 0.12641208 -0.12619217 -0.052815236
0.17629012 0.12656774 -0.29893836 0.21632217 -0.25222874 0.15157458 0.306723 -0.15342826
0.053650867 0.42775366 0.31195036 0.23659763 0.1902325 0.35881862 -0.35783088 0.21835014
0.25948864 0.30254623 0.20808373 0.14759935 0.27430323 0.26739553 -0.061076898 -0.30942684
0.09102264 -0.27294734 -0.07022796 -0.3132237 -0.1345498 0.1163632 0.22634906 0.023959098
-0.06280636 0.32702595 0.07377313 -0.052939527 0.27755532 0.19831562 0.056962248 -0.05544738
-0.040855143 -0.1088779 -0.24371645 -0.08120565 -0.11333536 -0.084195845 -0.16681994 0.2735769
-0.28906414 -0.19297795 -0.20325954 -0.21968924 -0.2669731 0.008836231 -0.025151184 -0.32684594
-0.14405137 -0.11032821 -0.123848714 -0.09053145 -0.2998905 -0.21259381 0.3411425 0.19178249
-0.1565777 -0.13282278 0.12595516 -0.25156197 0.20266043 0.068633914 -0.08869826 0.09872087
-0.2430586 -0.3397961 -0.34676015 -0.29172388 -0.09769519 -0.12399634 0.15560232 -0.08830716
-0.26076385 -0.28281468 -0.47468406 -0.15316923 -0.2502473 -0.37136605 -0.24114947 0.19346435
0.1669139 -0.1910694 0.16285096 0.21603523 0.27463543 -0.08129216 0.027070355 0.010582869
0.09602286 -0.120277785 0.17211276 0.13174658 0.18178488 0.06146457 0.2524534 -0.20406541
-0.099821635 -0.09871994 -0.15235223 -0.017260574 -0.15300854 0.35399088 -0.40702766 -0.1530193
-0.13528864 -0.24782024 -0.13202815 -0.007344243 0.11616658 -0.2705511 0.2276543 -0.11998933
-0.015204273 -0.114960775 -0.011139934 -0.09513226 0.0788104 -0.12676004 0.19329971 0.17026243
0.020853786 0.08006262 0.13488981 0.06461784 -0.10431035 0.1547125 0.10714297 -0.21712516
0.0019335945 -0.061089203 0.023359157 -0.09931826 0.13989237 0.0009885477 -0.100581676 -0.11775158
0.08663184 0.084800124 0.102862805 0.018407531 -0.49081674 -0.086670704 -0.10515806 -0.3058029
00000000: dd08 2f3e ea75 54be 5880 24bd 72ec a2be
00000010: 4ff8 c6bd 7680 093e 0cd7 013e 157c d73d
00000020: 8672 95bd 803a 7d3e f341 dd3b 930c 0f3e
00000030: 8f06 383e 8182 1abe 49c0 ccbc ddbd ae3b
00000040: 9990 443e 1089 abbe 32be 51be 55cb 3cbe
00000050: 5660 613d 48b4 aa3d ee77 543d c013 af3e
00000060: 2a84 52be f712 57bd 8e26 b2be 9808 30be
00000070: 215d 59be 1a85 a43e 2c91 65be 55e3 91be
00000080: 83f3 8bbe eae0 b5bd ffa0 2abe b8ea 6dbe
00000090: c37f b5be eb51 0ebc 80db 833e f198 313e
000000a0: c429 92bd 4659 0e3e bacb 993e 82b7 d1be
000000b0: cc4c 033e a609 ccbd e5ac 2fbe f055 b63e
000000c0: cc61 cbbd 8f3f cbbe 875c febe 1c79 80be
000000d0: baea f43b 1d89 adbe bc3f 993e b38a 85be
000000e0: 0f34 ffbd dfc7 90be f69f d3be 3f15 17be
000000f0: 26ca 2dbe 0540 a5be 461b a8bd 297e d03d
00000100: a0ec 68bd 8e8b a43e 5ebb c33c d8aa 213e
00000110: 4f81 13be 0576 86be d1f1 8cbe 3c42 7bbd
00000120: 9ac5 5f3c a1c2 b0be 8c0e a8be 76a2 793e
00000130: 72cf 34be c20d dc3b a89a 2a3e 5ad8 bd3d
00000140: d32f 81be 86e4 b63e 21fd 983d 37d0 253e
00000150: 0c8d 47be 0dc5 d63d f7da 6b3d 78f6 97be
00000160: 5dda 8f3e ab64 063c 865e 463e a4f4 af3d
00000170: 11fd 813e 8d0b 0fbe 1a99 213e 062c b33e
00000180: 17c1 803e 230f 743e 6764 a33d 8f11 0d3e
00000190: 1ac4 823e 2b72 013e 8538 01be ca54 58bd
000001a0: 6685 343e f99a 013e 730e 99be 8f83 5d3e
000001b0: 2024 81be 5e36 1b3e cc0a 9d3e 4c1c 1dbe
000001c0: 03c1 5b3d 8702 db3e f5b7 9f3e a646 723e
000001d0: 4fcc 423e 13b7 b73e 9c35 b7be 2e97 5f3e
000001e0: b2db 843e 57e7 9a3e e713 553e 4924 173e
000001f0: 7971 8c3e 11e8 883e c52b 7abd 326d 9ebe
00000200: 146a ba3d c1bf 8bbe add3 8fbd db5e a0be
00000210: 6cc7 09be d44f ee3d 0cc8 673e df45 c43c
00000220: 9fa0 80bd f26f a73e 5e16 973d 1ed7 58bd
00000230: bb1b 8e3e 4013 4b3e 3f51 693d cb1c 63bd
00000240: b957 27bd 60fb debd ce90 79be 264f a6bd
00000250: 5f1c e8bd df6e acbd d9d2 2abe 4512 8c3e
00000260: 3700 94be 039c 45be 4523 50be 37f6 60be
00000270: b3b0 88be d7c5 103c db09 cebc 5a58 a7be
00000280: 3482 13be c2f3 e1bd 65a4 fdbd 8e68 b9bd
00000290: 3f8b 99be 31b2 59be 3baa ae3e a162 443e
000002a0: e855 20be b202 08be 64fa 003e bbcc 80be
000002b0: 3786 4f3e f08f 8c3d 6fa7 b5bd 2b2e ca3d
000002c0: 5be4 78be c1f9 adbe 8c8a b1be d55c 95be
000002d0: 6a14 c8bd cbf1 fdbd 3756 1f3e 62da b4bd
000002e0: d782 85be 16cd 90be ca09 f3be 65d8 1cbe
000002f0: 6a20 80be b123 bebe e3ef 76be 851b 463e
00000300: 7aeb 2a3e b2a7 43be 67c2 263e 5738 5d3e
00000310: 049d 8c3e 817c a6bd a6c2 dd3c c563 2d3c
00000320: a2a7 c43d 3354 f6bd 543e 303e 93e8 063e
00000330: d125 3a3e 46c2 7b3d 9241 813e 86f6 50be
00000340: 496f ccbd ae2d cabd 3902 1cbe 0c66 8dbc
00000350: 45ae 1cbe 4b3e b53e ee65 d0be 17b1 1cbe
00000360: 1b89 0abe 97c4 7dbe 6332 07be faa7 f0bb
00000370: bee8 ed3d ac85 8abe 351e 693e f7bc f5bd
00000380: 581b 79bc 8e70 ebbd 4584 36bc b4d4 c2bd
00000390: 5967 a13d 62cd 01be 5cf0 453e 4659 2e3e
000003a0: 8fd5 aa3c dff7 a33d 8e20 0a3e 5c56 843d
000003b0: aaa0 d5bd f46c 1e3e c66d db3d 0f56 5ebe
000003c0: aa70 fd3a ac38 7abd b45b bf3c 5f67 cbbd
000003d0: f23f 0f3e 2892 813a c4fd cdbd be27 f1bd
000003e0: 096c b13d b0ab ad3d bca9 d23d 64cb 963c
000003f0: 554c fbbe 6980 b1bd 1c5d d7bd 3392 9cbe

transformer_encoder.layers.0.self_attn.in_proj_bias f4 [192]
-0.260575 0.28730962 -0.19983786 -0.0015261413 -0.05541023 -0.043353178 0.06722787 -0.017302884
-0.050989214 0.11215257 0.054781243 0.01446913 -0.052695338 -0.055406556 -0.23249425 0.008584848
0.270649 0.209574 -0.11490325 -0.0062913434 -0.15429245 -0.14178461 -0.12713408 0.14016248
0.21537554 -0.2100344 0.14235426 0.023826055 0.035895955 -0.09795801 0.08830973 0.22956496
-0.026736354 -0.30856922 -0.048699085 0.22803104 -0.054932285 0.018170865 0.15979502 0.05418484
0.03041315 0.07267158 -0.16805619 -0.07879012 0.09015915 0.10388678 -0.0017290863 -0.037949007
0.049493127 0.040044047 0.049392056 0.021249073 0.026778905 0.14015463 -0.044157773 0.053819202
0.049299087 -0.00859929 -0.090580486 0.055674445 0.052038543 -0.06969201 -0.049765367 -0.07556185
-0.013194815 0.00075485755 -0.002198135 -0.012634682 0.004221331 -0.018072907 0.021296611 -0.010383277
0.035665844 0.01656797 -0.031755026 0.018666966 -0.01666387 -0.023753228 -0.009517108 0.006973855
-0.000988543 0.010497169 -0.0051572905 -0.01003981 -0.0032436051 0.016512698 -0.0016986278 0.014290106
0.006498755 -0.005863349 0.0073583503 0.0038684718 -0.0019356126 -0.001655527 0.006725186 0.00839485
0.00026006633 -0.013853113 0.0004977338 0.017921017 -0.009537581 -0.0014825892 0.007083052 0.00815535
-0.0027099177 0.0011815778 -0.0097391065 -0.008600558 0.0032299608 0.004233685 0.004396984 0.0025909108
0.024025628 -0.004634301 -0.0073549286 0.024093056 0.0077130483 0.032674246 -0.002145214 0.024515951
0.026712013 -0.009393732 -0.035547707 0.01375307 0.01545925 -0.029053854 -0.015150487 -0.018620742
0.23072842 -0.18855943 0.07375967 -0.009894977 -0.10750844 0.08019654 0.14639105 0.03820906
-0.18609585 -0.087441355 0.13834453 0.17045972 0.16057123 0.13054736 -0.18339548 -0.008412803
-0.029719504 0.14157116 -0.16286969 -0.117618375 -0.3098993 0.117993675 0.28193292 -0.19685134
0.10421735 -0.30664328 -0.07133571 0.050805688 -0.24145305 0.12064501 0.096020855 0.015208147
-0.25501162 0.14842394 0.14729813 0.028915692 0.25450337 0.03480816 -0.024983972 -0.095612764
-0.08802442 0.20420462 0.11159015 0.06121181 0.028189385 0.018222926 0.018186802 -0.029900553
0.14318027 -0.29510298 -0.041914586 0.21586141 0.06564964 -0.24234651 0.15279652 0.3812467
-0.22773881 -0.12556086 -0.017721724 0.0679507 -0.09296089 -0.18456462 -0.042198993 -0.10500884
00000000: 166a 85be 3f1a 933e 4ca2 4cbe ce08 c8ba
00000010: d6f5 62bd 1a93 31bd c4ae 893d c7be 8dbc
00000020: 11da 50bd 3fb0 e53d 4c62 603d ee0f 6d3c
00000030: 11d7 57bd fcf1 62bd f912 6ebe 76a7 0c3c
00000040: 8192 8a3e 919a 563e 6552 ebbd 9d27 cebb
00000050: d7fe 1dbe fc2f 11be 702f 02be c186 0f3e
00000060: 688b 5c3e 4213 57be 51c5 113e dc2e c33c
00000070: a307 133d 369e c8bd bbdb b43d 1413 6b3e
00000080: 3306 dbbc c9fc 9dbe b178 47bd f880 693e
00000090: ad00 61bd 11db 943c 4ea1 233e ecf0 5d3d
000000a0: 0025 f93c d6d4 943d ec16 2cbe b75c a1bd
000000b0: 5ca5 b83d 98c2 d43d 82a2 e2ba 6b70 1bbd
000000c0: 4eb9 4a3d 3a05 243d 534f 4a3d 8912 ae3c
000000d0: 6f5f db3c b284 0f3e c8de 34bd 8671 5c3d
000000e0: d7ed 493d 09e4 0cbc 4382 b9bd e30a 643d
000000f0: 5e26 553d afba 8ebd c5d6 4bbd 2cc0 9abd
00000100: 112f 58bc a2e1 453a 960e 10bb b201 4fbc
00000110: 1753 8a3b a20d 94bc 3b76 ae3c 9f1e 2abc
00000120: 5916 123d 8db9 873c 8f11 02bd 77eb 983c
00000130: ab82 88bc 2196 c2bc a5ed 1bbc f084 e43b
00000140: 0092 81ba 51fc 2b3c 7dfe a8bb 047e 24bc
00000150: aa92 54bb a345 873c 7ea4 deba 0c21 6a3c
00000160: 82f3 d43b 5621 c0bb 511e f13b 3086 7d3b
00000170: 62b4 fdba 45fe d8ba f35e dc3b 8e8a 093c
00000180: 8359 8839 2bf8 62bc 5a7a 023a 19cf 923c
00000190: 8443 1cbc 7053 c2ba f218 e83b 049e 053c
000001a0: e098 31bb 2cdf 9a3a c690 1fbc 5be9 0cbc
000001b0: c0ad 533b b9ba 8a3b 9314 903b 45cc 293b
000001c0: 65d1 c43c 56db 97bb 9d01 f1bb cd5e c53c
000001d0: bdbd fc3b 6ed5 053d b896 0cbb add5 c83c
000001e0: 27d3 da3c 2be8 19bc 799a 11bd 8e54 613c
000001f0: cb48 7d3c 5902 eebc c039 78bc 878a 98bc
00000200: 1244 6c3e b915 41be 4f0f 973d 8b1e 22bc
00000210: 632d dcbd 153e a43d 89e7 153e 1a81 1c3d
00000220: e98f 3ebe 7414 b3bd 30aa 0d3e fe8c 2e3e
00000230: c96c 243e 35ae 053e 06cc 3bbe dad5 09bc
00000240: 5176 f3bc 08f8 103e 50c7 26be e7e1 f0bd
00000250: 1fab 9ebe aba6 f13d 8359 903e 6693 49be
00000260: e86f d53d 5900 9dbe 7518 92bd a019 503d
00000270: 783f 77be bb14 f73d 95a6 c43d 972b 793c
00000280: e290 82be 72fc 173e 52d5 163e 9ae0 ec3c
00000290: 444e 823e 0093 0e3d 30ab ccbc a0d0 c3bd
000002a0: 2646 b4bd 041b 513e 6089 e43d 3cb9 7a3d
000002b0: 6ded e63c 3f48 953c 7dfc 943c 01f2 f4bc
000002c0: d99d 123e bd17 97be a1ae 2bbd c60a 5d3e
000002d0: 5273 863d af29 78be b176 1c3e c432 c33e
000002e0: 5d34 69be 0793 00be 262d 91bc bd29 8b3d
000002f0: 4762 bebd 82fe 3cbe dad8 2cbd e00e d7bd

transformer_encoder.layers.0.self_attn.out_proj.weight f4 [64, 64]
-0.46803662 0.39122596 -0.10329819 -0.18328767 0.1868278 -0.050693486 -0.028418621 -0.007970135
0.40698487 0.3266971 -0.36364588 -0.40982202 -0.4428429 -0.2757247 0.4079367 -0.18211803
0.44149405 -0.6310458 0.41002923 0.37134236 0.8954102 -0.45283258 -0.7042814 0.4484447
-0.41100544 0.625621 0.17866279 -0.48963752 0.614308 -0.376415 -0.1625996 0.20657188
0.32881433 -0.29933456 -0.308409 -0.060348965 -0.37500635 0.13201368 0.055000365 0.3088337
0.17342004 -0.4271058 -0.11630881 -0.038275573 0.1723496 0.02261791 -0.05927022 -0.018475125
0.015437024 0.48811215 -0.008568418 -0.36441 0.13470782 0.5420965 -0.08562923 -0.5342554
0.12786986 0.04255349 -0.1348254 0.046616714 0.5085831 0.2590335 -0.23841092 0.011038915
0.33028802 -0.36597344 0.112671934 0.31737772 -0.049125355 0.018435387 0.098491795 0.016918555
-0.32813263 -0.12946038 0.016339712 0.38049808 0.28970513 0.20512533 -0.24185553 0.42782477
-0.3240965 0.35706252 -0.22377273 -0.19792503 -0.4148049 0.3746386 0.48150975 -0.12648381
0.3749318 -0.36903903 -0.012920643 0.16438602 -0.30613527 0.055324905 0.28720403 -0.274183
-0.32472265 0.31896707 0.22033064 -0.052469756 0.32050085 0.024734583 -0.02514606 -0.048511915
-0.117158905 0.337064 -0.018926237 0.15404108 0.08818578 0.080680154 0.16665527 -0.10961475
0.08611315 -0.2727435 -0.231895 0.12918556 -0.096836016 -0.29751134 -0.09564244 0.43781865
-0.2475324 -0.07425835 0.060453176 -0.08750218 -0.08966895 -0.20256186 0.103048995 -0.11117433
-0.3065422 0.21650212 -0.13547617 -0.20960058 0.10807716 0.015306864 -0.0016422593 -0.18095298
0.29994968 -0.038339984 -0.024356699 -0.13134103 -0.2722791 0.027621642 0.2561864 -0.25368747
0.33105233 -0.6390225 0.40829518 0.33495495 0.67174876 -0.38431674 -0.46511582 0.3708683
-0.4340171 0.42031208 -0.09312129 -0.537622 0.44760388 -0.2343013 -0.43510818 0.29933688
0.28059438 -0.2791761 -0.3441861 0.1272993 -0.2417222 0.017788991 -0.11020976 0.18077064
0.18583395 -0.37282783 0.039397664 -0.16641577 -0.021346971 0.21752012 -0.03318912 0.16343848
-0.13438487 0.36889383 0.13206935 -0.18036939 -0.072871104 0.44239372 -0.22897026 -0.2784636
0.25080287 0.2475227 -0.017619088 -0.09336589 0.14206842 0.04802968 0.00076400675 0.17527023
0.08438539 -0.0356454 0.09643212 0.1126128 -0.297881 -0.026292391 0.025408847 -0.022802988
-0.1392575 0.08571491 -0.04254498 0.24797925 0.07635325 -0.00961126 -0.1079828 -0.11750201
-0.15449695 0.09700283 -0.17859343 0.0036698228 -0.18186896 0.20937936 0.2158116 -0.092712745
0.264329 -0.07080019 0.062477466 0.25009084 0.006156427 0.071959116 0.010571664 -0.0451099
-0.110400826 0.13242528 0.053300448 -0.056756098 0.15025556 0.03971259 -0.120030075 -0.3351504
-0.027037585 0.07230929 0.07505027 0.13058192 0.1778016 0.056682765 0.096948765 0.032456826
0.015630867 -0.06717728 -0.23232833 -0.025272267 -0.07227517 -0.14728321 0.17679252 0.24237074
-0.40445292 -0.15583149 -0.124404676 0.038073458 -0.28342688 0.120839775 -0.091887675 -0.31222352
00000000: 7fa2 efbe c54e c83e 008e d3bd c3af 3bbe
00000010: c94f 3f3e f9a3 4fbd 2bce e8bc 2b95 02bc
00000020: 5260 d03e d844 a73e cb2f babe 31d4 d1be
00000030: 4ebc e2be ca2b 8dbe 14dd d03e 267d 3abe
00000040: 820b e23e 388c 21bf 5aef d13e 9620 be3e
00000050: 9a39 653f acd9 e7be c94b 34bf 8b9a e53e
00000060: 4e6f d2be b328 203f 61f3 363e c5b1 fabe
00000070: 4a43 1d3f 78b9 c0be 8280 26be 9487 533e
00000080: 5a5a a83e 6142 99be c9e7 9dbe 7a30 77bd
00000090: d500 c0be 982e 073e 1048 613d 731f 9e3e
000000a0: 0695 313e 9dad dabe 5033 eebd d9c6 1cbd
000000b0: 6a7c 303e 3249 b93c 55c5 72bd 2559 97bc
000000c0: 92eb 7c3c d6e9 f93e 8d62 0cbc f393 babe
000000d0: d9f0 093e d6c6 0a3f 615e afbd f6c4 08bf
000000e0: 51f0 023e 914c 2e3d ab0f 0abe 2bf1 3e3d
000000f0: 8132 023f 0aa0 843e fe21 74be 91dc 343c
00000100: 831b a93e df60 bbbe 8bc0 e63d 557f a23e
00000110: ab37 49bd cf05 973c 11b6 c93d c898 8a3c
00000120: 0001 a8be 4391 04be dcda 853c a5d0 c23e
00000130: 3b54 943e 600c 523e faa8 77be d90b db3e
00000140: faef a5be e6d0 b63e ae24 65be dcac 4abe
00000150: 4f61 d4be a1d0 bf3e 7288 f63e f984 01be
00000160: 10f7 bf3e aff2 bcbe 1bb1 53bc cf54 283e
00000170: c3bd 9cbe 5e9c 623d 680c 933e b761 8cbe
00000180: 0c42 a6be a74f a33e 5b9e 613e 87ea 56bd
00000190: b018 a43e 2ea0 ca3c 1cff cdbc 6eb4 46bd
000001a0: 02f1 efbd a793 ac3e 320b 9bbc f2bc 1d3e
000001b0: bf9a b43d a33b a53d aea7 2a3e b37d e0bd
000001c0: 175c b03d 09a5 8bbe e275 6dbe 3849 043e
000001d0: f651 c6bd 6853 98be 2fe0 c3bd c429 e03e
000001e0: 2279 7dbe c314 98bd c09d 773d 5834 b3bd
000001f0: 5ba4 b7bd 606c 4fbe 5a0b d33d 5eaf e3bd
00000200: 19f3 9cbe bbb2 5d3e 44ba 0abe 89a1 56be
00000210: 8f57 dd3d a4c9 7a3c 1441 d7ba bd4b 39be
00000220: 0193 993e 630a 1dbd b387 c7bc 437e 06be
00000230: 2b68 8bbe c846 e23c dd2a 833e 53e3 81be
00000240: b17f a93e fb96 23bf 110c d13e 377f ab3e
00000250: baf7 2b3f 2ac5 c4be a923 eebe 73e2 bd3e
00000260: 7d37 debe 2533 d73e 60b6 bebd 98a1 09bf
00000270: 562c e53e aeec 6fbe 80c6 debe af42 993e
00000280: 11aa 8f3e 2bf0 8ebe 2939 b0be bf5a 023e
00000290: 0686 77be 38ba 913c a8b5 e1bd f01b 393e
000002a0: 414b 3e3e 4ae3 bebe 725f 213d e568 2abe
000002b0: d8df aebc 98bd 5e3e 51f1 07bd 6b5c 273e
000002c0: 309c 09be a7df bc3e 303d 073e c1b2 38be
000002d0: 723d 95bd 6e81 e23e 2e77 6abe c892 8ebe
000002e0: 3c69 803e 9776 7d3e e855 90bc 9e36 bfbd
000002f0: 627a 113e c5ba 443d a047 483a 0a7a 333e
00000300: 3fd2 ac3d e900 12bd 347e c53d 8aa1 e63d
00000310: dc83 98be 2463 d7bc 3726 d03c 55cd babc
00000320: 8599 0ebe 4c8b af3d a543 2ebd 46ee 7d3e
00000330: 185f 9c3d 8c78 1dbc 1626 ddbd e5a4 f0bd
00000340: 7334 1ebe 6ba9 c63d 32e1 36be 6981 703b
00000350: db3b 3abe 8b67 563e b7fd 5c3e 2ee0 bdbd
00000360: 2156 873e b1ff 90bd 5fe8 7f3d e80b 803e
00000370: dabb c93b 4d5f 933d c634 2d3c 29c5 38bd
00000380: d419 e2bd 7e9a 073e 9251 5a3d 1579 68bd
00000390: 98dc 193e aba9 223d 54d2 f5bd d598 abbe
000003a0: ed7d ddbc e516 943d f5b3 993d 44b7 053e
000003b0: 9f11 363e 302c 683d 138d c63d 73f1 043d
000003c0: 4e0c 803c 3e94 89bd 7ae7 6dbe c907 cfbc
000003d0: 0105 94bd 69d1 16be 1909 353e 0930 783e
000003e0: 7414 cfbe 4a92 1fbe e1c7 febd eaf2 1b3d
000003f0: 541d 91be d87a f73d 9b2f bcbd c3db 9fbe

transformer_encoder.layers.0.self_attn.out_proj.bias f4 [64]
-0.40919426 0.32076198 -0.28136677 0.06576613 -0.15405622 -0.26293012 -0.20330901 -0.17319065
-0.07706487 -0.22767986 -0.28645492 0.007588679 0.004049454 -0.18294743 -0.28653747 -0.017621798
-0.10521726 0.40369982 -0.26400998 0.37211144 -0.120610274 0.17073031 -0.05687827 0.23377515
0.111054346 0.064611904 0.19901326 -0.07880171 -0.3125362 -0.13192977 -0.037894458 0.22660616
0.34510973 -0.08986362 -0.24561715 0.26025072 -0.08346546 0.01461643 -0.21870536 -0.039893817
-0.10023387 -0.06766484 -0.34137294 0.14792188 0.006898968 0.07710935 0.39758053 0.117378175
-0.07880716 0.26455012 -0.054796025 0.2735112 -0.03187019 0.18548472 -0.06805662 0.39259338
-0.27714682 -0.121017754 -0.19561204 0.30320436 0.044102784 0.24397385 -0.43377775 0.04447113
00000000: e981 d1be ea3a a43e 4e0f 90be 65b0 863d
00000010: eac0 1dbe c79e 86be 3d30 50be e458 31be
00000020: 30d4 9dbd e924 69be 38aa 92be 74aa f83b
00000030: 48b1 843b 9256 3bbe 0ab5 92be 975b 90bc
00000040: 267c d7bd beb1 ce3e 512c 87be 6485 be3e
00000050: 8502 f7bd edd3 2e3e 30f9 68bd c162 6f3e
00000060: 7670 e33d 3f53 843d 22ca 4b3e ca62 a1bd
00000070: bf04 a0be 9918 07be 3837 1bbd 720b 683e
00000080: 39b2 b03e 6b0a b8bd 1083 7bbe 953f 853e
00000090: f0ef aabd c079 6f3c 4cf4 5fbe b367 23bd
000000a0: 6a47 cdbd dd93 8abd 6fc8 aebe d578 173e
000000b0: bd10 e23b 82eb 9d3d ad8f cb3e f863 f03d
000000c0: a665 a1bd 1d73 873e cc71 60bd a909 8c3e
000000d0: 518a 02bd b5ef 3d3e 4561 8bbd 0002 c93e
000000e0: 30e6 8dbe 28d8 f7bd 864e 48be 9a3d 9b3e
000000f0: 1fa5 343d 48d4 793e 1e18 debe 5c27 363d

transformer_encoder.layers.0.linear1.weight f4 [128, 64]
0.20223804 -0.23862152 0.19141376 0.10952511 0.1811169 0.13119139 0.056083523 -0.17528877
-0.10855863 -0.20057935 0.2600458 0.097076505 -0.05848741 -0.02646376 0.1313081 -0.03931922
0.37095493 -0.07682174 -0.092592135 -0.28405878 0.24064824 -0.09756169 -0.2555716 -0.13127029
0.08273687 0.0061995587 -0.0057572904 0.43469957 0.052370567 0.11407126 -0.027138818 -0.019919608
-0.19091287 -0.07839156 0.17398818 -0.09848634 -0.0013372956 -0.07950399 0.30812448 -0.1894472
0.04478521 0.09208524 0.07832989 -0.14645627 0.08360312 -0.12126322 -0.20232297 0.16227958
-0.24979442 0.19474016 -0.025148604 -0.037653327 -0.18673638 -0.17523053 -0.031184297 -0.36025664
0.17053765 -0.0665571 -0.027983276 -0.008317162 -0.02310686 -0.22838251 -0.015666924 0.17020041
0.36022326 -0.26466012 0.13818206 0.13800408 0.09208469 0.08548318 0.15430585 -0.123922914
-0.109984234 -0.035939448 -0.09401752 0.09775628 -0.09505409 0.045140896 0.31298554 -0.12358465
0.26240516 -0.33615655 -0.05669945 -0.56762654 0.26293844 -0.032018006 -0.08428804 -0.3162281
0.01572968 0.040039066 -0.09098119 0.3228501 0.32435852 0.10489987 -0.03799439 0.045294367
-0.33993486 -0.124556325 0.12159971 -0.20592155 0.09421331 -0.029654035 0.22577134 0.022249158
0.026151016 -0.06145499 0.36977947 -0.22086477 0.1320604 -0.1311979 -0.31665018 0.019617347
-0.033838306 -0.00235158 0.11691022 -0.28135577 0.086606085 0.041182954 -0.106865324 -0.45676485
0.116078705 -0.024348563 0.3205155 -0.0034417636 -0.14252909 -0.06815962 0.16732816 -0.04773904
0.26767394 -0.22270912 0.2339937 0.12105836 0.23531073 0.2917356 0.21925126 -0.04553798
-0.06733739 -0.027923513 0.07671745 0.012846591 -0.12092343 0.19865493 0.19889913 -0.035130255
0.0803826 -0.028916031 0.12797733 -0.24865009 0.1264991 -0.08384091 0.04632986 -0.29323968
-0.05814044 -0.02306688 -0.0057890736 0.08427024 0.09677603 -0.07350107 -0.1533836 0.06388467
-0.038543817 0.06126277 0.2558715 -0.12356356 -0.20479001 -0.2732171 0.071165085 -0.103578776
0.11373413 -0.068513535 0.17515951 -0.15683202 0.11437652 -0.2818128 -0.22106329 -0.0053416495
0.11478875 -0.08665633 -0.03011742 -0.07219926 -0.034029745 0.026337933 -0.09219135 -0.16727516
0.034406904 -0.2577939 -0.02792678 -0.12388791 -0.03783179 -0.16239358 0.18463472 -0.083061896
0.36450344 -0.10516854 0.15477987 0.2051245 0.27150446 -0.004441655 0.35247707 -0.11644037
0.25042692 -0.012614064 0.16977242 -0.04638567 -0.35574976 0.18192151 -0.17140211 0.019236287
0.23839073 0.06772648 0.16176471 -0.14435203 0.17662054 -0.06452267 -0.18585624 -0.47463125
0.37316266 0.042208448 0.12275231 0.07956864 -0.11151066 -0.102740765 0.035876114 -0.080576845
0.02161909 0.16421069 0.12928215 -0.2833923 -0.14986196 0.03131211 0.4611891 -0.1928875
0.11907762 0.28899914 0.10857659 -0.09108687 0.5547412 0.16734391 -0.21907845 0.17165345
-0.107704535 -0.030378295 0.4304236 -0.098547034 0.027056584 0.099479556 -0.40057772 0.05587607
0.1329678 -0.01848736 -0.20533732 -0.40516084 0.14902942 0.08794049 0.11497681 0.31346935
00000000: 7d17 4f3e 3359 74be f801 443e b34e e03d
00000010: b576 393e 0957 063e d6b7 653d e67e 33be
00000020: fd53 debd ac64 4dbe b924 853e 0cd0 c63d
00000030: 7f90 6fbd 87ca d8bc a175 063e 310d 21bd
00000040: ceed bd3e b754 9dbd f2a0 bdbd 2770 91be
00000050: 7e6c 763e 6cce c7bd 48da 82be b86b 06be
00000060: f371 a93d ab25 cb3b a7a7 bcbb f190 de3e
00000070: 8582 563d 319e e93d 3a52 debc 722e a3bc
00000080: aa7e 43be c18b a0bd f529 323e 35b3 c9bd
00000090: 3248 afba fdd2 a2bd 7ec2 9d3e 72fe 41be
000000a0: b270 373d 3097 bc3d 6c6b a03d a2f8 15be
000000b0: 1d38 ab3d da58 f8bd c12d 4fbe 9e2c 263e
000000c0: 1cca 7fbe f769 473e 7204 cebc 603a 1abd
000000d0: d237 3fbe a26f 33be 3676 ffbc 8f73 b8be
000000e0: 6ca1 2e3e 174f 88bd 2f3d e5bc b544 08bc
000000f0: 994a bdbc 1bdd 69be ec57 80bc 0449 2e3e
00000100: 2f6f b83e 8881 87be 997f 0d3e f150 0d3e
00000110: e696 bc3d ce11 af3d 5a02 1e3e 4ccb fdbd
00000120: 6a3f e1bd 3e35 13bd 428c c0bd 7234 c83d
00000130: b8ab c2bd a9e5 383d a43f a03e f319 fdbd
00000140: f859 863e b61c acbe af3d 68bd f94f 11bf
00000150: de9f 863e 5025 03bd 359f acbd a6e8 a1be
00000160: 88db 803c 0100 243d 5954 babd 9c4c a53e
00000170: 5212 a63e bed5 d63d 01a0 1bbd 9686 393d
00000180: f10b aebe 6317 ffbd 4509 f93d 19dd 52be
00000190: e8f2 c03d 05ed f2bc 9a30 673e de43 b63c
000001a0: a83a d63c 3ab8 7bbd bc53 bd3e 602a 62be
000001b0: d73a 073e be58 06be f91f a2be 8fb4 a03c
000001c0: 099a 0abd f71c 1abb a06e ef3d dd0d 90be
000001d0: 885e b13d 75af 283d 35dc dabd 15dd e9be
000001e0: acba ed3d a376 c7bc 9c1a a43e 368f 61bb
000001f0: 25f3 11be 4597 8bbd 1358 2b3e 038a 43bd
00000200: 8f0c 893e dc0d 64be 0b9c 6f3e 72ed f73d
00000210: 4cf5 703e 5e5e 953e 6783 603e 0886 3abd
00000220: 2fe8 89bd dabf e4bc 0a1e 9d3d 827a 523c
00000230: b4a6 f7bd 336c 4b3e 37ac 4b3e bee4 0fbd
00000240: a29f a43d 50e1 ecbc 7d0c 033e 219e 7ebe
00000250: fb88 013e c8b4 abbd 61c4 3d3d 8323 96be
00000260: ac24 6ebd c1f6 bcbc 45b2 bdbb e095 ac3d
00000270: 8332 c63d bb87 96bd 9710 1dbe f7d5 823d
00000280: 1fe0 1dbd acee 7a3d 9701 833e e40e fdbd
00000290: 79b4 51be 1de3 8bbe 00bf 913d 1c21 d4bd
000002a0: 71ed e83d d350 8cbd 045d 333e 9398 20be
000002b0: 3d3e ea3d c449 90be 6a5e 62be 0109 afbb
000002c0: 5d16 eb3d e078 b1bd cfb8 f6bc 35dd 93bd
000002d0: c662 0bbd a6c2 d73c d2ce bcbd 2e4a 2bbe
000002e0: 41ee 0c3d 90fd 83be b4c6 e4bc f2b8 fdbd
000002f0: 82f5 1abd 814a 26be e210 3d3e 5b1c aabd
00000300: 32a0 ba3e 9a62 d7bd 9d7e 1e3e 280c 523e
00000310: a202 8b3e 4d8b 91bb e077 b43e 4a78 eebd
00000320: f537 803e 38ab 4ebc d2d8 2d3e e6fe 3dbd
00000330: d524 b6be a249 3a3e 0984 2fbe 6b95 9d3c
00000340: b31c 743e 2eb4 8a3d a6a5 253e 05d1 13be
00000350: 04dc 343e 7624 84bd 1951 3ebe de02 f3be
00000360: 2d0f bf3e c4e2 2c3d 9065 fb3d e2f4 a23d
00000370: b35f e4bd c069 d2bd d5f2 123d 7905 a5bd
00000380: 851a b13c d926 283e 8a62 043e cc18 91be
00000390: 6a75 19be 2141 003d fa20 ec3e 4d84 45be
000003a0: f8de f33d b2f7 933e 675d de3d c18b babd
000003b0: 8503 0e3f 345c 2b3e 1a56 60be ecc5 2f3e
000003c0: 3294 dcbd e7db f8bc 7b60 dc3e 07d3 c9bd
000003d0: c5a5 dd3c f0bb cb3d 8618 cdbe 4ede 643d
000003e0: b628 083e ce72 97bc f243 52be 3e71 cfbe
000003f0: 2b9b 183e 251a b43d f678 eb3d 0e7f a03e

transformer_encoder.layers.0.linear1.bias f4 [128]
-0.13150789 -0.28727108 -0.16312186 -0.21866238 -0.2008108 -0.21323606 -0.25454283 -0.24777302
-0.230329 -0.27637064 -0.31288385 -0.22629923 -0.17462535 -0.32395822 -0.29949385 0.45462906
-0.30269665 0.18368202 -0.26293412 -0.36763626 -0.25930688 -0.22444133 -0.23416995 -0.03907182
-0.36998883 -0.1123572 -0.46172357 -0.09253201 -0.20621489 -0.24366784 -0.16013914 0.39869463
-0.11711 -0.3604143 -0.072710976 0.19790721 0.05608014 -0.1685615 -0.20369086 -0.15522507
0.27026215 0.60889506 -0.062077463 -0.08361289 -0.41728714 -0.15453489 -0.1180612 0.118145496
-0.44720656 -0.15719871 -0.0996112 -0.22236986 0.025373142 -0.41227165 0.1856918 -0.15271448
-0.18635504 -0.27874812 -0.34710646 -0.20759833 -0.050448127 -0.02644326 -0.24740562 0.50227684
-0.23978595 -0.2177966 -0.28681335 -0.2503544 -0.007861463 -0.1744535 -0.15213534 -0.16400619
-0.20286669 -0.081891656 -0.15680347 0.019516027 -0.2762196 -0.016797956 -0.23731935 -0.36168885
-0.30302417 -0.26088268 -0.21276882 -0.15655671 -0.18670484 -0.060684435 -0.21103975 -0.29958108
-0.17990379 -0.03161578 -0.3065116 0.057715658 -0.4608683 -0.0017460012 -0.07277529 -0.04638519
-0.034693085 -0.13066459 -0.24820368 -0.21024829 -0.14438763 0.04896995 -0.26852724 0.0056417393
-0.1956284 -0.38142726 -0.20239715 -0.2516734 -0.123487584 0.098424666 0.20925722 -0.01585014
-0.05178397 -0.075741984 -0.310473 -0.024491636 -0.09099596 0.022109052 -0.16652928 -0.3454616
-0.49024698 -0.22120887 -0.09564654 -0.18782033 -0.19001086 -0.20508252 0.07415541 0.100212544
00000000: 01aa 06be 3215 93be 6b09 27be 08e9 5fbe
00000010: 59a1 4dbe 8e5a 5abe 7053 82be 36b8 7dbe
00000020: 5edb 6bbe 7480 8dbe 5032 a0be fcba 67be
00000030: fdd0 32be dadd a5be 4257 99be 24c5 e83e
00000040: 0efb 9abe 2417 3c3e 4d9f 86be d23a bcbe
00000050: dfc3 84be f3d3 65be 3fca 6fbe c609 20bd
00000060: 2d6f bdbe 881b e6bd 0867 ecbe 6c81 bdbd
00000070: ff29 53be 1084 79be 84fb 23be b421 cc3e
00000080: 5ed7 efbd 3988 b8be 7ee9 94bd 30a8 4a3e
00000090: 4ab4 653d 639b 2cbe 5694 50be 52f3 1ebe
000000a0: cd5f 8a3e 8ce0 1b3f f044 7ebd 3c3d abbd
000000b0: a9a6 d5be 653e 1ebe 12ca f1bd 44f6 f13d
000000c0: 42f8 e4be b3f8 20be f500 ccbd edb4 63be
000000d0: 56db cf3c 4515 d3be fe25 3e3e 2f61 1cbe
000000e0: dbd3 3ebe 13b8 8ebe f0b7 b1be a894 54be
000000f0: b2a2 4ebd 899f d8bc e657 7dbe 3795 003f
00000100: 738a 75be 1206 5fbe 33d9 92be 742e 80be
00000110: 5ecd 00bc f0a3 32be 5ec9 1bbe 3df1 27be
00000120: 49bc 4fbe d0b6 a7bd 1791 20be 13e0 9f3c
00000130: a86c 8dbe de9b 89bc d803 73be 482f b9be
00000140: fc25 9bbe 6a92 85be 12e0 59be 6750 20be
00000150: 8e2f 3fbe 3e90 78bd ce1a 58be b162 99be
00000160: b338 38be 8c7f 01bd 17ef 9cbe 4167 6c3d
00000170: eef6 ebbe 14da e4ba 360b 95bd 66fe 3dbd
00000180: 561a 0ebd f0cc 05be 1b29 7ebe 544b 57be
00000190: 5ada 13be b794 483d 677c 89be 57de b83b
000001a0: d052 48be 6f4a c3be 3341 4fbe 56db 80be
000001b0: 0fe7 fcbd df92 c93d 8647 563e 27d8 81bc
000001c0: 6e1b 54bd 9d1e 9bbd 51f6 9ebe afa2 c8bc
000001d0: 175c babd 0b1e b53c a786 2abe 58e0 b0be
000001e0: a701 fbbe 9484 62be 55e2 c3bd f953 40be
000001f0: 3592 42be 2701 52be cbde 973d 3c3c cd3d

transformer_encoder.layers.0.linear2.weight f4 [64, 128]
0.0010389109 -0.10187814 -0.04901181 -0.14401336 -0.24331218 0.18164735 -0.16013466 -0.13134573
0.060128268 -0.023594154 -0.07268615 0.061148196 -0.03887179 -0.106148206 0.20485933 -0.36821833
-0.08681777 -0.107213244 0.05200833 -0.43393758 -0.41442105 0.1859717 0.036963593 -0.35955492
0.0038308578 -0.18817788 -0.11792903 -0.008879 -0.27973422 0.08556598 -0.10634573 -0.616465
-0.0918095 -0.03027018 -0.43705583 -0.2521068 0.11043238 0.24105701 -0.3127214 -0.28507814
-0.38090885 -0.54902184 0.05812063 -0.12188147 -0.10308412 -0.19335355 -0.18088403 -0.24143694
-0.10410425 0.019949904 0.15965222 -0.20814295 -0.57295644 0.19253345 -0.2447417 -0.1996989
-0.10673217 -0.27688304 -0.15296108 0.054067433 0.21990125 0.17344242 0.002075474 -0.37017527
-0.061042186 -0.11565681 -0.16253346 0.08299847 -0.07238273 0.04802853 -0.00889857 -0.13760649
-0.064640075 0.16395149 -0.095033534 -0.21174932 -0.19177286 -0.6571676 0.048187427 -0.14068876
0.09500543 -0.05138856 -0.18179667 -0.024594298 0.03182371 -0.47601792 0.013837661 -0.07181876
-0.11030794 -0.26294786 0.121180624 -0.37355247 -0.20403273 -0.16604637 0.12075921 -0.010852407
0.14133008 -0.15554354 -0.05199286 -0.10376239 0.2608195 -0.7246183 0.0596133 -0.3959853
0.027907664 0.07542963 0.1842784 -0.12880118 0.0403153 -0.55812395 -0.24011478 0.16108918
0.29356882 -0.34756422 0.0042730314 -0.10131129 -0.17005931 -0.08677721 -0.06724503 0.1259369
0.034753535 0.049848747 -0.089006476 -0.043002624 0.073901944 -0.18883191 -0.04956315 -0.7275673
-0.15232676 -0.19181597 -0.11885994 0.17553481 -0.03824125 -0.12742536 0.2912922 0.21029739
-0.14271088 -0.14448053 -0.11407316 0.0098317 0.19049431 0.19045986 -0.31353733 0.27853894
-0.10262321 0.03231581 -0.00079801003 0.022177747 0.2541808 -0.35061958 -0.051445454 0.034115765
-0.02190384 0.05885808 -0.01769565 -0.09999411 0.11296029 -0.02834028 0.0068688802 0.47240323
0.065145485 0.02367852 0.211029 0.32468054 -0.22870307 -0.115182355 0.11129308 0.14101864
0.08833616 0.6432724 -0.06290591 -0.039480295 0.14507443 0.029285269 0.20030099 0.23343246
-0.044291664 -0.13379413 -0.3066034 0.22908461 0.3301421 -0.20404275 0.21044618 -0.04616216
-0.021611182 -0.029077254 0.06516033 0.08895371 -0.23370999 -0.062226877 0.16213244 0.17284077
-0.022629468 0.0378138 -0.0032790347 -0.12876637 0.10332833 -0.043476295 -0.114016846 -0.0023287705
0.16000676 -0.089140736 0.14939281 0.24061573 0.016892731 -0.0052967346 -0.057533436 0.12235914
-0.15453434 0.13048089 -0.071180455 -0.0048403735 -0.049835406 0.17835693 -0.04968407 -0.22342087
0.17121878 0.16440612 -0.001349323 0.089841045 0.021196017 0.066634 -0.27842093 -0.009589586
-0.040855974 0.06724137 -0.08139348 0.008710167 -0.1663897 0.5259517 -0.19803603 0.36345133
0.055965014 0.04239099 -0.020110503 -0.12673564 -0.09744504 0.23747593 0.31150985 -0.19796488
-0.4408157 0.21931416 -0.2350282 0.06697958 0.18943834 0.13704622 -0.027636603 -0.32537264
0.09102786 -0.2096653 0.067687295 0.24702436 -0.12586741 0.2157943 0.033201277 0.16311325
00000000: 112c 883a 7ca5 d0bd 9cc0 48bd 3d78 13be
00000010: d426 79be c301 3a3e 57fa 23be 7f7f 06be
00000020: 0f49 763d 8748 c1bc 7adc 94bd 8876 7a3d
00000030: 0738 1fbd 3b64 d9bd a5c6 513e 1d87 bcbe
00000040: 84cd b1bd 9e92 dbbd b006 553d 112d debe
00000050: ff2e d4be 5e6f 3e3e 2367 173d 9517 b8be
00000060: 210f 7b3b b4b1 40be c684 f1bd 3a79 11bc
00000070: 5339 8fbe 373d af3d cacb d9bd a6d0 1dbf
00000080: 9e06 bcbd 2bf9 f7bc c8c5 dfbe 2414 81be
00000090: 5f2a e23d a6d7 763e 051d a0be c3f5 91be
000000a0: 7c06 c3be b28c 0cbf e60f 6e3d fe9c f9bd
000000b0: c41d d3bd 79fe 45be aa39 39be 3f3b 77be
000000c0: 9c34 d5bd fb6d a33c df7b 233e 6d23 55be
000000d0: 46ad 12bf 7d27 453e 919d 7abe de7d 4cbe
000000e0: 6596 dabd 9dc3 8dbe d4a1 1cbe d075 5d3d
000000f0: cb2d 613e e49a 313e ad04 083b 9d87 bdbe
00000100: 5f07 7abd 7add ecbd 2c6f 26be 1afb a93d
00000110: 663d 94bd 90b9 443d 4fcb 11bc b7e8 0cbe
00000120: 0462 84bd e6e2 273e f1a0 c2bd d0d4 58be
00000130: 1b60 44be 233c 28bf 2e60 453d b710 10be
00000140: 3592 c23d d07c 52bd e828 3abe fb79 c9bc
00000150: 9459 023d 9fb8 f3be 5bb7 623c b715 93bd
00000160: 21e9 e1bd 1aa1 86be 8c2d f83d 4542 bfbe
00000170: f5ed 50be 0f08 2abe 9b50 f73d 4bce 31bc
00000180: d5b8 103e ce46 1fbe 77f6 54bd 6081 d4bd
00000190: 228a 853e 9680 39bf 132d 743d 96be cabe
000001a0: 9d9e e43c da7a 9a3d 7ab3 3c3e 75e4 03be
000001b0: a821 253d 36e1 0ebf a6e0 75be 90f4 243e
000001c0: a74e 963e f0f3 b1be c904 8c3b 4b7c cfbd
000001d0: 0724 2ebe 40b8 b1bd c3b7 89bd 9af5 003e
000001e0: b959 0e3d 332e 4c3d 0749 b6bd 8523 30bd
000001f0: e759 973d 275d 41be bb02 4bbd da41 3abf
00000200: 8cfb 1bbe 686b 44be d76c f3bd 66bf 333e
00000210: dba2 1cbd cb7b 02be 4024 953e 3358 573e
00000220: cd22 12be b4f2 13be 309f e9bd 2315 213c
00000230: f110 433e e907 433e f787 a0be a89c 8e3e
00000240: 1e2c d2bd 955d 043d 8c31 51ba 1bae b53c
00000250: fc23 823e 6984 b3be 78b8 52bd f9bc 0b3d
00000260: af6f b3bc 2c15 713d 78f6 90bc b6c9 ccbd
00000270: b957 e73d e029 e8bc 5814 e13b d6de f13e
00000280: ff6a 853d 75f9 c13c fc17 583e 873c a63e
00000290: 2331 6abe bae4 ebbd a0ed e33d 3167 103e
000002a0: 97e9 b43d 80ad 243f d0d4 80bd 17b6 21bd
000002b0: 648e 143e a9e7 ef3c b41b 4d3e eb08 6f3e
000002c0: 2d6b 35bd 5401 09be 1ffb 9cbe 2895 6a3e
000002d0: 6308 a93e 95f0 50be 347f 573e 8814 3dbd
000002e0: ef09 b1bc 6c33 eebc c772 853d 5d2d b63d
000002f0: ac51 6fbe 9ce1 7ebd 0c06 263e 2cfd 303e
00000300: 6f61 b9bc a5e2 1a3d 13e5 56bb 55db 03be
00000310: ce9d d33d 3314 32bd aa81 e9bd 499e 18bb
00000320: d0d8 233e 6b8f b6bd 6efa 183e f863 763e
00000330: a062 8a3c 3b90 adbb 2ea8 6bbd 6e97 fa3d
00000340: 403e 1ebe c89c 053e 0fc7 91bd ff9b 9ebb
00000350: 3620 4cbd 33a3 363e 8681 4bbd 71c8 64be
00000360: fa53 2f3e 145a 283e c4db b0ba 95fe b73d
00000370: 45a3 ad3c 6877 883d 308d 8ebe a41d 1dbc
00000380: 9858 27bd d8b5 893d a0b1 a6bd 17b5 0e3c
00000390: 1062 2abe c5a4 063f f5c9 4abe 4b16 ba3e
000003a0: 923b 653d 2da2 2d3d c8be a4bc fdc6 01be
000003b0: 4491 c7bd e42c 733e 387e 9f3e 4eb7 4abe
000003c0: 98b2 e1be e493 603e 3cab 70be 972c 893d
000003d0: 20fc 413e d855 0c3e 2866 e2bc 3e97 a6be
000003e0: d16c ba3d 80b2 56be a39f 8a3d f4f3 7c3e
000003f0: 63e3 00be 2ef9 5c3e 10fe 073d 2907 273e

transformer_encoder.layers.0.linear2.bias f4 [64]
-0.24912502 0.29815567 -0.24225152 -0.02603407 -0.19235267 -0.156618 -0.30378455 0.28232926
-0.39950567 -0.17581052 0.29026332 0.18491586 0.06697753 -0.41144577 -0.12859118 0.09428921
0.07258906 0.41687593 0.3599261 0.3802081 -0.30357265 0.068898045 0.096104756 0.004678591
-0.025533678 0.13690448 0.30918258 -0.18506125 -0.01608419 0.11209104 0.023182698 0.3232068
0.15729684 0.2832924 -0.30638087 0.25769737 -0.033207536 0.25039044 -0.4714294 -0.035206456
-0.069067255 0.1193544 -0.42866734 0.27203417 0.14314882 0.082882784 0.24507068 -0.028849186
0.014391904 0.05755947 -0.2281242 0.17714012 -0.046121974 0.028902072 -0.04063183 0.15362287
-0.1422107 0.07336236 0.09154588 0.36436182 0.055729702 -0.035837583 -0.35711157 0.054313973
00000000: a11a 7fbe dca7 983e c810 78be 6745 d5bc
00000010: 19f8 44be 7860 20be a689 9bbe 768d 903e
00000020: 028c ccbe ac07 34be 659d 943e 955a 3d3e
00000030: 842b 893d 05a9 d2be 68ad 03be b41a c13d
00000040: 93a9 943d c370 d53e 3c48 b83e a3aa c23e
00000050: e06d 9bbe 6b1a 8d3d 92d2 c43d de4e 993b
00000060: 012c d1bc b030 0c3e 2e4d 9e3e b280 3dbe
00000070: fec2 83bc fd8f e53d a4e9 bd3c 5d7b a53e
00000080: 6c12 213e b40b 913e f4dd 9cbe e9f0 833e
00000090: a004 08bd 2d33 803e 325f f1be a534 10bd
000000a0: 2273 8dbd 1470 f43d 497a dbbe 1048 8b3e
000000b0: 9b95 123e 73be a93d cff3 7a3e 2155 ecbc
000000c0: 05cc 6b3c 7bc3 6b3d 6499 69be 3864 353e
000000d0: 65ea 3cbd 0ac4 ec3c 906d 26bd 504f 1d3e
000000e0: af9f 11be 013f 963d 687c bb3d a28d ba3e
000000f0: d444 643d 6eca 12bd 54d7 b6be 5478 5e3d

transformer_encoder.layers.0.norm1.weight f4 [64]
1.4813764 1.218056 1.1318729 0.51815945 0.66469234 1.2710954 0.99407154 1.0796627
0.9647356 1.0248282 0.986437 0.791027 0.88081175 0.79328245 0.75093126 0.6769369
0.7892666 1.73716 1.2141752 1.6418576 0.66642827 0.61640114 0.89121205 1.2847954
0.82708544 0.9195284 0.75969034 1.0616124 1.2912534 0.8353302 0.7414284 0.7939477
1.2375811 0.7097645 0.91995347 1.3415445 0.48736525 0.7405731 0.67366815 0.9901534
0.644844 0.70003414 1.3551717 0.7280109 0.7744509 0.7622848 1.2856828 0.8563035
0.8047062 1.0898923 0.8691029 1.3728693 0.58311564 1.4459466 1.097388 1.0653425
0.7157694 0.91144377 0.92514485 1.392163 0.9667697 0.7284164 1.3389026 0.9348028
00000000: be9d bd3f 42e9 9b3f 36e1 903f 19a6 043f
00000010: 4729 2a3f 41b3 a23f 797b 7e3f 6332 8a3f
00000020: eaf8 763f 922d 833f 2387 7c3f bf80 4a3f
00000030: e17c 613f 8f14 4b3f 083d 403f bd4b 2d3f
00000040: 600d 4a3f 425b de3f 186a 9b3f 6428 d23f
00000050: 0b9b 2a3f 77cc 1d3f 7926 643f 2d74 a43f
00000060: dfbb 533f 3766 6b3f 117b 423f eae2 873f
00000070: cb47 a53f 33d8 553f 40ce 3d3f 2840 4b3f
00000080: 0f69 9e3f 20b3 353f 1282 6b3f bbb7 ab3f
00000090: f087 f93e 3396 3d3f 8475 2c3f b17a 7d3f
000000a0: 7f14 253f 7035 333f 4476 ad3f ec5e 3a3f
000000b0: 6a42 463f 1925 433f 4191 a43f b536 5b3f
000000c0: 3a01 4e3f 9781 8b3f 877d 5e3f 2eba af3f
000000d0: 1147 153f c714 b93f 3677 8c3f 255d 883f
000000e0: aa3c 373f 6154 693f 4bd6 6c3f 6632 b23f
000000f0: 387e 773f 7f79 3a3f 2961 ab3f 3c4f 6f3f

transformer_encoder.layers.0.norm1.bias f4 [64]
-0.4439339 0.29675946 -0.29394555 -0.09192945 -0.13495053 -0.24593425 0.07815718 -0.19689997
-0.07470426 -0.1752151 -0.22056696 -0.055142988 0.09299985 0.0976951 -0.07769705 0.11620828
-0.05994006 0.4454245 -0.35085985 0.54524356 -0.054670468 -0.12716891 0.07817707 0.27157587
-0.13356473 -0.119189225 -0.19927168 0.00057044346 -0.28593573 -0.17984964 0.1016208 -0.016821401
0.4112722 -0.03337861 -0.006051832 0.40919298 0.10718985 0.00238094 -0.17090233 0.011276668
0.030840734 -0.117757104 -0.33624378 -0.013588797 -0.11086908 -0.13893485 0.36878645 -0.14351602
0.08143593 0.28009903 -0.15375683 0.43411693 0.004244391 0.19508341 0.08353157 0.15955842
-0.04970329 -0.25798568 0.020138286 0.48068848 -0.05139317 -0.061383825 -0.39309436 -0.11052322
00000000: 4e4b e3be dbf0 973e 0880 96be 8245 bcbd
00000010: 7930 0abe 30d6 7bbe df10 a03d 25a0 49be
00000020: 8cfe 98bd 966b 33be 4edc 61be 9ddd 61bd
00000030: b576 be3d 5e14 c83d a21f 9fbd 9bfe ed3d
00000040: b583 75bd ae0e e43e e7a3 b3be 1595 0b3f
00000050: 24ee 5fbd 9138 02be 4d1b a03d fe0b 8b3e
00000060: 31c5 08be 7b19 f4bd e00d 4cbe d089 153a
00000070: 2b66 92be 812a 38be 911e d03d 09cd 89bc
00000080: 4592 d23e 02b8 08bd 724e c6bb be81 d13e
00000090: 5a86 db3d 8b09 1c3b 0501 2fbe c6c1 383c
000000a0: b5a5 fc3c a32a f1bd 2528 acbe 8ca3 5ebc
000000b0: 540f e3bd f044 0ebe 94d1 bc3e ddf5 12be
000000c0: e2c7 a63d 2469 8f3e 6e72 1dbe 9344 de3e
000000d0: 8814 8b3b f2c3 473e 9a12 ab3d 4863 233e
000000e0: ad95 4bbd b316 84be 0cf9 a43c cd1c f63e
000000f0: a581 52bd 9b6d 7bbd aa43 c9be ff59 e2bd

transformer_encoder.layers.0.norm2.weight f4 [64]
1.5393813 1.3692962 1.1756165 0.54075813 1.3414278 1.3678058 1.6033254 1.1362162
0.9760153 1.4547321 1.223014 0.41803357 1.0322322 0.9859379 0.54354525 0.5365072
0.5472602 1.5247958 0.91309845 1.9596564 1.0153272 0.5652819 0.26483634 0.6366001
0.5813322 0.51511586 1.188893 1.056155 0.8269686 0.46664593 0.58044356 1.2594364
0.8465623 1.0054963 1.5784688 1.1446505 0.7916207 1.1843228 1.6444371 0.72271526
1.4541703 0.57103556 1.2508383 1.0962175 0.74370307 0.5928945 1.0469149 0.5689333
0.5445604 0.7565214 0.77008736 0.9412027 0.78214467 0.9065952 0.56214654 0.67734754
0.85556203 0.8969062 0.63301533 1.2992913 0.7421178 0.7334082 1.3884835 0.6559027
00000000: 720a c53f 1945 af3f 9a7a 963f 206f 0a3f
00000010: e8b3 ab3f 4314 af3f c439 cd3f 886f 913f
00000020: 24dc 793f a934 ba3f b98b 9c3f 7f08 d63e
00000030: 2f20 843f 6d66 7c3f c825 0b3f 8958 093f
00000040: 3f19 0c3f 822c c33f d2c0 693f 05d6 fa3f
00000050: 3ef6 813f 51b6 103f a198 873e 39f8 223f
00000060: 30d2 143f a2de 033f a52d 983f 1630 873f
00000070: 37b4 533f 37ec ee3e f397 143f 3635 a13f
00000080: 4fb8 583f 1ab4 803f 440b ca3f e883 923f
00000090: a7a7 4a3f e497 973f ea7c d23f de03 393f
000000a0: 4122 ba3f 632f 123f 781b a03f db50 8c3f
000000b0: 5363 3e3f efc7 173f 4f01 863f 9da5 113f
000000c0: 4f68 0b3f 63ab 413f 7224 453f a9f2 703f
000000d0: a23a 483f 9f16 683f d6e8 0f3f a666 2d3f
000000e0: 1d06 5b3f a59b 653f 4b0d 223f 2d4f a63f
000000f0: 6ffb 3d3f a4c0 3b3f d4b9 b13f 3de9 273f

transformer_encoder.layers.0.norm2.bias f4 [64]
-0.4316376 0.17322324 -0.1950495 0.15885602 -0.4002245 -0.47917494 -0.52765447 0.20186557
-0.25738326 -0.47369766 0.45593053 -0.030374512 0.48784778 -0.45162505 -0.052425373 -0.20729662
0.2995901 0.3415071 0.28499538 0.3027301 0.08108952 -0.10153197 -0.18209529 -0.047245868
0.22314654 0.3487259 0.23401807 -0.26061162 -0.00364486 -0.11298935 -0.09175224 0.36648303
-0.095252916 0.33252922 -0.49349242 0.10183551 0.16590264 0.31418344 -0.5141537 -0.10777068
-0.31579405 -0.30433458 -0.4252971 0.61676097 -0.010652991 0.11525818 0.020445162 0.13384709
-0.10732839 0.16550899 -0.034310248 0.20582351 -0.17888932 0.04746574 -0.09965233 0.16392042
0.02688481 0.2789028 -0.14757603 0.19211952 0.094099626 0.05583831 -0.09058353 -0.10176476
00000000: 9aff dcbe 6f61 313e 0ebb 47be 27ab 223e
00000010: 3aea ccbe 6b56 f5be 5d14 07bf d9b5 4e3e
00000020: bdc7 83be 8088 f2be ba6f e93e f8d3 f8bc
00000030: 2fc7 f93e 663b e7be fdbb 56bd 9145 54be
00000040: e063 993e 05da ae3e eaea 913e 71ff 9a3e
00000050: 4312 a63d feef cfbd 3077 3abe e284 41bd
00000060: 8780 643e 338c b23e 6fa2 6f3e e36e 85be
00000070: 9ade 6ebb f666 e7bd 99e8 bbbd aaa3 bb3e
00000080: f613 c3bd 4541 aa3e 0aab fcbe 238f d03d
00000090: 62e2 293e a7dc a03e 949f 03bf e0b6 dcbd
000000a0: c2af a1be bed1 9bbe 8bc0 d9be 0ce4 1d3f
000000b0: e289 2ebc 7b0c ec3d 9d7c a73c 360f 093e
000000c0: fdce dbbd 307b 293e e788 0cbd 66c3 523e
000000d0: c32e 37be 706b 423d 8516 ccbd c1da 273e
000000e0: 883d dc3c 59cc 8e3e 2c1e 17be fbba 443e
000000f0: 4eb7 c03d b6b6 643d dc83 b9bd 0b6a d0bd
