transformer/results/st_transformer/t12_r4_i110_n3_h64_e300_l0.005.pth (torch, 323063 bytes, 32 tensors)

embedding.weight f4 [64, 5]
00000000: 12ef bcbf 1115 b7bd 6587 b1bf 83ce 05c0
00000010: 1475 86c0 ef31 cfba 8755 b93f 56f6 a33e
00000020: 6a8a 1c3e b059 97c0 ed04 92bf c9eb c0bf
00000030: 173e 81bf 8a7c 92bd 207e 7040 02a1 b7bf
00000040: 2443 dabf 49a8 36bf 9d2f 68bf d3c0 a340
00000050: 2bb5 cd3e a399 02bf c9c3 083f 5e2a 723f
00000060: 8f20 4540 a16d ea3e cb5f d03f 90ad 903f
00000070: f4ad 3d3e 8b43 92c0 66a6 b33d 44bf cdbf
00000080: 4987 2dbf d6c1 64be acc1 a040 0563 c5be
00000090: 5d0a 2ebf 0a93 04bf 9785 f5bc 6987 c540
000000a0: a2f2 263e 4e07 07bf 4fbf 383f 98c4 3c3f
000000b0: d1eb 69be 1e91 80be e88d 46bf 4265 6abf
000000c0: ba85 a3bd acd6 55be 262b 80be 7094 97bf
000000d0: c954 9dbe 79be a1be 3938 bb40 f1cd a3be
000000e0: 7bad 253f 8ebc babe 1d47 533e 4c7c 2bbf
000000f0: 62f0 1f3e 60b7 903e 846e 14bf 0891 74be
00000100: db7f dcbf 4795 a23e 75a6 aebe 8bac e2be
00000110: 18a7 a3bd b292 6440 1bf9 8cbf 0d0a 69bf
00000120: 548c 5ebf 85e8 83bf 5b0b bfc0 c30b 36bd
00000130: 9a91 b1bf 46dd 9cbf 0155 babe 8222 45be
00000140: 23d7 d13d 5e6a 843f c2f7 833f bbb2 163f
00000150: 8a6f cec0 27af afbe dafd f73e 45dd 1bbf
00000160: 08a6 2dba ed19 9d40 239b 06be c4c5 4ebf
00000170: dc79 f9be 4617 fd3e 483d b8bf e0b5 113d
00000180: 7be2 aa3f 688f 14be 4365 2dbe ff2b 77c0
00000190: b009 97bf b9e1 11bf 3ff4 a7bf 1bfa cbbf
000001a0: 742b b6c0 4cd2 cb3e 470a 873f 1ede 473f
000001b0: fded 2cbe 43c6 cec0 8b94 1ebf f202 95bc
000001c0: de7a b43d e057 4bbf fde5 2dc0 1b0f 893d
000001d0: 21b8 13bf 295e 85be d583 873e 5be6 a73f
000001e0: 14e9 07bf 5039 6f3f db8d babd 8c90 05bf
000001f0: e8b9 a6c0 ed1d c73f 0e36 233f 053e 543f
00000200: 6feb cd3f c132 f13f 52c0 243f 293e d4bd
00000210: 5c00 423f 2035 4a3f 34e0 ad40 845c 9cbe
00000220: 1f22 4e3d 303c bdbd d4cd a4be 3074 32c0
00000230: 69a6 523f db7f 6dbc be3e 893f 5640 793f
00000240: 1963 8140 a4e2 193f 7f28 1f3f dd1d 4d3f
00000250: 4ed1 833e c62a c0c0 ca8a 883f a403 03bf
00000260: a924 803f fd52 943f 3242 de3f 99f7 873e
00000270: d2e0 0a3f e619 d73e 11e5 03bf 044f dfc0
00000280: fcb4 ab3f f853 e13f b84b 5f3f afbe 293e
00000290: d6b3 863f 2f3b aebe ab36 793f ec4a 15bd
000002a0: 7f7a fdbc 4719 c3c0 0e10 0cbe 65ee 463f
000002b0: 5751 0abd a256 e9be afaa 4cc0 5fd1 95be
000002c0: 6a69 cd3e e062 b43e 170c dfbe dfa5 c8c0
000002d0: 8ad1 a5bd 3ce9 50bf 556b 6c3f 0586 cc3e
000002e0: 2dbc 0f40 e553 a0bc f935 d53e f96c 03be
000002f0: afd5 3e3e c338 9240 a945 703f badb afbd
00000300: 9181 a93f 540d a93f 725d 17c0 266b a2be
00000310: e683 53bf f970 073f 053b d33e 7755 08c0
00000320: 5fdb 10be 2776 8a3f e2ea 1fbf f307 59bf
00000330: d9ae 3f40 a78c 47bf 1f39 26bf 2553 253e
00000340: aa48 05bf 8734 7440 722e 85bd 4f53 59bf
00000350: fe71 96bf 7d71 6ebd 245a 4040 2410 753e
00000360: c7eb 453e 5efd 15bf de9f 57be 816d 9140
00000370: 801e 5bbf ceb9 d73c 6b7e 93be 824f f8bd
00000380: c98a 593e 8579 083e 985a 3ebf e136 cbbe
00000390: 5279 f9bd 0741 ae40 03c8 353f 3f89 1ebf
000003a0: 5987 8c3f 5c15 1a3f 629d 91c0 d1cc 02bf
000003b0: 2bbd a0be bb0c efbe 58b6 11be 02d0 4ac0
000003c0: 50e4 7a3e fc1c 213f a721 c9bc 7686 c03e
000003d0: 6800 bb40 69da c6be 8fa9 d33d 6082 14bf
000003e0: ed9e a63d 3d63 c940 f055 a13e 3fd1 babd
000003f0: a199 3e3e 5903 6f3f aa88 8840 b98e eebe
-1.4760458 -0.08939565 -1.3869444 -2.0907295 -4.201792 -0.0015807728 1.4479226 0.32023877
0.15287176 -4.729698 -1.1407753 -1.5071956 -1.0097073 -0.0715266 3.757698 -1.4346011
-1.705174 -0.7135053 -0.9069765 5.117288 0.40177283 -0.5101568 0.53423744 0.945959
3.0801122 0.45786765 1.6279234 1.1302967 0.18523389 -4.570745 0.08771972 -1.6073995
-0.67784554 -0.22339568 5.0236416 -0.38552108 -0.67984563 -0.51786864 -0.029970927 6.1727796
0.16303495 -0.5274552 0.72166914 0.7373748 -0.22843863 -0.25110716 -0.7756028 -0.9156076
-0.07984491 -0.20882672 -0.2503292 -1.1842175 -0.30728748 -0.31590632 5.850613 -0.31993058
0.64717835 -0.3647198 0.20632596 -0.66986537 0.15619043 0.28264904 -0.57981133 -0.2388345
-1.7226518 0.31754515 -0.34111372 -0.44272265 -0.07990855 3.5714536 -1.1013521 -0.9103096
-0.86932874 -1.0305334 -5.970136 -0.04444481 -1.3872559 -1.2255027 -0.36392978 -0.19251445
0.10246112 1.0344961 1.0309985 0.5886647 -6.4511156 -0.34313318 0.4843586 -0.60884506
-0.0006624167 4.909415 -0.13145117 -0.80770516 -0.48725784 0.4943182 -1.4393702 0.03557384
1.3350366 -0.1450783 -0.1693316 -3.8620603 -1.1799831 -0.5698505 -1.3121413 -1.5935701
-5.6928043 0.3980888 1.0550011 0.780733 -0.1688766 -6.461702 -0.6194541 -0.018189881
0.088124976 -0.7943096 -2.7171624 0.06692334 -0.57702833 -0.260484 0.26467767 1.3117174
-0.53090024 0.93446827 -0.09109088 -0.52173686 -5.2101936 1.5556008 0.63754356 0.82907134
1.6087474 1.8843614 0.6435596 -0.103634186 0.757818 0.7898731 5.4336185 -0.30539334
0.05032551 -0.092399955 -0.32188284 -2.7883415 0.8228517 -0.014495815 1.0722272 0.97363794
4.043347 0.6011145 0.6217117 0.8012369 0.25745624 -6.0052214 1.0667355 -0.5117743
1.0011188 1.1587826 1.7363951 0.2655609 0.542493 0.42011946 -0.515214 -6.9783955
1.3414607 1.760375 0.8722491 0.16576646 1.0523632 -0.34029528 0.9734904 -0.036448404
-0.0309422 -6.0968356 -0.13678 0.7770751 -0.033768978 -0.45573908 -3.1979177 -0.292613
0.40119487 0.35231686 -0.4356391 -6.270248 -0.08096607 -0.8160589 0.92351276 0.39946
2.2458603 -0.019571254 0.4164274 -0.12834539 0.18636201 4.569429 0.9385629 -0.085868314
1.3242666 1.3207192 -2.3650784 -0.31722373 -0.82623136 0.5290676 0.41255966 -2.1302164
-0.14146183 1.0817307 -0.6246778 -0.84777755 2.9950469 -0.77948993 -0.6493091 0.16144998
-0.52064 3.815706 -0.06502999 -0.84892744 -1.1753538 -0.0582137 3.0055017 0.23931938
0.19328223 -0.5858973 -0.21057078 4.544617 -0.85593414 0.026333716 -0.28807387 -0.1212454
0.21244349 0.13327606 -0.74356985 -0.39690307 -0.12181343 5.445438 0.7100832 -0.6192817
1.0978805 0.6018884 -4.550462 -0.51093775 -0.31394324 -0.466894 -0.14229715 -3.1689458
0.24501157 0.6293485 -0.02455218 0.37602586 5.8437996 -0.3883851 0.10335075 -0.58011436
0.081357814 6.293364 0.31510878 -0.09121942 0.18613292 0.93364483 4.2666826 -0.46593264

embedding.bias f4 [64]
00000000: 8342 98bf 1703 9a3d f921 e7bd f80c abbf
00000010: 4c60 1b3f 4ea5 a9be 4235 083e 28b0 843d
00000020: 4166 c4bc 62c3 cdbe aaa1 363e e8c9 6c3d
00000030: 909d adbe 9921 ba3d 8eb2 f1be aa88 3f3c
00000040: e329 85bd 5669 0bbe 76bc 45be d6f8 0c3f
00000050: 652a a0bf a8aa ee3d 88e5 2f3d b7d1 3d3f
00000060: 28c0 61be 6726 a93f 1965 323f d86f 13bb
00000070: cbf7 9a3f f78f 79bd cd17 863f c7cf e23e
00000080: be05 cf3b d6e8 023f aecc 35bd 273a 643d
00000090: 7caf 993e 78d5 873d 3b14 9e3f d1ce 013f
000000a0: adb3 e0bd 05a1 25bf 0719 6cbd f3f1 dbbe
000000b0: 19eb d1bd cea4 9c3e 171e 243f 89c5 12bf
000000c0: 6514 ce3e 23b5 cabe 1bf1 4f3e a343 cc3d
000000d0: 70f6 3e3e 7e9c a73f 1cd5 5f3f 2169 8dbe
000000e0: a372 123f b527 b13e 3d03 47be e7fb 923f
000000f0: 4aff 8dbf a76b 9ebe 8e34 6abe 8a3e b3be
-1.1895298 0.075201206 -0.11285777 -1.3363333 0.6069381 -0.3313393 0.13301566 0.06478912
-0.02397454 -0.40188128 0.17835107 0.05780974 -0.33909273 0.090884395 -0.4720654 0.011690298
-0.0650213 -0.13614401 -0.19310173 0.55067194 -1.2512938 0.11653644 0.042943507 0.74148124
-0.22045958 1.3214844 0.6968551 -0.0022497084 1.210687 -0.06092831 1.0476013 0.44299147
0.006317823 0.5113653 -0.04438465 0.05571952 0.30016696 0.06632513 1.2349924 0.507062
-0.109717704 -0.6469882 -0.057641055 -0.4295803 -0.102499194 0.30594486 0.64108413 -0.57332665
0.40249935 -0.3959132 0.20306818 0.09973838 0.18648696 1.3094633 0.87434554 -0.2761927
0.5720617 0.34600607 -0.19434829 1.1483124 -1.1093533 -0.30941507 -0.2287161 -0.3500865

transformer_encoder.layers.0.self_attn.in_proj_weight f4 [192, 64]
00000000: 7f63 873f 4c6a 2cbf 729e ea3e 11ad 6b3f
00000010: 3650 a93e 7072 1fbf dce2 2f3f cae4 363f
00000020: 0aa9 843f 221d 073f 2329 813f 0850 eb3e
00000030: 6c71 c0bf e22e b33f 092f 483f edb2 263f
00000040: 8b26 98bf f466 2fbf 57b1 0040 b460 853f
00000050: 66d8 bd3e 8496 893f 9b74 53bf b987 743e
00000060: 06be 0dbf a44f f0bf fbeb 30bf f3a8 733c
00000070: 2d65 69be 0864 f7bf a6ed de3c feee fabf
00000080: 1212 0d3f fcf0 6ebf 5e24 a43f b059 9dbf
00000090: 04d5 863e fca4 82bf bc67 bcbe 6b45 2abe
000000a0: 6f0c d03e 9e7e 6f3f addb 393f 9e5c 263e
000000b0: 25fa 283f 4dc8 7abf 5fc1 843e a012 873e
000000c0: dffb b5bd 9922 f13b 5beb e73d 1882 063f
000000d0: 038b 07bf b296 4abf 67af 713f a836 10bf
000000e0: 018b 7d3f 99a1 b6bf 1819 26bf b88f a8bf
000000f0: 7fb6 5d3f 1bd6 113e 1776 f2bb 54aa 2b3e
00000100: 170a 3f3f b6b2 07bf 1ec4 7d3e c653 d03e
00000110: 7276 e4bd 7c7a 82bf f031 8c3e cc62 c43e
00000120: 5838 a63e 277b e1bc 139a d53e 8d79 a03f
00000130: 045d a3bf fded 263f 628b 3c3f 7de2 0f3e
00000140: d21b 3dbe 38f0 cf3d fa81 ce3f eb61 9f3f
00000150: 68e4 463f f2c7 943f 9137 1c3e 595c 1d3f
00000160: fb96 4b3f 4771 0cbf 5d98 83bf 7a6a 48be
00000170: ac2c 37bf f0bc 9a3e 5442 91bf fb90 413e
00000180: deb2 84bf cb13 43bf 0303 c13e 3934 d4be
00000190: 02ed a73d 9f71 8ebf 906c 08bf b76d 0e3f
000001a0: e962 13bf d57d 11be 120b 93bf 05f1 fa3d
000001b0: 4766 f1bd 727c 06bf 32bb c83e 3f60 1f3e
000001c0: b65f 40bf 0824 91bf f185 a1be 6bc8 f3bf
000001d0: 155f dcbe d73c eebd b393 2bbd 611b 1c3f
000001e0: af30 113e e9a9 b8bf b285 86bf 72bd b5be
000001f0: 4c76 793f 59bd 223f a308 e33f 0291 c63e
00000200: 057f 7e3e c59c a2be 9dd7 583f d0b0 083d
00000210: acac 47be 3423 4fbe 9a61 333f f980 ee3e
00000220: 4800 2e3e b8f5 96bf 5195 833f 9dd7 a1bf
00000230: dab7 85bf d832 ca3e b711 e6be bcf1 c83f
00000240: 8a02 e0bf 0683 43bf ca04 053f 6c27 4b3e
00000250: faad 01be c80e 4ebf d7c7 5fbf d735 c1bf
00000260: c74c 40bd 4227 e1bf 45e3 703e ff21 12bf
00000270: f422 223f 69ab 07c0 dc65 bc3e 3248 bfbf
00000280: d291 e53f cf4d 9ebf 70ec ac3f f88f c2be
00000290: c79d 86be b74a 5abf 68d8 d83e c4d0 79bf
000002a0: 2097 f73f 38c4 6e3f 0f6a f73f f8ac 603f
000002b0: 01d3 0e3e ffe7 f63d bfb8 dabe da3c 293f
000002c0: 7993 503f 7527 683e 92b1 443f 65fb e03e
000002d0: aef4 993e 8257 88be 9980 013d c3cf ce3e
000002e0: d0ea c13e 6320 d6be bd30 b43e 8dc6 61bf
000002f0: 46fc ed3e eea1 183e c83c c93e a2ca 88be
00000300: 82df 143f 19fd 88be 5986 ecbe 33e6 c0bb
00000310: 8b0e 833e 4475 32bd e4a2 12bd 1db3 28be
00000320: 2c53 7cbe ef1b a43e 1f2b 053f 8507 85bf
00000330: 641d 5fbf e9ba e43e 6ee7 853c da9b 313f
00000340: 31ab fcbe 8ce0 40bf 3e5f 253f 8c5c 933f
00000350: 5c5a c0be f7fa 5a3f 9fa6 8dbf 4d69 6b3e
00000360: 91de 7bbf b1d0 72bf e604 c03e c450 2f3e
00000370: 9270 48be 9779 3bbf 43ec 033f d93f 49bf
00000380: b65f 253f 2a7e 0e3d 4bae 363f 10ca 4abf
00000390: fee2 3e3f 02a7 8dbd 5d51 243f a039 85bd
000003a0: a761 b2bc 67c2 273f 70e6 0d3f bc7c 89be
000003b0: de2a 86be f1de 52bf 22c4 de3e f86b 0ebe
000003c0: b20d f7bd dd34 16bd ee3a cc3e d1f1 b73e
000003d0: 95ca c63e d879 45bf ca81 b13f ec5b 2dbf
000003e0: 2371 873f af99 aebf 1626 dabe ab16 59bf
000003f0: ff1d 8f3d c781 5b3e f04d 373e 2c8b 0ebf
1.0577239 -0.67349696 0.4582401 0.92060953 0.3306901 -0.6228399 0.68705535 0.71442854
1.0364087 0.5277883 1.0090679 0.45959496 -1.5034614 1.3998682 0.7819677 0.6511677
-1.1886762 -0.6851647 2.010824 1.0420136 0.3707916 1.0749059 -0.825998 0.23879899
-0.5536808 -1.8774304 -0.6911008 0.014871824 -0.22792502 -1.9327402 0.027212929 -1.9604185
0.551057 -0.9333646 1.2823598 -1.2292995 0.26334393 -1.0206599 -0.36797893 -0.16628043
0.40634486 0.9355258 0.72600824 0.16246268 0.6600669 -0.97961885 0.2592878 0.26381397
-0.08885931 0.0073588607 0.11324187 0.5254226 -0.5294649 -0.7913619 0.9440827 -0.563334
0.9904023 -1.4268066 -0.6488204 -1.316886 0.8660659 0.14241831 -0.0073993313 0.16764194
0.7462477 -0.53007066 0.24781844 0.40688914 -0.11155404 -1.0193629 0.2738185 0.38356626
0.32464862 -0.027524544 0.41719112 1.2537094 -1.2762761 0.6520689 0.7365018 0.14051242
-0.18467644 0.1015324 1.6133416 1.2451757 0.7769227 1.1623518 0.15255572 0.61469036
0.7952725 -0.5486035 -1.0280873 -0.19571868 -0.7155254 0.30222273 -1.1348367 0.18902962
-1.0367086 -0.76202077 0.3769761 -0.41446093 0.081995025 -1.1128424 -0.53290653 0.5563616
-0.575728 -0.14208157 -1.1487753 0.12253002 -0.11787086 -0.5253364 0.3920532 0.15564059
-0.75146043 -1.1339121 -0.31547502 -1.9045538 -0.43041292 -0.11632698 -0.041888904 0.60979277
0.14178728 -1.4426852 -1.050955 -0.35496098 0.9744613 0.6357017 1.7737011 0.38782507
0.24853142 -0.3176023 0.84704 0.033371747 -0.19499463 -0.20228273 0.70070803 0.46582773
0.16992295 -1.1793737 1.0279943 -1.2643925 -1.0446732 0.39491916 -0.4493539 1.5698771
-1.7500775 -0.763718 0.5196043 0.19839257 -0.12664023 -0.80491304 -0.87414306 -1.5094556
-0.04694822 -1.7590106 0.23524196 -0.57083124 0.63334584 -2.119837 0.36796463 -1.4943907
1.7935126 -1.2367495 1.3509655 -0.38000464 -0.2629225 -0.85270256 0.42352605 -0.97584176
1.9342995 0.93268156 1.9329242 0.8776393 0.13947679 0.120559685 -0.42719075 0.6610848
0.81475025 0.22671302 0.7683345 0.439418 0.30069488 -0.26629263 0.03161678 0.40392885
0.3787446 -0.41821584 0.35193434 -0.8819359 0.46481532 0.14905521 0.39304185 -0.26717097
0.58153546 -0.26755598 -0.4619625 -0.005886817 0.25597033 -0.043568864 -0.035799876 -0.16474576
-0.24641103 0.32052562 0.5201892 -1.039292 -0.8715422 0.4467385 0.016345706 0.69378436
-0.4934936 -0.7534263 0.64598453 1.1512618 -0.3756894 0.8553919 -1.1066474 0.22989388
-0.98386484 -0.9484969 0.37503737 0.17120653 -0.19574192 -0.73232406 0.5153238 -0.7861305
0.6459917 0.03478829 0.713597 -0.7921457 0.7456511 -0.0691662 0.6418665 -0.06505132
-0.02177508 0.6553101 0.55429745 -0.26852977 -0.2620458 -0.8237143 0.43509012 -0.13908374
-0.12063159 -0.036671508 0.3988871 0.3592668 0.38826433 -0.77139044 1.3867733 -0.67718387
1.0581402 -1.364065 -0.42607182 -0.84800214 0.06988143 0.21436225 0.17900825 -0.5568111

transformer_encoder.layers.0.self_attn.in_proj_bias f4 [192]
00000000: ebac 5fbf b6c5 b43c e016 21bf 6597 d6be
00000010: 9959 683f 4b1b 043f 76c3 4bbf 6f87 43bf
00000020: 8c1d 3d3f 20b6 0b3f 1ed9 c73e a4a1 14bf
00000030: 6ead 24bf be8e b9bf 0022 17be e51c c43e
00000040: 911d 39bf 24ee 89be 21f3 03bf 747e af3d
00000050: a95a 06bf 47ee 99be 183a 87be 9582 3b3d
00000060: 3e2b c3be 4c44 bc3e 7f7f 843f e100 1c3e
00000070: 47d1 08bf 4902 233e 1015 3c3f e737 31bf
00000080: b989 783e fac2 26bf ab02 6ebe a945 0ebf
00000090: 1adf 8b3f 9325 883e 57c9 03bf b3e2 74bf
000000a0: df42 be3e ce91 4fbf bb49 b93c 0b1c b83f
000000b0: 86ad d73e ed8f 183f 78f2 84bf 101f 7dbb
000000c0: 67c6 613e 3b3c d43d 75bd 2fbe 5581 a8be
000000d0: 74b8 00bf e258 153e db23 8ebf 1058 a7be
000000e0: 4d67 0dbf 9952 96bd 9cfe 9fbe 7ef6 07be
000000f0: 8e02 00be a3a6 ee3c c869 0dbf 46a7 76bf
00000100: 084f 8fbf 6c9f c0be 531a 9ebe 733f 10bf
00000110: 0e5e 69bf 14f0 ed3d 0858 01bf 136c ac3e
00000120: 29a2 1b3f 2f6e 803e aad3 8ebe 7c31 6abe
00000130: 4387 93bf 351e f3bd 0c74 2dbe b5b6 bebe
00000140: 3ff6 153f c13b d13e c36f 97be 0574 a0be
00000150: be16 77be 1b6e 77be a0fa 83be b4ad e1be
00000160: 0eed 13be bd8a 913e 32ab cebd 136a 95be
00000170: 8bce 97be 8ed8 cebd 69b6 b13e ab68 bcbe
00000180: 71bf 5fbd 67ed bbbd c98b bfbe 69ac 233e
00000190: 0388 7abd 8242 993e fcc6 103e e9ce 7abe
000001a0: 12e0 093e 7dc1 e9be 9d5e 533d 7b1b 7b3e
000001b0: 49bf 5dbe e099 31be baf9 3c3e ae3e f1be
000001c0: c0bd 6cbe ff4e efbe 1e23 e4bd b26d 083e
000001d0: 5300 56be ac20 1ebe db29 703e 66ca e9bd
000001e0: fe11 51bc 38ff 933e 8276 7d3e dcac 0d3e
000001f0: 4433 b0bd 3a35 afbe c7bc a83e b47e 193e
00000200: 05bf 2b3d ad1a 5dbe 11ab 99be a510 87bd
00000210: 90c8 19be 65e4 353e e2da 5e3d 8cf2 9f3e
00000220: b235 823d d8bb fc3e 7706 aa3e 549a 13be
00000230: 594f 0bbd 9731 873e 0fe1 013e 3dce 89be
00000240: ef16 7d3f d571 0bbf 8c1c cfbe 6daf 913f
00000250: 6f89 4f3f 9dbd bcbe 0ec9 d23e 4c33 273f
00000260: ab35 fc3e 2166 14bf e7c0 89bf 60c4 09bf
00000270: ee38 24bf d345 c1be c5a6 07bf 681f 193f
00000280: 0345 853e 79fa ea3e 5351 27bf 484e 34bf
00000290: 567d 3ebf dfec 733f 907f 25be 5448 32be
000002a0: 21cf 143f f25c 23bf dec7 4fbe 777d 043e
000002b0: 5cc8 2e3e 1000 bc3e a72a a5be 0210 b63e
000002c0: ec80 8fbe ff45 053e 1fec f13e 9ec3 2b3f
000002d0: f00d 66be 2b03 89bd de74 5a3e ddea 82bd
000002e0: 49ee de3e 958b 33bf face fdbc 53cc 17bf
000002f0: 4c27 e1be 2fa2 ca3e 5f47 d1bd 3990 ae3e
-0.87373227 0.022066932 -0.6292553 -0.4191238 0.90761715 0.51604146 -0.79595125 -0.7637853
0.7387321 0.54574776 0.39032835 -0.58059144 -0.6432713 -1.4496686 -0.14759064 0.38303295
-0.7231074 -0.269395 -0.5154286 0.08569041 -0.52482086 -0.30064604 -0.2641151 0.04577883
-0.3811893 0.36770856 1.0351409 0.1523471 -0.5344433 0.1591884 0.7346964 -0.69225925
0.24271287 -0.6514126 -0.23243205 -0.5557504 1.092746 0.26591167 -0.51479095 -0.95658416
0.37160394 -0.81081855 0.022618165 1.4383558 0.42124575 0.59594613 -1.0386496 -0.003862325
0.2204834 0.103630506 -0.17162116 -0.32911173 -0.50281453 0.14584687 -1.1104692 -0.32684374
-0.5523575 -0.07339973 -0.3124894 -0.13277623 -0.12500975 0.029132193 -0.55239534 -0.9634899
-1.1195993 -0.3762163 -0.3087946 -0.56346816 -0.9115914 0.11618057 -0.5052495 0.33676204
0.6079431 0.25084063 -0.27895862 -0.2287044 -1.1525654 -0.11870996 -0.169388 -0.3724877
0.58578867 0.408659 -0.29577455 -0.31338516 -0.24129769 -0.24163096 -0.2577715 -0.44077837
-0.14445898 0.2842616 -0.10091247 -0.2918249 -0.29649767 -0.10099898 0.3470948 -0.36798605
-0.054625932 -0.0917614 -0.37411335 0.15983738 -0.061164867 0.29933554 0.14138407 -0.24492992
0.13464382 -0.45655432 0.051603902 0.24522202 -0.21655001 -0.17343855 0.18454638 -0.47118133
-0.23119259 -0.46739957 -0.111395106 0.13323095 -0.20898561 -0.15442151 0.23453467 -0.114155576
-0.012760637 0.28905654 0.24752238 0.13835472 -0.08603528 -0.34220296 0.32956526 0.1498974
0.041930217 -0.21592207 -0.30013326 -0.065949716 -0.15017915 0.17762907 0.05440796 0.31239736
0.06357898 0.49362063 0.33208057 -0.1441434 -0.03401122 0.26405022 0.1268351 -0.2691516
0.9886312 -0.5447057 -0.40451467 1.1381661 0.8106908 -0.36863413 0.41169018 0.6531265
0.49259695 -0.57968336 -1.0761994 -0.5381527 -0.6414937 -0.37748584 -0.52988845 0.5981355
0.26029214 0.4589422 -0.65358466 -0.7043195 -0.7441 0.9528331 -0.16161942 -0.17410403
0.58128554 -0.638137 -0.20291087 0.12938486 0.17068619 0.36718798 -0.32259104 0.35559088
-0.28028047 0.13014983 0.4725046 0.67095363 -0.22466254 -0.06690057 0.21333644 -0.06392453
0.43541172 -0.7013486 -0.030982483 -0.5929615 -0.43975294 0.3957686 -0.10218691 0.34094408

transformer_encoder.layers.0.self_attn.out_proj.weight f4 [64, 64]
00000000: 5996 653f 897c a5bf ee4e 90bf e99f b53e
00000010: 6a81 d23f 0b2f 38c0 7729 033f 83fe 033f
00000020: 7a84 0ac0 baa2 3740 ca1d 43be e215 4a3f
00000030: 92bd ea3f 072d f0be 94d1 1fbf 523e b8bd
00000040: 0a01 c93e a6f1 d4be a876 6abf 5c87 953f
00000050: 921c e93e a609 1b3f bb77 113e 0c05 593e
00000060: bd9d 56bf a79f 90bf b0ff 44bf 87b1 e6bf
00000070: 8c44 a8bf e24d f8bf b850 833f 3ad9 5b3f
00000080: e257 1240 91cf 99be 2e55 15c0 c467 0ac0
00000090: 424c 41bf d489 04c0 ee86 1dbe e21e 943d
000000a0: f20f a83f 9a82 f4bf 4c76 dabf ff04 3740
000000b0: 605e 123f cab0 d13f 99a2 93bf 028c 2b40
000000c0: d9b5 a0bf e1b9 2640 73ab ef3f 199f 1840
000000d0: cfc7 2dc0 2985 0b40 06f1 a83f 9dd0 f9bf
000000e0: bf05 f03f b740 b6bf e0a3 0dc0 e3d6 54bf
000000f0: c177 3fc0 09e0 f13f 5c26 adbf 55ef 783f
00000100: 8798 a63d d4f2 eebf 3ecd 76bf 4854 ac3f
00000110: 7e8b fc3f 80bc 4dc0 9d6e 9bbb 15b5 b53f
00000120: 8837 28c0 1838 323f 41dd 8bbf 655a 473f
00000130: b9ba 1940 0366 89bf 6044 8dbe 95db 5b3f
00000140: 1dde 88bf fd0f 8e3e 863b 3ebf 2dbc 83bf
00000150: 1c2d 89bf 1d33 ef3e 4688 b2be 52d9 973e
00000160: 471f 553c 7613 babe fd0f f83e d59d f93e
00000170: 6ec1 72be 5b38 8bbe 7aec 3abd bf0a 48bf
00000180: bff6 bf3f 9f13 3c3f bc63 5a40 b51c 3f40
00000190: 2fbb 5240 2438 b0be 046d 28bf f08d 5abe
000001a0: c75c 95c0 f734 4a40 f334 6b3f e6b9 83c0
000001b0: 4920 6cbf 4b28 52c0 03a1 5e3f 2d03 11c0
000001c0: 3256 5dbe 0301 a1bf 9936 dcbe 1294 9e3d
000001d0: eb71 a43f 31fc 6ebd 43b4 17be 588f 533e
000001e0: 4e06 ec3d c021 4fbe 68e0 5b3e 843b 923e
000001f0: 112a 79bd 56d2 5ebf f259 193e 91f8 3dc0
00000200: 79f3 323f e13d 94bf 8437 73bf 84f5 c13f
00000210: 354f 0a40 4417 0fc0 1335 3a3f 3c3e a83e
00000220: 4992 15c0 787e 5c3f c7cd bbbf 763a 833f
00000230: f7ac 653f 15b3 b9bf 36b0 61bf 077d ab3f
00000240: 170a 77c0 8d49 c43f b58b b9bf 2aeb bbbf
00000250: b7e3 18c0 42f4 d83f 0122 eebf c05e 29c0
00000260: 02bb 9ebf c767 08c0 b522 373f 2a4f aebf
00000270: 10a2 c3bf 34de 98bf e95b ce3f c982 efbf
00000280: e8d0 3b3f ce6f cbbd 2455 e43e 2b38 a33f
00000290: f125 553e b3f8 01bf aa69 72bf 562f ab3e
000002a0: ccdb 77c0 8425 413f c2e2 593f 9148 c0bf
000002b0: 72c0 4ebf 2860 d5bf c1c4 623f 6ad6 f7bf
000002c0: 1dc5 f13e 0064 21bf ea9e 38be f623 ffbe
000002d0: cb45 bd3f c27c 21bf 9b9f 99bf 703f d0bf
000002e0: 010a 82bf e6ef 2b3f 7ff3 503f 9768 cb3f
000002f0: af0f ad3f f368 6cbf fc58 d0be d89b bebf
00000300: 867f d5bf 1252 f83f 1e29 963f 5298 e5bf
00000310: b4f6 08c0 2400 5940 c94f fcbf 8443 e4bf
00000320: e0cc 1c40 e5e7 1bbf f37f d93f 4bfe a8bf
00000330: a83a a5bf 23bf af3f 008a b03f a50b dbbf
00000340: 3ed0 80bf a31d 943f eb91 4ebf e0d4 92bf
00000350: c241 bbbf 6181 c83f 0121 a7bf d786 c2bf
00000360: 5a96 a5bf 70d5 acbf c09f ad3f 8584 67bf
00000370: 799d bbbe c0c5 b4bf c5f6 f33f d4ec 7dbf
00000380: 3586 e9bf cef7 e53e 49b8 efbf 12e2 83bf
00000390: 9d41 7ebf 172f 85be 3c19 09bf 2121 20bf
000003a0: 7003 4440 9a3d 7bbf cbb8 f5be 8b30 1d40
000003b0: 0e8a 2b3f 688a 0b40 6eb6 04c0 6d78 2640
000003c0: e3e6 aa3e 3e1c 0ec0 8abb 71bf b8fd 98be
000003d0: b208 0740 8f28 e0bf 228c ac3e ecb7 09c0
000003e0: 8290 0a3e 950f 1e3e 5e77 2f40 26c6 94bf
000003f0: d3cf bb3e 8464 c0be cdb0 193f 6679 f83f
0.8968254 -1.292863 -1.1274087 0.35473564 1.6445744 -2.8778713 0.51235145 0.5156023
-2.1643357 2.869307 -0.19054332 0.7893964 1.8339102 -0.46909353 -0.62429166 -0.08996262
0.39258605 -0.41590613 -0.91587305 1.1681933 0.4552961 0.605616 0.1420583 0.21193331
-0.8383444 -1.1298722 -0.7695265 -1.8022927 -1.3145919 -1.9398768 1.0259008 0.85878336
2.286614 -0.30041173 -2.333324 -2.1625834 -0.75506985 -2.0709124 -0.15383503 0.07232453
1.3129866 -1.9102356 -1.7067351 2.85968 0.57175255 1.6382077 -1.1533996 2.6804204
-1.2555496 2.6050951 1.8724197 2.3847106 -2.7153203 2.1800025 1.3198555 -1.9516789
1.8751754 -1.4238499 -2.2131271 -0.8314039 -2.9916842 1.8896495 -1.3527331 0.9724019
0.08134561 -1.8667855 -0.96406925 1.3463221 1.973007 -3.2146301 -0.0047434107 1.4195887
-2.6283894 0.6961684 -1.0926896 0.77872306 2.4020216 -1.0734257 -0.27591228 0.8588193
-1.0692784 0.27746573 -0.74309576 -1.0291802 -1.0716891 0.46718684 -0.34869593 0.2965799
0.013007945 -0.36342973 0.48449698 0.4875323 -0.237066 -0.27191433 -0.045635678 -0.781414
1.4997176 0.7346744 3.4123373 2.9861271 3.2926748 -0.34417832 -0.65791345 -0.21343207
-4.6675754 3.1594827 0.9187767 -4.1164427 -0.92236763 -3.2837093 0.86964434 -2.2658188
-0.21614912 -1.2578434 -0.43010405 0.07743086 1.2847265 -0.058345977 -0.14814858 0.2066015
0.1152464 -0.20227718 0.21472323 0.28561032 -0.060831133 -0.870397 0.14975718 -2.9682963
0.6990276 -1.1581384 -0.95006585 1.515305 2.1610844 -2.235795 0.72737235 0.3285998
-2.3370535 0.86130476 -1.4672173 1.0252216 0.8971705 -1.4507776 -0.881595 1.339753
-3.8599908 1.5334946 -1.449576 -1.4681141 -2.3888986 1.6949542 -1.8604127 -2.646408
-1.240082 -2.131334 0.71537334 -1.3617909 -1.5283833 -1.1942811 1.6121799 -1.8711787
0.7336564 -0.099334344 0.44596207 1.2751516 0.20815255 -0.5077011 -0.9469248 0.33434552
-3.8727903 0.7544787 0.8511163 -1.5022146 -0.807624 -1.666997 0.8858147 -1.9362309
0.47220698 -0.6304321 -0.18029371 -0.49832124 1.4786924 -0.6308099 -1.2001833 -1.626936
-1.0159303 0.6716293 0.81621546 1.5891293 1.3520411 -0.9234764 -0.4069289 -1.489131
-1.6679542 1.9400046 1.1731298 -1.793711 -2.1400576 3.3906336 -1.9711848 -1.7833104
2.4500046 -0.6090072 1.6992172 -1.3202604 -1.2908525 1.3730205 1.3792114 -1.7112929
-1.006355 1.1571544 -0.80691403 -1.1471214 -1.4629443 1.5664483 -1.3056947 -1.51974
-1.2936509 -1.3502636 1.3564377 -0.90436584 -0.3664358 -1.4122849 1.9059683 -0.99189496
-1.8244082 0.44915622 -1.8728114 -1.0303366 -0.9931887 -0.2601249 -0.5355413 -0.6255055
3.0627098 -0.9814087 -0.47992548 2.4560878 0.6700753 2.1803226 -2.0736346 2.6011002
0.33379278 -2.2204738 -0.94426787 -0.29881072 2.1099057 -1.7512378 0.33700663 -2.1518507
0.13531688 0.15435632 2.7416606 -1.162297 0.36681995 -0.37576687 0.600354 1.9412048

transformer_encoder.layers.0.self_attn.out_proj.bias f4 [64]
00000000: 0675 f63f 2d10 083f 0308 b33c 4ddf 06bf
00000010: 6648 ddbf c89c b73f fc93 85bf e0fb 90bf
00000020: bd07 4c3f d1ff a13f 3b2e 6bbf 42d2 263f
00000030: 42d6 8abd bacb 75bf 92ca 45bf 685e 41bf
00000040: b8da b33f 13c0 1c3f 0229 d13e f525 d93d
00000050: 0aa7 463f 5888 fcbf 1caa 5f3f 746b 0e3f
00000060: bbf2 c43f 0b2a c93e de57 06bf b907 d2be
00000070: 1cd5 e7bf dee1 3e3f fa78 f2be 3241 fa3e
00000080: bc38 75bf ab39 d73e 8bde f1bd 0bd5 653f
00000090: b363 33bf 81be f33f 33d1 563f f647 d23f
000000a0: bed1 823e 4d0b bd3e 34ac 5d3f bc17 82bf
000000b0: 9854 9abf b6fd ff3e b21c 35bf 0000 da3e
000000c0: 7b23 c13e bc51 c6be 9d9b d23c 09be b43d
000000d0: bf41 c5bf 6973 cfbe aafe a4be 8772 0cbf
000000e0: 9fc8 51bf adb9 b53f c74f 89be 14bd 6b3f
000000f0: 2646 32be 1044 bebf 06bd 61bf d9a4 c83e
1.9254463 0.5314968 0.021854406 -0.5268448 -1.7287719 1.4344721 -1.0435786 -1.1326866
0.7969931 1.2656194 -0.9186742 0.6516458 -0.06779148 -0.9601399 -0.7726222 -0.7553468
1.4051123 0.6123058 0.408516 0.10602943 0.7759863 -1.9729109 0.8736894 0.5563271
1.5386575 0.3928989 -0.52477825 -0.41021517 -1.8111911 0.74563396 -0.47357923 0.48877865
-0.95789695 0.42036185 -0.11810025 0.897782 -0.70074004 1.9042512 0.8391296 1.6428211
0.25550646 0.36922684 0.86590886 -1.0163493 -1.2057066 0.49998254 -0.7074691 0.42578125
0.37722382 -0.38734233 0.025708968 0.08825309 -1.5410689 -0.40517738 -0.32225543 -0.54862255
-0.8194675 1.4197289 -0.26818678 0.92085385 -0.17409572 -1.4864521 -0.8817905 0.3918827

transformer_encoder.layers.0.linear1.weight f4 [128, 64]
00000000: b3d0 2f3f e4e1 353f fe6f 1fc0 966b f2be
00000010: 7772 0b3e def1 7fbf 545c 2b3f 31f4 bd3f
00000020: 5fa9 96be c348 cdbe bd6e 3c3f d19b fa3d
00000030: f5dd ecbe 9397 293f dc9c e23f a464 44bc
00000040: 9b4f b9be 5fbe cdbd cd0e 24bf 907c a73f
00000050: a079 27bf 17a2 443e aaf1 03c0 8a59 d53f
00000060: b7da 9bbf e0ad aabf 826c de3f 7a97 cebe
00000070: de76 1040 1db5 7a3e 99cd 543f 7b9a 6abf
00000080: 1157 dd3f b3ac 953f ab66 753f d90e ddbe
00000090: 0740 593f deb0 d8bf bb2e a7bf 2b6a 32bf
000000a0: 2aa8 2dbf 0a7a 803e 69ba 01c0 2a83 7cbf
000000b0: 082b 51bf d4d0 46c0 3a14 603f 114c 95bf
000000c0: 15c8 58bf 91e1 9a3f 1f08 113f 2e7d 0ebe
000000d0: 0c43 f43f b929 2340 890e 9f3e fa31 623f
000000e0: 9a93 d43e 4684 38bd d8c5 10bf 46f8 a63e
000000f0: 5641 56bf 75a2 95be 898f ab3f 64c2 d43f
00000100: 7afa 54be 1cc0 b43f c2e9 ee3f 70fd 233b
00000110: 3272 09bf 7712 923f f967 47bf b1b8 0bc0
00000120: 100b 2a3f 689e 9f3e e795 5dbf 7218 ff3e
00000130: 5110 e33f b450 febf 0f41 09c0 c6d2 96bf
00000140: 134e 953e ef55 d2bf d139 b8bd 3e04 e93e
00000150: 3ee0 e93f 6ad9 283e 1a77 493f af54 08c0
00000160: 04d6 ee3f 7e75 273f bfbc 16bf d5b8 5bbe
00000170: db0f bebe 7f13 a8be 34cb 91bf 2e55 8e3f
00000180: 092e 84bf 9d78 f23e c962 3bbf 0b7f 7e3f
00000190: d7f2 193f 4a0d d23f 139d 0140 5d49 eb3f
000001a0: 0806 24bf 78ec cabe 8fbe 983f b669 0540
000001b0: 438e b03f 4158 f43f add4 98be 2a76 353f
000001c0: b9d8 1f40 27a4 38bf 0d61 1b3e 6550 423f
000001d0: db4e 60bf 4e6b a5bf c0b0 fabc 3a31 c83e
000001e0: 5d4e 49bd f783 d0be b121 5b3f 73cb b2be
000001f0: 0d3c 393f 5405 313f 3cc3 0cc0 0f0e 3dbf
00000200: 6f61 e5bf 558d 19bf ccef c0bf 4ebc 81bf
00000210: 0101 48be 7b45 8dbe 7d99 2f40 c492 3e40
00000220: 51e8 1840 e50d 993f 324a febf 56b7 aa3d
00000230: 0594 c33e fd1e ac3f 4a0c 0440 d193 d73f
00000240: da65 bfbe 42dc 44bf c7e0 33c0 dd08 41c0
00000250: fd28 07c0 af1e 703f eeff 043e 1512 073f
00000260: 390a b0be 30f3 7fbf 1307 0c3f d394 3dbf
00000270: 3d7c a43f 500f d73f 4bd7 f23f 3206 11c0
00000280: f402 273f 5fea 91bf 03b0 fb3f 056e 8fbf
00000290: f01d 333f 03f8 ebbf 4ae9 353f ed15 a6bf
000002a0: 1bc5 47bf f913 8cbe 22e3 bdbf 631c 67be
000002b0: 4d22 75be 7e59 d5be 0e03 02c0 dd2b 24c0
000002c0: 6150 05c0 e4c2 9dbf aebf 0340 f5a0 3640
000002d0: 1ea9 2240 8805 993f 2598 4740 22a2 32bf
000002e0: 176c a4bf fa09 cb3e ee21 76bf 7eac 273f
000002f0: a4de 50be 6671 93bd 3f05 123f 901c 72be
00000300: 0ed2 fbbe 37e8 0540 7812 853f f844 52be
00000310: a833 c2bf 79c4 0f3e 5086 9e3f 1957 6b3f
00000320: e251 df3f ced1 d03f 93be e4bf 4ea7 0c3d
00000330: a55a f93f 5c05 2b3f 51d7 633d 90cc 02bf
00000340: 49de 833f 2363 eebf 2b85 5ac0 0449 aabf
00000350: 26fa 30bf 1a5b b6be fd06 68bf 8540 923f
00000360: d53b c63f 255b bc3e 9ad2 d9be 8214 b2bf
00000370: 6522 9c3f 01e1 bfbe 58ed 0dbf f3b3 2ebf
00000380: 3160 06bf cf76 1a3e 4543 3e40 f6f1 82bf
00000390: 5079 1840 dd1e 89be b92c 0240 2fe1 92bf
000003a0: e581 d33f 0cf1 2b3f e337 e8bf e3c6 453f
000003b0: eab3 2d3f fa28 80be c6e0 5ebf 42df 2cbf
000003c0: 93ec 6e3f 8250 a8bf 89e6 e03f 2a49 d23f
000003d0: d136 623f ede7 3dbf d668 933f d789 c1bf
000003e0: 9185 13be 6aef 463f 3ded 5fbf 280a ed3e
000003f0: 15f2 03c0 3e43 cbbf 3f5f 96be 3c9d 683f
0.68677825 0.71047807 -2.4912105 -0.47347707 0.13617884 -0.99978435 0.66937757 1.4840146
-0.29426095 -0.40094575 0.73606473 0.12236751 -0.4626309 0.6624691 1.770412 -0.011986885
-0.36193547 -0.10046076 -0.64085084 1.3084888 -0.6541996 0.19202457 -2.061625 1.666795
-1.2176121 -1.3334312 1.7376864 -0.40349942 2.257255 0.24483152 0.8312622 -0.9164197
1.7292196 1.1693329 0.95859784 -0.4317539 0.8486332 -1.6928976 -1.3061136 -0.6969325
-0.67834723 0.25093108 -2.0270026 -0.9863764 -0.81706285 -3.1064959 0.87530863 -1.1663839
-0.846803 1.2100087 0.56653017 -0.1391494 1.9082961 2.5494215 0.31065777 0.8835751
0.4151886 -0.04504802 -0.56551886 0.32611293 -0.83693445 -0.29225507 1.3403178 1.6621823
-0.20798674 1.4121127 1.8665087 0.0025022887 -0.53689873 1.1411885 -0.77893025 -2.1831477
0.6642313 0.31175542 -0.8655686 0.49823338 1.7739354 -1.9868379 -2.1445959 -1.1783073
0.29161128 -1.6432475 -0.089954026 0.4551105 1.8271558 0.16489187 0.7869736 -2.1301687
1.8659062 0.65413654 -0.58881754 -0.21457227 -0.37121472 -0.32827374 -1.1390138 1.1119745
-1.0326549 0.47357646 -0.7319761 0.994126 0.6013617 1.6410306 2.025212 1.8381764
-0.640717 -0.39633536 1.1933154 2.084577 1.3793415 1.9089433 -0.2984976 0.7088343
2.4976027 -0.72125477 0.1517374 0.7590392 -0.87620324 -1.2923372 -0.03060186 0.39100057
-0.049147 -0.4072568 0.85598284 -0.34920844 0.72357255 0.69148755 -2.1994162 -0.73849577
-1.7920359 -0.5998128 -1.507318 -1.0135591 -0.19531633 -0.27592072 2.7437432 2.9777079
2.3891795 1.1957365 -1.9866393 0.0833575 0.38198867 1.3446957 2.06325 1.6841985
-0.37382394 -0.76898587 -2.8105943 -3.016166 -2.1118767 0.9379682 0.12988254 0.52761966
-0.343828 -0.9998045 0.54698294 -0.7405521 1.2850415 1.6801548 1.8971952 -2.2660031
0.6523888 -1.1399649 1.966309 -1.120545 0.69967556 -1.8435062 0.71059096 -1.2975441
-0.78035134 -0.27358988 -1.483494 -0.22569422 -0.23938866 -0.4166984 -2.0314364 -2.5651772
-2.083031 -1.2325101 2.0585742 2.853574 2.541572 1.1954813 3.1186612 -0.69778645
-1.2845486 0.3965605 -0.9614552 0.6549758 -0.2039743 -0.071993634 0.57039255 -0.23643708
-0.49183697 2.0922983 1.0396261 -0.20534122 -1.5172014 0.14039792 1.2384739 0.91929775
1.7446864 1.6314027 -1.7870659 0.03433924 1.9480788 0.6680505 0.055625264 -0.5109339
1.0302211 -1.8624004 -3.414378 -1.3303533 -0.69131696 -0.3561638 -0.90635663 1.142594
1.5487009 0.36788288 -0.4254349 -1.3912508 1.2197996 -0.37476352 -0.5544028 -0.6824333
-0.52490526 0.15084384 2.9728558 -1.0230091 2.3824043 -0.2678136 2.0339797 -1.147497
1.6524016 0.67164683 -1.8142055 0.772566 0.6785265 -0.25031263 -0.8706173 -0.67528164
0.93329734 -1.3149569 1.7570354 1.6428578 0.88364893 -0.74182016 1.1516368 -1.512019
-0.1440642 0.77709067 -0.8747137 0.4629681 -2.0616505 -1.5879896 -0.29369542 0.9086492

transformer_encoder.layers.0.linear1.bias f4 [128]
00000000: 8654 7ebf aacd 6c3f 1265 e53f a2e7 0940
00000010: e506 3940 a934 8b3c 8065 163f f89c ac3f
00000020: 3664 253e f718 673f 710a 993e 93af 22bf
00000030: ffd6 db3e 1a6a 8d3e 649e 8f3e ab89 1a40
00000040: 2512 e1be ff3e 4d3f ee6f 1d3b 5854 a63d
00000050: cc36 8a3f b813 883f b107 063f 6316 7d3f
00000060: 6479 373f d186 14bf 016a 693f 8657 1b3f
00000070: def1 173f 6f72 a03f 82e3 8c3f de2b a3be
00000080: f7ac f5bf ab1a 573f f6b2 32bf a6b7 383f
00000090: 48bf 343f 68f5 883f 7824 223f 8166 b03f
000000a0: 5051 9dbe 3514 b1be c942 02be a51d 513f
000000b0: e87d f43f 665f fa3d c4c6 523f 3c96 a93f
000000c0: 1050 9c3f 2c60 853f 0db0 293f 9168 7b3f
000000d0: 5cd1 4a3f 4f69 093f 3fe9 3c3e 46dd de3e
000000e0: 6170 6b3f 2c74 be3e 5408 d73e a513 c63f
000000f0: ed43 083f c916 ce3e a28a 673f 24c9 f4be
00000100: 877f 9f3f 4529 33bf d408 663f 8f3f 123f
00000110: ef17 483f 2bd2 2b3e 934c 8c3f 713f f33f
00000120: 36c4 7b3f ea57 f33f a5fd edbe eba3 32bf
00000130: 8082 273f 2d70 99be c2e5 ec3a cf6d 833f
00000140: 780b d13f f25b 0a3f 5386 973f b5df 443f
00000150: 5c83 a23f 8703 423f 525b 0840 9771 3c3f
00000160: 3887 ff3e 2c84 b83e 66ec 843e 0aa6 1d3f
00000170: a157 23be 82df d73f 2518 6e3f c3b8 ab3f
00000180: 1631 0d3f 06e3 6e3f fe7a 713f c5de 8cbe
00000190: a991 be3b 1c97 2f3d 1d45 013f 766b e1be
000001a0: 4daa a23f 8a9a a93f b0ad 0cbe e42e d23f
000001b0: 67d9 5f3f 492c d13f acbf 14bf 22cd 823f
000001c0: 3d7f 693f cab1 813f 65bb 0d40 b92c 4f3f
000001d0: 9781 b9bd de07 743f 5b5b 283f e436 b1be
000001e0: 9a24 17bf 30d7 873f a3de 8d3f e70d ce3f
000001f0: aa43 2fbe d793 563a 31db 75bb 6555 823f
-0.9934772 0.9250132 1.7921469 2.1547627 2.8910458 0.016992884 0.58748627 1.3485403
0.16151509 0.9027247 0.2989078 -0.63549155 0.42937467 0.27620012 0.2805053 2.4146526
-0.43959156 0.8017425 0.0024023014 0.08121556 1.0797973 1.0631018 0.52355486 0.98862284
0.716696 -0.58018214 0.91177374 0.60680425 0.59353435 1.2534922 1.100693 -0.31869406
-1.919341 0.8402507 -0.6980432 0.72155225 0.7060437 1.0699892 0.63336897 1.3781282
-0.307261 -0.3458573 -0.12720789 0.8168586 1.9100924 0.12225227 0.8233454 1.3248973
1.2211933 1.0419974 0.6628426 0.9820643 0.7922571 0.53676313 0.18448351 0.43528193
0.9196835 0.37198007 0.4199854 1.5474745 0.53228647 0.4025176 0.9044591 -0.47809708
1.2460793 -0.6998485 0.8985722 0.5712823 0.7816152 0.16779391 1.0960869 1.9003736
0.9834627 1.9011204 -0.46482578 -0.6978137 0.654335 -0.29968396 0.0018073844 1.0267886
1.6331625 0.5404655 1.1837867 0.7690385 1.2696338 0.7578663 2.1305737 0.73610824
0.4990785 0.3603834 0.25961608 0.6158148 -0.15951397 1.6865084 0.9300559 1.341576
0.55153024 0.9331516 0.94328296 -0.2751371 0.005815704 0.04286872 0.50496083 -0.440273
1.2708222 1.3250287 -0.13738132 1.642056 0.87441105 1.634164 -0.5810497 1.0218852
0.91209775 1.0132382 2.2145627 0.80927616 -0.090579204 0.95324504 0.657644 -0.3461219
-0.59040225 1.0612545 1.1083568 1.6097993 -0.17115656 0.0008185482 -0.0037514681 1.018231

transformer_encoder.layers.0.linear2.weight f4 [64, 128]
00000000: f277 813f 4fc4 bc3f 1148 0c40 3080 da3f
00000010: bdd0 1840 880c a03f afeb f03e 14b0 0d40
00000020: 145b 4f3f a30d 44bf 69fd 103f 65bf 24bf
00000030: 98a9 163e 178e f13f c6af f33f b5d3 2340
00000040: 5a9c 1d3f 5b65 e73f a83b 263f c54a d1be
00000050: 7282 573f 998b 0d40 a49e ce3d 679f 6e40
00000060: a055 243f 9ec1 ac3a e7f8 4e3f a1a2 9e3f
00000070: b78a d63f def0 9b3f 333a b63f 31c6 713e
00000080: 2245 333f f6f1 d83f 3475 413f 1146 0840
00000090: 234e 393f 5d08 983f 3357 0ebf 5410 e6be
000000a0: 850f 3e3f 4827 34be 947c 3b3f e892 f03f
000000b0: e537 bf3f 9e4f 8c3f 3c4b 603f cf68 063f
000000c0: e79c 1140 2da6 0540 316a 9d3f 0b78 b53f
000000d0: 893d 3a40 a101 693f fcff b43f b18d 993f
000000e0: 8bd6 e93f 1395 e1be 8994 bf3f 4912 823e
000000f0: 6b80 f03f 5113 e13e e3a0 9a3f 0efc fb3e
00000100: 08e9 9d3f 266f be3f 60f4 cc3f 8670 d83f
00000110: d1fc a23f ec55 c33f 13dc dc3f fa46 a53f
00000120: e59b 2d3f d4c6 853f 640a 2d3d c50d a53f
00000130: e2d8 673f 0c1a 98be 66a0 403f 141b ce3b
00000140: ced1 3340 b871 ca3f 4f23 023e 4571 e03f
00000150: e5dd 3040 dd0b 1e3f f9c0 a53f 3a22 1840
00000160: a661 963f c7b5 a9bd ffe5 0a40 bbe0 eb3e
00000170: f2b1 893f 0c27 4f3e 08ce 853c 2539 3e3e
00000180: 5a5f 9c3d baa4 0b40 1768 3b40 1b1f ae3b
00000190: d5cc 0dbf 38cf 0e3f ddcc 9c3f d884 8a3e
000001a0: b995 2640 5072 983f 1fd7 7b3f 0853 6440
000001b0: cc69 5e3f 9dbc d33f ef65 873f 7279 1640
000001c0: ff15 3a3f a77e 5d3d 5f41 2140 626d 84be
000001d0: dc46 b33f 35e3 ea3f 6735 2140 f02c 903f
000001e0: 10f0 1c3e 1416 8d3f 09f9 ef3f fada a73f
000001f0: c155 f33d 7e45 0a3f c419 90be 665d 113f
00000200: a21c a5bf 8c0b 38bf 73e9 4e40 9665 0bc0
00000210: 6c39 febf abb9 7c3e cae9 ab3e d548 fcbe
00000220: e78a d0bf c748 cc3f def3 f73e 2bb0 67bf
00000230: 69a0 00bc 47a3 7abf 2fa7 bdbf 23dd d5bf
00000240: 3290 00be 4034 803e a8e6 82bf d4ce aa3f
00000250: a072 88bf 6192 85bf 3c14 823d bbaf c4bf
00000260: b865 6f3f ff1f 073f daa0 b9be e8b8 90bf
00000270: 9c92 9b3e 6e66 4140 e9fe 1f3e c8a9 993f
00000280: 0a02 d5bf c891 063f 0097 0ec0 d3de 0cbf
00000290: ae78 923f ed4c 793f ad09 963e ee3a 1c40
000002a0: d3f5 77bf 2ec7 243f 3a85 f7bf a0f4 87be
000002b0: 6875 b43e 1904 183f 434d 1cbf 2fdc f73e
000002c0: 6845 8c3d 3287 0bc0 7871 30be 8b4d 953d
000002d0: 9a35 df3c 3faa 12bf c212 613f 9c39 913f
000002e0: f6b0 f5be 732b 6d3f 56b6 493f b1c1 4e3f
000002f0: 711e 83bf 04dd 313e ed73 1740 05df 34bd
00000300: 6e09 50bf e295 4f3b 0d67 e3bf f005 efbe
00000310: 6226 9b3f a2d4 2840 a12a 153e 6999 6abe
00000320: 17e0 023d 2b3a 603d 2a7e 803e a32f f0bf
00000330: abcb 70be b776 f5be 6565 13c0 eb80 adbe
00000340: 8c54 bd3f 3aeb 7cbf ab03 683f efc1 d23d
00000350: 815d a8bf 3ba0 fb3d aef2 2840 d077 94be
00000360: d9da 86bf 9d2a e5be 1876 883f 5f10 2fbe
00000370: 750f 8bbf 399d 713f a359 6b3e a595 5540
00000380: 7f71 c73f e78e 18bf a6fc 6dbf febb 83bf
00000390: 70c4 903f f6dc 7a3f 27a7 553e 9bf7 3dbf
000003a0: db27 e23f 510c f0bf 8cb7 063f 30fe 0ebf
000003b0: 8181 943f 6db5 233f ca0c 67bf 267e 0640
000003c0: 96f5 e73e 14e7 8b3e edfb f0bf 9da7 d7bd
000003d0: bb92 1a3f e98b a2bd 32a7 ad3f c699 10c0
000003e0: 11dd 0fbf dae5 efbe b975 86bf a774 2240
000003f0: 4e78 0a40 3fed 95bf 0738 c13f 4132 fe3e
1.011473 1.4747409 2.1918986 1.707037 2.3877404 1.2503824 0.47054812 2.213872
0.8099835 -0.7658331 0.56636673 -0.64354545 0.14713132 1.8871487 1.9038017 2.5597966
0.615667 1.8077806 0.6493478 -0.40877357 0.8418342 2.2116454 0.10088852 3.7284791
0.64193153 0.0013180261 0.80848545 1.239338 1.6761082 1.2182882 1.4236511 0.2361076
0.70027363 1.6948841 0.7556946 2.1292765 0.7238485 1.1877552 -0.55601805 -0.44934332
0.7424243 -0.1759311 0.73236966 1.8794832 1.4938933 1.0961797 0.876148 0.52503675
2.2752016 2.0882676 1.2298032 1.4177259 2.9100058 0.9101811 1.414062 1.1996366
1.8268598 -0.44059047 1.4967204 0.25404575 1.878919 0.4396005 1.2080349 0.4921574
1.233674 1.487767 1.6012077 1.690934 1.2733403 1.5260596 1.7254661 1.2912285
0.67816 1.0451303 0.042246237 1.2894827 0.9056531 -0.29707372 0.7524475 0.006289849
2.8096805 1.5815954 0.12708782 1.7534567 2.7635434 0.6173685 1.2949516 2.377089
1.174855 -0.082866244 2.1702878 0.46069893 1.075743 0.20229739 0.016333595 0.18576486
0.07635374 2.181929 2.9282281 0.0053137667 -0.55390674 0.5578494 1.2250019 0.27054477
2.6028883 1.1909885 0.98375124 3.5675678 0.86880183 1.6541935 1.0577983 2.3511624
0.72689813 0.054075863 2.519615 -0.25864702 1.4006 1.8350588 2.5188844 1.1263714
0.15325952 1.1022363 1.8747874 1.3113701 0.11881591 0.54012287 -0.28144658 0.5678314
-1.2899363 -0.7189262 3.2329986 -2.1780753 -1.9861274 0.24680202 0.33576804 -0.49274316
-1.629239 1.595971 0.48428243 -0.90503186 -0.007850745 -0.9790539 -1.4816645 -1.670811
-0.12555006 0.25039864 -1.0226641 1.3344369 -1.0659981 -1.0435296 0.06351516 -1.5366129
0.93514585 0.527832 -0.36255533 -1.1306429 0.30385292 3.0218768 0.15624584 1.2004938
-1.6641247 0.52566195 -2.2279663 -0.550275 1.1443079 0.97383004 0.29304257 2.4410968
-0.96859473 0.64366424 -1.9337533 -0.26553822 0.35245824 0.5938125 -0.6105539 0.48410174
0.06849176 -2.1801267 -0.17230785 0.07290181 0.027247239 -0.57291025 0.8791925 1.1345706
-0.47986573 0.92644423 0.7879385 0.807643 -1.0243665 0.17369467 2.3664505 -0.044158
-0.8126439 0.003167503 -1.7765824 -0.46684217 1.2121089 2.637978 0.14567043 -0.22910084
0.03195199 0.054742973 0.25096256 -1.8764538 -0.23515193 -0.47942135 -2.3030636 -0.3388742
1.4791427 -0.9879643 0.90630597 0.10290896 -1.3153535 0.12286421 2.639812 -0.2899766
-1.0535537 -0.44759074 1.0661039 -0.17096089 -1.0864092 0.9438053 0.22983412 3.3372586
1.5581511 -0.5959305 -0.92963636 -1.0291746 1.1309948 0.9799341 0.20864545 -0.7420594
1.7668413 -1.8753759 0.5262382 -0.5585661 1.1602021 0.6394871 -0.9025389 2.1014495
0.45304555 0.27324736 -1.8826882 -0.105300166 0.6038014 -0.07936842 1.3566649 -2.2593856
-0.56196696 -0.4685505 -1.0504676 2.53837 2.1635928 -1.1713027 1.5095223 0.49647716

transformer_encoder.layers.0.linear2.bias f4 [64]
00000000: 99d6 df3f b172 5c3e 0078 e2bf 2227 0dbf
00000010: 9556 c1bf 81c6 a13f 1997 7fbf 37b0 41bf
00000020: ec4c 1d3f 71e9 8e3e cafc d6bf d56f 263f
00000030: 2031 a5bf 2704 05be 4427 503f df67 303f
00000040: 7224 5b3f d654 b13f ba62 6c3f e42d ce3e
00000050: aae1 eb3e b6d1 0ac0 f296 da3e 117a bf3f
00000060: a4a0 d63f 6a5e fe3d 5b73 d6be 3cae afbe
00000070: 71d0 92bf febb e03f 3c81 b3be 7dbe 0abe
00000080: 6cbb bcbe 4f11 b83e 7277 58be 4485 ac3f
00000090: de18 d0be 58bb 813f 93e3 1bbf 6b73 7d3f
000000a0: 3b46 093f e661 e43d 58fd f83e c704 17c0
000000b0: 2bd9 2bc0 88b2 aa3e 2f8a 87be 1411 173e
000000c0: 78db 66bf 5709 45be 3981 32bd b8e1 853e
000000d0: a182 9ebf 4ad2 73be 4934 2cbd 913b 2ebf
000000e0: 4079 00bf 5070 0140 1b4c 15bf 0758 f53f
000000f0: 801a 82be 718e c2bf dfc1 98bc bdfe ab3f
1.7487365 0.21528126 -1.7692871 -0.55137837 -1.5104548 1.2638704 -0.9983993 -0.7565951
0.614455 0.27912477 -1.6795895 0.6501439 -1.2905617 -0.12989865 0.81309915 0.68908495
0.85602486 1.3854015 0.92338145 0.40269387 0.46070606 -2.1690497 0.42693287 1.4959127
1.6767774 0.12420352 -0.41884884 -0.34312618 -1.1469861 1.7557371 -0.35059536 -0.13549228
-0.36861742 0.35950705 -0.21139315 1.347817 -0.40643972 1.0135298 -0.60894126 0.9900424
0.5362279 0.11151485 0.48630786 -2.3596666 -2.68513 0.33339334 -0.26472613 0.14752609
-0.9017863 -0.19241844 -0.043580268 0.26148772 -1.2383615 -0.23810688 -0.04204205 -0.6805964
-0.5018501 2.02248 -0.5831925 1.9167489 -0.25410843 -1.519972 -0.018647132 1.3437115

transformer_encoder.layers.0.norm1.weight f4 [64]
00000000: 8346 ca3f 28ae 2e40 3f12 1540 75a1 863f
00000010: a9ca c23f 3d98 0140 64f9 3740 9c5d bc3f
00000020: 7d3f 7c40 7787 753f 7718 e13f 9c43 5d40
00000030: 9196 1c40 c80c 3840 ec20 983f 7d26 ee3f
00000040: f83a 0940 8c92 3c40 eb34 0c40 e314 1640
00000050: 2640 a53f af7b 4a40 4d26 2b40 ab8f 3640
00000060: b742 2640 57af 4a3f 1abd 373f 8614 ab3f
00000070: ff2c c53e 9e26 703f acda f83e 1870 f33f
00000080: ab64 0840 0ca7 d63f 09f6 703f ba0f 2d40
00000090: 5fb3 ad3f b9fb a13f 6a1b 0a40 4794 f83f
000000a0: dc60 bb3f 26a0 423f 786b f93e bc09 c33f
000000b0: d205 563d cd39 3040 c520 0540 74b6 ea3e
000000c0: 6338 893f 4f7a 3040 add2 803f 2d74 e23f
000000d0: 3c2c 843f 83dd 7e3e fe9d 0f40 f8ae b83f
000000e0: 8da7 a63f d119 853f 0661 fe3f 3210 1340
000000f0: fd27 c33e ccd0 0040 3475 4440 e6a7 6f3f
1.5802768 2.7293797 2.3292387 1.0518023 1.5218097 2.024917 2.8745966 1.4716067
3.941375 0.9590983 1.7585591 3.4572515 2.4466898 2.87578 1.1885047 1.8605496
2.1442242 2.9464445 2.1907299 2.3450248 1.2910202 3.163799 2.6742127 2.8525188
2.597822 0.791738 0.7177292 1.3365638 0.38510892 0.93808925 0.48604333 1.9018583
2.1311443 1.6769729 0.9412542 2.7040849 1.3570365 1.2654945 2.1579232 1.9420251
1.4638934 0.7602562 0.48714805 1.5237346 0.052251644 2.7535279 2.080125 0.45842326
1.0720333 2.7574651 1.0064293 1.7691704 1.0325999 0.24889188 2.244018 1.4428396
1.3019882 1.0398504 1.9873359 2.2978635 0.38116446 2.012744 3.0696535 0.9361557

transformer_encoder.layers.0.norm1.bias f4 [64]
00000000: 33bd 21bf 7078 c0be 31c0 d5be 3428 2a3f
00000010: cf61 28bf 6d5c b8bf 3f68 aa3f f01b 223f
00000020: 490c 0a3f cd09 3d3f b45c 813f dac1 363f
00000030: a902 dd3e 0556 5e3f 2e88 753f e9e0 98bd
00000040: 98d1 aebe a531 fc3d 076b 2a3f bcf2 1bbd
00000050: ded9 5b3f 9d1b 293e 0aaf 81be 4a13 0d3f
00000060: 67a3 03bf d764 47bf 6b65 0bbf 2fe9 ec3d
00000070: 4969 4fbf c3a3 843c b67c 38bf f05f 2abf
00000080: e8ac f4bd 59c3 87be 4398 4a3d 6b6b 8e3d
00000090: 0bd7 17bf c11b 70bf 8f97 34bf ce7a c6be
000000a0: 750a 753e 79a2 133f 5da2 b23e f953 ffbd
000000b0: 9087 3e3f f4af e9be d3e6 1bbf cb51 1c3e
000000c0: 1e45 4abe ce2a 43bf 0c94 e73d 07a9 d7be
000000d0: eb55 37be 9f29 cbbf 48c8 273f b011 cebe
000000e0: 0a6e b73d a4ff cbbf b09c 3abd 93e1 95bf
000000f0: 60ce 913f f691 bf3c 4321 963e 45df ce3d
-0.6317932 -0.37591887 -0.41748193 0.66467595 -0.65774244 -1.4403206 1.3313063 0.6332388
0.53924996 0.7384308 1.0106416 0.71389544 0.43166092 0.86850005 0.9591092 -0.07464773
-0.34144282 0.123141564 0.6656956 -0.038073286 0.85879314 0.1651444 -0.25328857 0.5510756
-0.5142121 -0.77888244 -0.54451627 0.11567914 -0.8102003 0.016191369 -0.72065294 -0.6655264
-0.11947042 -0.26516226 0.049461614 0.06954082 -0.59312505 -0.9379235 -0.7054376 -0.38765568
0.2392977 0.5766979 0.34889498 -0.124671884 0.744256 -0.45642054 -0.60899085 0.15265577
-0.19752929 -0.7623719 0.113075346 -0.42121145 -0.17903869 -1.5872077 0.6553998 -0.4024787
0.08956535 -1.593739 -0.045559585 -1.1709465 1.1391106 0.02338503 0.29322252 0.10101179

transformer_encoder.layers.0.norm2.weight f4 [64]
00000000: 2240 1740 8c75 6740 9a57 2040 bbd1 d63f
00000010: fb19 1a40 fd53 a73f 50ae 1e40 524e 2e40
00000020: 7ec9 b23f 1eea 3f40 77ae 0f40 70b2 2e3f
00000030: 080c 5840 26db d03f ee70 2140 a036 1d40
00000040: e337 3040 9988 6a40 f73e 6140 7b79 2b40
00000050: 99d8 0b40 9b8b 1940 c369 1e40 9181 7740
00000060: 0b81 3d40 94e7 ff3f 77c5 863f 85fa c63f
00000070: 31eb 0f40 c97e 3a40 699a 5140 ca52 0740
00000080: 8d86 1540 65b9 84bf 2981 c03f e909 b9bd
00000090: d5fb a940 9097 f23f a676 4740 fe21 5540
000000a0: a341 5140 364f 2d40 74ce 3240 c0df 5040
000000b0: 189b 1140 c0c1 2c40 ae8e 0440 b5e7 f23f
000000c0: 5b61 4d40 dd85 6c40 d075 f73f b74d 8340
000000d0: f423 a73f 02ee 7840 ea32 5e40 97d3 3940
000000e0: 8696 cd3f e092 fd3f 9d8d 0040 95ae 5a40
000000f0: 7784 c93f 0d22 1b40 15e3 2740 7ce0 0040
2.3632894 3.6165495 2.5053468 1.6782755 2.4078357 1.3072506 2.4793892 2.7235303
1.396774 2.9986644 2.2450235 0.68241024 3.3757343 1.6316879 2.5225177 2.456459
2.753411 3.6645873 3.519468 2.6792896 2.185095 2.3991458 2.4752052 3.867283
2.9610012 1.9992547 1.0529011 1.5545202 2.24873 2.9139884 3.2750494 2.114428
2.3363373 -1.0369078 1.5039417 -0.09035093 5.311991 1.8952503 3.1166167 3.3301997
3.2696311 2.7079597 2.793851 3.2636566 2.2750912 2.6993256 2.0712085 1.8976961
3.209067 3.6956704 1.9332829 4.1032367 1.3057847 3.8895268 3.4718575 2.9035394
1.6061561 1.9810448 2.0086434 3.4169056 1.574355 2.4239533 2.623235 2.0137014

transformer_encoder.layers.0.norm2.bias f4 [64]
00000000: 20a9 3a3e 609c cebd 0d10 e73d 9b0c af3e
00000010: e2af 3c3f 21ee c9be 1fef 30be 597b 8c3e
00000020: 8029 cc3c 7412 933e 7f00 d03e 425c a13e
00000030: 24c6 febe 1f4c 86bf 723b e1be 53fe 81bf
00000040: 0ca3 c63e 8299 703e 9bdd acbd 6898 3dbf
00000050: 8862 943f a821 96bd 838b 40bd 70bd c63e
00000060: 6b38 c2be c609 333f 5266 a3be 6135 d83e
00000070: 6052 1a3f 01cb 0cbf a939 01be dc7a e53d
00000080: 54c2 90bc d4a0 f3be a13e 93bd d678 b7be
00000090: a667 4a3e 1c96 663f d6e9 c2be 105f ee3e
000000a0: c87f 03bf c118 073e f1da 923e be38 efbd
000000b0: ceb3 803e af2b 0bbd 09f5 f2be 6837 e03e
000000c0: 5397 253d bc0a 66be 9301 19be caee 21bf
000000d0: a688 18bf 0c48 48be a376 21bf 4b5f f93e
000000e0: 0eba f0be 0c25 9f3e e238 333e aa9e 033e
000000f0: b87f 30be ecab 93be 98ba 50bf 6fbd e23e
0.18228579 -0.1008842 0.11282358 0.34189305 0.73705876 -0.3943949 -0.17278717 0.27437857
0.024922132 0.28725016 0.40625378 0.315157 -0.49760544 -1.049198 -0.43990666 -1.0155739
0.3879627 0.23496059 -0.084407054 -0.7406068 1.1592569 -0.07330638 -0.04700805 0.38816404
-0.37933668 0.6993679 -0.31914002 0.42228225 0.60281944 -0.5499726 -0.12619652 0.11205074
-0.017670788 -0.4758364 -0.0718968 -0.35834378 0.19766101 0.900728 -0.38069028 0.46556902
-0.51366854 0.13193037 0.28682664 -0.116807446 0.2513718 -0.033977207 -0.47452572 0.43792272
0.040427517 -0.22465032 -0.14942007 -0.6325499 -0.5958351 -0.19558734 -0.6307165 0.48705515
-0.47016948 0.31082952 0.17502168 0.12853494 -0.17236221 -0.28842103 -0.8153472 0.4428515
