transformer/results/st_transformer/t12_r4_i110_n3_h64_e400_l0.01.pth (torch, 323025 bytes, 32 tensors)

embedding.weight f4 [64, 5]
0	0xbf6a2546	-0.91463125
1	0x3f086c90	0.53290653
2	0xbdf00c3e	-0.11721085
3	0xbf65603a	-0.89599955
4	0xbf6ba74d	-0.92052156
5	0x3e9bb87a	0.30414182
6	0x3fef43a0	1.8692513
7	0x3e5e8a49	0.21732439
8	0x3dff9813	0.12480178
9	0xc05b5969	-3.4273322
10	0x3ef926ad	0.4866232
11	0xbe4d31a4	-0.20038468
12	0xbee0cdb2	-0.43906933
13	0x3f8578f8	1.0427542
14	0x40a6d12d	5.213034
15	0x3e8c8185	0.27442566
16	0xbfcf75ef	-1.6207865
17	0xbf7a90a8	-0.9787698
18	0x3e895c45	0.2682821
19	0x40b1f889	5.561589
20	0x3e102758	0.14077508
21	0x3fa01d80	1.2509003
22	0x3fa6f342	1.3042986
23	0xbb1cb6e4	-0.0023912722
24	0xc05e8e38	-3.4774303
25	0xbea01d17	-0.31272194
26	0x3fb2e4ae	1.3976038
27	0xbc57273c	-0.013131913
28	0xbf52c95d	-0.82338506
29	0xc12eb553	-10.919269
30	0xbf79d24f	-0.9758653
31	0xc088b631	-4.27224
32	0xbff678b0	-1.9255581
33	0xbea7bf5a	-0.32763177
34	0x4097eef3	4.7479186
35	0x3e02d7a6	0.12777576
36	0xbe09d156	-0.13458762
37	0x3e766cac	0.24064893
38	0xbeaa6119	-0.33277205
39	0xbdfa343c	-0.12216994
40	0xc069c221	-3.6524737
41	0xbfc24586	-1.5177467
42	0xbfe49051	-1.7856542
43	0xc0379efd	-2.8690789
44	0xc0e49d8b	-7.1442313
45	0xbdb76f2b	-0.089567505
46	0x40228fc6	2.5400252
47	0x3f844c8a	1.0335858
48	0xbe84aa78	-0.25911307
49	0xbfb257cc	-1.3933043
50	0xbf133e8e	-0.57517326
51	0xbfaa825b	-1.3321031
52	0xbfab6825	-1.3391157
53	0xbf2464f4	-0.6421654
54	0x3fb77c7f	1.4334868
55	0xbe6ca970	-0.2311151
56	0x3e27ad10	0.16374612
57	0x3f68bd7d	0.90914136
58	0xbe216424	-0.15760857
59	0x4063bd7c	3.5584402
60	0xc013c70c	-2.3090239
61	0xc0057a3e	-2.085586
62	0xbfc88162	-1.5664485
63	0xbffcf5e9	-1.9762546
64	0xbf08a6fa	-0.53379786
65	0x3f25f3cf	0.6482515
66	0xbfe29103	-1.7700504
67	0x3d12adee	0.035810404
68	0x3f97f8c1	1.1872789
69	0x41060fc9	8.378854
70	0xbe1debbc	-0.15421957
71	0xbf8f2dfb	-1.1185907
72	0xbfb6cf8b	-1.4282087
73	0xbdde563b	-0.10856291
74	0x40bde29c	5.9339123
75	0xbe29ce33	-0.16582565
76	0xbdd1a2b6	-0.10236113
77	0xbddb6e58	-0.10714406
78	0xbed571e3	-0.4168845
79	0xc0d81440	-6.752472
80	0xbf171770	-0.5902014
81	0x3faab037	1.3335027
82	0x3fba05db	1.4533037
83	0xbed9f52a	-0.42569858
84	0xc09b528e	-4.8538275
85	0xbc8b9354	-0.017038025
86	0x3f201517	0.6253218
87	0x3c8dc385	0.017305145
88	0xbeda4b9c	-0.4263581
89	0xc10c5579	-8.770867
90	0xbf4d26c7	-0.80137295
91	0xbfcfd2f1	-1.6236249
92	0xbf587c84	-0.84564996
93	0xbeaa3659	-0.3324459
94	0x414dd70e	12.865004
95	0x3f959d7e	1.1688688
96	0x404a0da9	3.1570837
97	0x3fd827ad	1.6887108
98	0xb94a2e3c	-0.00019281445
99	0xc13a6083	-11.648562
100	0xbf896c34	-1.0736146
101	0xc04fcf0f	-3.2470129
102	0xbfc78aa8	-1.558919
103	0xbf183f21	-0.5947133
104	0x40c38535	6.1100106
105	0xbf8ce605	-1.1007696
106	0x3e23ecff	0.16008376
107	0x3e76cc47	0.24101363
108	0x3e293906	0.16525659
109	0x409a38c2	4.8194284
110	0xbe4d1411	-0.20027186
111	0x3ff72a88	1.9309855
112	0xbf807a32	-1.0037291
113	0xbf226e8f	-0.6344995
114	0xc116f2c0	-9.434265
115	0xbf9b37c2	-1.2126391
116	0xbeab706e	-0.33484215
117	0x3ef6c18c	0.4819454
118	0xbf94d3b2	-1.1627104
119	0xc01ebca8	-2.4802647
120	0x3ef4a0d1	0.47778943
121	0x3fa3609c	1.2763858
122	0xbe748ac3	-0.23881058
123	0xbe914397	-0.2837188
124	0xc120f964	-10.060886
125	0xbf8a5f27	-1.0810288
126	0x3f911565	1.1334654
127	0x3fb62d8a	1.4232647
128	0xbf4ffc17	-0.81244034
129	0xbf1f7aee	-0.6229695
130	0x3f73e902	0.95277417
131	0x3ee77a9e	0.45210737
132	0xbf2e8074	-0.68164754
133	0xbd78f6fd	-0.06078242
134	0xc097ee6f	-4.7478557
135	0xbeade353	-0.33962497
136	0xbfc1c94d	-1.5139557
137	0x3f70861c	0.93954635
138	0xbe7c518b	-0.24640481
139	0x3fc2afdd	1.5209919
140	0xbf0b9f83	-0.5454027
141	0xbd95cfc3	-0.07315018
142	0xc040a518	-3.0100765
143	0xbf549def	-0.8305349
144	0xc101c22a	-8.109903
145	0xbf4169ab	-0.7555186
146	0x3f899d6e	1.0751169
147	0x3fca50d8	1.5805922
148	0xbf330a9d	-0.6993807
149	0xc077e3e7	-3.873285
150	0x3f884d71	1.0648633
151	0xbfb7c54b	-1.4357084
152	0xbf5db7b8	-0.8660846
153	0x3eb17e1b	0.34666523
154	0xbfcc06e2	-1.59396
155	0x4015a2ee	2.3380694
156	0x3e89b301	0.26894382
157	0x3faf3c2b	1.3690237
158	0x403591d3	2.8370254
159	0x40bcbba1	5.897904
160	0x3fd430a6	1.6577346
161	0xbf0039f1	-0.5008841
162	0x3f50d929	0.8158136
163	0x40158ae3	2.336602
164	0xbf3c1a3c	-0.7347753
165	0xbe411300	-0.18854904
166	0x3f12fa8c	0.57413554
167	0x4033786c	2.804225
168	0x3dc9cb84	0.09853271
169	0x4136981e	11.412138
170	0xc03ee057	-2.9824426
171	0xc075b3f8	-3.8391094
172	0xc008a6f6	-2.1351905
173	0xc0085730	-2.1303215
174	0x3f81e547	1.0148095
175	0x3ea1b9fc	0.31587207
176	0x3f0aae9e	0.54172695
177	0xbd83a8d1	-0.064286835
178	0xbf414520	-0.754961
179	0xc13e09c5	-11.877385
180	0x400e005e	2.2187724
181	0x3f015d22	0.50532734
182	0x3f17e758	0.5933738
183	0x402b6d9a	2.6785645
184	0x4103ff2e	8.2498
185	0xc0671416	-3.610601
186	0xc07f043e	-3.984634
187	0xbfbcd676	-1.4752948
188	0xc0441766	-3.0639281
189	0xc0bf4ddf	-5.9782557
190	0xbf895635	-1.0729433
191	0x3f3ece85	0.74533874
192	0xc011075b	-2.266074
193	0xbfc4dd68	-1.5380068
194	0xc0842515	-4.1295266
195	0x3e2e1070	0.16998458
196	0xbf9b5076	-1.213393
197	0xbe676d03	-0.22600178
198	0x3fd345fc	1.6505733
199	0x40edf695	7.4363503
200	0xc01421eb	-2.3145702
201	0xc050fba9	-3.26536
202	0xbfb73bc1	-1.431511
203	0xc0018b94	-2.0241442
204	0x3fb3cb09	1.4046336
205	0xbea52fa2	-0.32262903
206	0xbf87f66b	-1.0622076
207	0xbf388316	-0.7207502
208	0x3d452288	0.048128635
209	0x4103a81e	8.228544
210	0x3e9c1e27	0.30491754
211	0x3f1fa541	0.6236153
212	0xbf1b90fc	-0.60768104
213	0x3f10a86b	0.56506985
214	0xc1490f74	-12.566273
215	0x3de0ee52	0.10982956
216	0xbf141054	-0.57837415
217	0x3eae6a5f	0.3406553
218	0xbdb125ba	-0.08649774
219	0xc14b2afc	-12.697994
220	0xbea5d41e	-0.32388395
221	0xc06121f4	-3.5176973
222	0xbfc3c931	-1.5295774
223	0x3f2cbae9	0.674727
224	0x40864a1b	4.196546
225	0x3f3936b6	0.7234911
226	0x3e728bb6	0.23686108
227	0x3f73bbf9	0.952087
228	0x3da78808	0.08180243
229	0xc11c1992	-9.756243
230	0xc0325f46	-2.787065
231	0xbfa89ae4	-1.3172269
232	0xc0166ff4	-2.350583
233	0xc02e078c	-2.7192106
234	0xc0e55103	-7.166139
235	0xbf96a534	-1.1769166
236	0xbfb606c6	-1.4220817
237	0xbf08a287	-0.53373
238	0xbee9fa19	-0.45698622
239	0x3ff1eb79	1.8899986
240	0x3fbbac6e	1.4661996
241	0xbf89b460	-1.0758171
242	0x3f7e6cba	0.99384654
243	0x40087c8e	2.1326022
244	0x40c1c1a8	6.0548897
245	0x3f591c50	0.84808826
246	0x3d544427	0.051822808
247	0xbf28ab1d	-0.658861
248	0x3fa444d9	1.2833511
249	0x413f2e30	11.948776
250	0x3e8a4994	0.2700926
251	0x3f884fe6	1.0649383
252	0x3e80e3ae	0.25173706
253	0x3ee341ed	0.44386235
254	0x4119be91	9.609025
255	0x3fcc9ce3	1.5985378

embedding.bias f4 [64]
0	0xbf57ead3	-0.8434269
1	0xbeed0176	-0.46290177
2	0x3f254d0a	0.6457068
3	0x3f4e7837	0.80652183
4	0xbd42eaa0	-0.047587037
5	0xbf42c2dd	-0.7607859
6	0xbeb72780	-0.35772324
7	0xbeb76d77	-0.35825703
8	0xc01783f4	-2.3674288
9	0xbe4d87f6	-0.20071396
10	0xbe994182	-0.2993279
11	0xbf7687ea	-0.9630114
12	0xc023a634	-2.5570192
13	0x3f7b417d	0.981468
14	0xbdf0d8b4	-0.11760083
15	0xbee92cc1	-0.45541957
16	0xbf437c96	-0.7636198
17	0xbe89552f	-0.26822802
18	0xbf3d55a6	-0.73958814
19	0x3f738577	0.95125526
20	0xbf51cbe3	-0.8195173
21	0xbf9bd684	-1.217484
22	0xbef5b3e1	-0.479888
23	0xbfb113d2	-1.3834174
24	0x3dc76995	0.09736935
25	0xbf84e37a	-1.038192
26	0x3e2ea435	0.17054828
27	0xbedf1b2e	-0.43575424
28	0xbe8d609a	-0.27612764
29	0xbedb008b	-0.42773852
30	0x3f65aec3	0.8971979
31	0x402d8772	2.711392
32	0x400a28b2	2.1587338
33	0xbf09bfb8	-0.53808165
34	0xbfbe07a6	-1.4846084
35	0x3f150c48	0.58221865
36	0x3ffe033c	1.9844737
37	0xc048a8cb	-3.1353023
38	0xbfae5c7f	-1.3621978
39	0x3f7adeeb	0.97996396
40	0xc03f91d7	-2.9932764
41	0xbf34f677	-0.70688576
42	0x3f99bf38	1.201148
43	0x3d4a0cf7	0.04932877
44	0x3f89123d	1.0708691
45	0x3f9ad14e	1.2095125
46	0xc0022ff0	-2.0341759
47	0xbf9ca672	-1.2238295
48	0x4017a7ce	2.369617
49	0x3f81774f	1.0114535
50	0xbf12a5e7	-0.57284397
51	0x3f9b5a4e	1.2136934
52	0x3ebff502	0.37491614
53	0xbf4dcf5a	-0.8039452
54	0x3f3f5977	0.7474589
55	0x3e8d6dc8	0.2762282
56	0x3fbc21dd	1.4697834
57	0xbec68f1a	-0.38781053
58	0xbfca6f55	-1.5815226
59	0x401d86a5	2.461343
60	0x3f9ca850	1.2238865
61	0xc0545a34	-3.3180056
62	0x3ea72591	0.32645848
63	0x3fbe16bb	1.4850687

transformer_encoder.layers.0.self_attn.in_proj_weight f4 [192, 64]
0	0xbee657f1	-0.4498897
1	0xbf3d409c	-0.7392671
2	0x3f8f9f97	1.1220578
3	0xbefaacfd	-0.48960105
4	0xc016b482	-2.3547673
5	0x3df17d27	0.11791449
6	0x3e8f6fd2	0.28015
7	0x3fc27f8d	1.5195175
8	0x3dec8e90	0.11550629
9	0xbe7b78ba	-0.24557772
10	0xbebca1dd	-0.36842242
11	0xbf4855ef	-0.78256124
12	0x400aa258	2.1661587
13	0x3e305678	0.17220485
14	0xbec46963	-0.38361654
15	0xbfce78cd	-1.6130615
16	0x3ef82faf	0.4847388
17	0xc00a19d6	-2.157827
18	0xbe37a6aa	-0.17934671
19	0xbfe3a932	-1.7786009
20	0x3f0256f5	0.50913936
21	0xc05e0f09	-3.4696677
22	0xbf816ef3	-1.0111984
23	0xc0139c2e	-2.3064075
24	0x3f91fb74	1.1404862
25	0xbefa2e65	-0.4886352
26	0xbf02f391	-0.511529
27	0x3ebd184a	0.36932594
28	0x3fbe41fe	1.4863889
29	0xbf9fd302	-1.248627
30	0x3f933f31	1.150366
31	0xbe100f51	-0.14068343
32	0x404075f0	3.0071983
33	0x3fafc4cb	1.3731931
34	0x400b75a3	2.179055
35	0xbfe7bba2	-1.8104136
36	0x3e6a38cf	0.22873233
37	0x3e47ed9a	0.19524232
38	0xbe4cac5f	-0.1998763
39	0x3f2ec6bc	0.68271995
40	0x401b8417	2.4299371
41	0x3f956398	1.1671019
42	0x3ee306a2	0.44340998
43	0xc006b7d9	-2.1049712
44	0x400e7507	2.2258928
45	0x3e91861f	0.2842264
46	0x3f0aeb12	0.5426494
47	0x3fa7e627	1.3117112
48	0x3f484c3f	0.7824134
49	0x3fd1bd6b	1.6385931
50	0x400b0600	2.1722412
51	0xbf164249	-0.58694893
52	0x3f948b0c	1.1604934
53	0x3f8d2c4a	1.1029141
54	0xbf8b3ebe	-1.0878522
55	0x3fda4eeb	1.7055334
56	0xc0754ec6	-3.832933
57	0x3c9e4432	0.019319627
58	0xbfc2f5c1	-1.5231248
59	0xbee99bb3	-0.45626602
60	0x40118e3f	2.274307
61	0x401ee2b9	2.482588
62	0xc021ff72	-2.5312161
63	0x4008a6a6	2.1351714
64	0xbf3e7bde	-0.74407756
65	0x3f5c4a6e	0.8605107
66	0x400bfa7e	2.1871638
67	0x3f350831	0.70715624
68	0x3f212392	0.629449
69	0xbfb9fc50	-1.4530125
70	0xbf840881	-1.0315095
71	0xbfa666b2	-1.300009
72	0xbf650808	-0.8946538
73	0x3df76e85	0.12081627
74	0xbf8af7e8	-1.0856905
75	0x3f165cb0	0.5873518
76	0xbf9ff3b8	-1.2496252
77	0x3fda6c00	1.7064209
78	0x3eeb95d1	0.46012738
79	0xbf8ad25b	-1.0845445
80	0xbf59fb14	-0.8514874
81	0x3f09de7f	0.5385513
82	0x3eccbda9	0.3998845
83	0x3e4dba49	0.20090593
84	0x3e813214	0.2523352
85	0xc009c037	-2.1523569
86	0xbe670e01	-0.22563936
87	0xbf791ccc	-0.97309566
88	0xbeb0acbe	-0.34506792
89	0x3b04017d	0.0020142489
90	0x3e6f8f64	0.23394543
91	0x3f52469e	0.82139003
92	0xc00a2c9e	-2.1589732
93	0xbf80364b	-1.0016569
94	0x3f1bcd74	0.6086037
95	0x3fdc5606	1.7213752
96	0xbfcf0823	-1.6174358
97	0x400fa320	2.2443314
98	0xbf3fe3bb	-0.74956864
99	0xbfd4bea4	-1.6620679
100	0x3fc1b647	1.5133752
101	0x3df76ae8	0.120809376
102	0xbf8d0fb4	-1.1020417
103	0x3fa7e1b2	1.3115752
104	0x3ece5800	0.40301514
105	0x3f051204	0.51980615
106	0xbfc8121b	-1.5630525
107	0xbf830ea8	-1.0238848
108	0x3f4a38d5	0.7899297
109	0xbef9909b	-0.48743138
110	0xbf0b9646	-0.54526174
111	0xbf2c27d9	-0.672483
112	0x3f92f5df	1.1481284
113	0x3f872761	1.0558892
114	0x4012df07	2.2948625
115	0x3f08ecba	0.53486216
116	0x3f20f933	0.6288025
117	0x3f083b2b	0.53215283
118	0xbee060ac	-0.43823755
119	0x3fa00d11	1.2503988
120	0xbfd519ad	-1.6648461
121	0x3f201814	0.6253674
122	0x3e6bafba	0.23016253
123	0x3fe82cb3	1.8138641
124	0x3ff38a3e	1.9026563
125	0xbfa02548	-1.2511377
126	0xbf6beb66	-0.92156065
127	0x3f82bb83	1.0213474
128	0x3fbd8c3f	1.4808425
129	0x3f237183	0.6384508
130	0x401f35ba	2.4876542
131	0x3f436d90	0.76339054
132	0x404c24a2	3.189736
133	0xbf14d1ef	-0.58132833
134	0xc056e4c0	-3.3577118
135	0xbf3d5c11	-0.7396861
136	0xbfe0919b	-1.7544435
137	0x405dd790	3.466282
138	0x3e674ee8	0.22588694
139	0x3fabffc5	1.343743
140	0xbfa1ac3a	-1.2630684
141	0xbf1fa7d0	-0.62365437
142	0xbedf7589	-0.4364436
143	0x3fba8c2f	1.4574031
144	0x3ff7c725	1.9357649
145	0x3f8994e8	1.0748568
146	0x3f1004ac	0.5625713
147	0x4048b096	3.135778
148	0xc003e50b	-2.0608547
149	0x403b21d8	2.9239407
150	0xc00dfb4e	-2.2184634
151	0xbfef3eb0	-1.8691006
152	0xbe43d554	-0.19124347
153	0x3f985a40	1.1902542
154	0x3f55c062	0.8349668
155	0x3fa6ed9b	1.3041261
156	0xc0144ecb	-2.3173091
157	0xbf91cc89	-1.1390544
158	0xbf77c3aa	-0.96782935
159	0x3f5a85a6	0.8536018
160	0xc01e519d	-2.4737313
161	0x3ff70097	1.9297055
162	0xc00af9e9	-2.1715033
163	0xbf364c24	-0.7120993
164	0x401b8ee0	2.4305954
165	0xbe353d33	-0.17699127
166	0xc03a78d3	-2.9136245
167	0x4043c423	3.0588462
168	0xbf2e0166	-0.67970884
169	0x3ffafa27	1.960759
170	0xbfff7e5a	-1.9960434
171	0xbe94a23e	-0.2903003
172	0xbf2cec89	-0.67548424
173	0xbf5e91ae	-0.8694104
174	0xbffba9dc	-1.9661212
175	0xc0078890	-2.11771
176	0x401b1a64	2.4234858
177	0x40072bc8	2.1120472
178	0x40485975	3.13046
179	0x403e7939	2.9761488
180	0x3fc312e5	1.5240141
181	0x40025d16	2.0369315
182	0xbfaf8f48	-1.3715601
183	0x3fbd389a	1.4782898
184	0x3fc610ba	1.5473855
185	0x3fe38688	1.7775431
186	0xbfcff006	-1.6245124
187	0x3ff76f9d	1.9330937
188	0x404c78d7	3.1948755
189	0xc025fa91	-2.5934184
190	0xbfb444ca	-1.4083493
191	0x40058c01	2.0866702
192	0x3f23e120	0.6401539
193	0x3f2ba334	0.67045903
194	0x3e27f0cb	0.16400449
195	0xbef05f11	-0.4694753
196	0xbfb6608d	-1.4248215
197	0x402d6cc5	2.7097638
198	0x3f37452d	0.7158993
199	0x3fd7f9ee	1.6873147
200	0x3fd9c0ac	1.7011924
201	0xbe736893	-0.2377036
202	0x3fc975c0	1.573906
203	0xbfc00f1d	-1.5004612
204	0x4011bde6	2.2772155
205	0xc00152c0	-2.0206757
206	0x3f3a1699	0.7269073
207	0x3f1b5dd4	0.60690045
208	0x3ded1f02	0.1157818
209	0x3e8f4086	0.27978915
210	0xbf77047d	-0.96491224
211	0xbffaac5c	-1.958385
212	0x3ffdd11c	1.982944
213	0xc051a2be	-3.275558
214	0x3f9b6f53	1.2143348
215	0xc01e4884	-2.473176
216	0x400aedfa	2.170775
217	0x3f990738	1.1955328
218	0x3fb33a63	1.4002193
219	0xbf3ad112	-0.72975266
220	0x3fbe6352	1.487406
221	0xbea4cdf6	-0.32188386
222	0xbf322cef	-0.69599813
223	0xbfa2f447	-1.2730798
224	0x3e4e2518	0.20131338
225	0xbfca5f58	-1.5810347
226	0x3fea0e0b	1.8285536
227	0xbea661a0	-0.32496357
228	0xc00de179	-2.2168868
229	0x3fb28b18	1.3948698
230	0x3fa35460	1.2760124
231	0xbfd6fb51	-1.6795446
232	0x400b8e98	2.1805782
233	0xbfbb1340	-1.461525
234	0x403019d2	2.751576
235	0xc00c60dc	-2.1934118
236	0x3fafefe7	1.3745087
237	0x3f98f3bc	1.1949382
238	0x402f3c39	2.7380507
239	0x40165604	2.349
240	0xbfb5c0c1	-1.4199449
241	0x3e220b82	0.15824702
242	0xbe5e4848	-0.2170726
243	0xbfc90926	-1.5705917
244	0xbedae156	-0.42750043
245	0xbed153b8	-0.40884185
246	0xbe550b0d	-0.20804997
247	0x3f22dfdd	0.6362284
248	0xbfa2e1a6	-1.2725112
249	0xc0110906	-2.2661757
250	0xbf6bdd98	-0.92135
251	0xc0130667	-2.2972658
252	0x3f1f9f42	0.62352383
253	0x404295ed	3.0404007
254	0xbf88b831	-1.0681211
255	0xbeae1e31	-0.3400741

transformer_encoder.layers.0.self_attn.in_proj_bias f4 [192]
0	0xbfae48bb	-1.3615946
1	0x3f9a7ee0	1.2069969
2	0x402af444	2.6711588
3	0xbfb52243	-1.4151081
4	0xbf4377a1	-0.76354414
5	0xc000ce9f	-2.0126112
6	0xc0289fcf	-2.634754
7	0x3e2ba178	0.16760814
8	0xbeab0439	-0.3340166
9	0x3fad13b4	1.3521638
10	0xbf267a52	-0.65030396
11	0xbf291f2f	-0.6606321
12	0xbf646377	-0.8921427
13	0xbff36489	-1.9015056
14	0xbe3aed8a	-0.18254676
15	0x3d9ce27b	0.07660385
16	0xbf0daf96	-0.5534605
17	0xbf4435e0	-0.76644707
18	0x3f6d0614	0.925874
19	0xbebcf3ad	-0.3690466
20	0x3fb0ece4	1.3822293
21	0x3f40889a	0.7520844
22	0x3db81def	0.089900844
23	0x3ed6457a	0.4184988
24	0xbf44c051	-0.7685595
25	0x3f2cc7c2	0.67492306
26	0x3f37773d	0.7166632
27	0x3f5044bf	0.813549
28	0xbff7522e	-1.9321954
29	0x3fee79f2	1.8630965
30	0x401c8ea8	2.446207
31	0xbec8cea8	-0.39220166
32	0x3f8c1482	1.0943758
33	0x4051aa09	3.2760031
34	0x3fa585c9	1.2931453
35	0x3fb73f85	1.431626
36	0x3f38df81	0.7221604
37	0x40113551	2.2688792
38	0x3f89b529	1.0758411
39	0x3fc45f8f	1.5341662
40	0x3fe5462b	1.7912039
41	0x3efd5eef	0.4948649
42	0x3eaf6e58	0.34263873
43	0xc00cab0f	-2.1979406
44	0x3f12f9f2	0.57412636
45	0x3ecbaf43	0.39782152
46	0xbf5849f3	-0.8448784
47	0xbe83927c	-0.25697696
48	0x3cf6f9b5	0.030148366
49	0xbe75f640	-0.24019718
50	0xbf2020ae	-0.62549865
51	0xbf9511ae	-1.164602
52	0x3f3d0539	0.73836094
53	0x3ed81883	0.422062
54	0xbeca9bc1	-0.39571956
55	0xbf15b38d	-0.584771
56	0x3fc10db8	1.5082312
57	0xbd7b9ab6	-0.06142684
58	0x3f3fc25c	0.74905944
59	0xc021521b	-2.5206363
60	0xc04bfea3	-3.1874168
61	0xbf5abdb2	-0.854457
62	0xbf914d91	-1.1351796
63	0x3fe22bb1	1.7669584
64	0xbd685a48	-0.056726724
65	0xbe6e0354	-0.23243457
66	0xbeb038f1	-0.34418443
67	0xbe55b23c	-0.20868772
68	0x3e2b1fa1	0.16711284
69	0xbf22a1ee	-0.63528335
70	0x3ea56f16	0.32311314
71	0xbedc3b67	-0.4301407
72	0xbebab348	-0.36464906
73	0x3ede94c5	0.43472877
74	0x3d70e1d3	0.058809113
75	0xbf00878d	-0.50206834
76	0x3f370b3c	0.7150152
77	0x3e9b87ff	0.30377194
78	0x3f3e5217	0.7434401
79	0x3ee5c336	0.44875497
80	0xbf8fa219	-1.1221343
81	0x3e395dda	0.18102208
82	0x40015bad	2.0212204
83	0xbfc8ccd4	-1.5687509
84	0x3f9aceb7	1.2094334
85	0x3f00431e	0.5010241
86	0xbf8e448a	-1.1114666
87	0xbe7f73ba	-0.2494649
88	0xbfc56873	-1.54225
89	0x4019d193	2.4034164
90	0xbefc159e	-0.49235243
91	0xbf9356dd	-1.1510884
92	0xc019a838	-2.4008923
93	0x3f0e0bd4	0.554868
94	0x3f03cce9	0.51484543
95	0x3e190268	0.14942324
96	0xbe13f0f0	-0.14447379
97	0x3f6a2718	0.914659
98	0x3f9eaf2e	1.2397211
99	0x3f845853	1.0339454
100	0x3f30cb57	0.6906027
101	0x3f493e5b	0.7861077
102	0x3f5b7c6f	0.85736746
103	0x3ffa6693	1.9562553
104	0xbcfb9995	-0.030712882
105	0xbf329cbf	-0.69770426
106	0xbf3d2bc8	-0.7389493
107	0xbefc0568	-0.49222875
108	0x3f49587e	0.78650653
109	0x3f80ff47	1.0077904
110	0xbe93aa4d	-0.28840867
111	0x3fdcdc35	1.7254702
112	0x3f244c96	0.6417936
113	0xbecaa96c	-0.39582384
114	0xbeadfb25	-0.3398067
115	0x3ea23660	0.3168211
116	0xbe9ac57d	-0.30228797
117	0xbf378cfc	-0.716995
118	0xbf7ec316	-0.9951643
119	0x3f11829f	0.56839937
120	0xbe51ba06	-0.20481119
121	0x3f26819a	0.65041506
122	0xbf20d9ae	-0.6283215
123	0xbe306493	-0.17225866
124	0xbd843d41	-0.06456996
125	0xbee09b59	-0.4386852
126	0x3f2d5ed1	0.67722803
127	0x3c7e3e0e	0.015517725
128	0xbf2f2db2	-0.684291
129	0xbd03a069	-0.0321354
130	0x3f8af009	1.0854503
131	0xbea0c58f	-0.31400725
132	0x3f2bc33a	0.6709477
133	0xbfad83ee	-1.3555887
134	0xbea66965	-0.32502285
135	0xbef57e2a	-0.47947818
136	0x3f6d887c	0.92786384
137	0x3e972265	0.29518428
138	0xbf857dbd	-1.0428997
139	0xbde2d492	-0.11075701
140	0xbc93bd2d	-0.018034542
141	0xbf76c2c6	-0.9639095
142	0x3de412b7	0.11136382
143	0xbedf6470	-0.43631315
144	0x3f815c72	1.0106337
145	0x3ed6f546	0.41984004
146	0xbf901d3e	-1.1258924
147	0x3f37bdd0	0.71774006
148	0x3ef50f9b	0.4786347
149	0xbca624d7	-0.020281238
150	0x3f954aef	1.1663493
151	0x3e1e89f5	0.15482314
152	0x3fa76fb4	1.3080964
153	0x3f06a1d5	0.52590686
154	0xbe94fc82	-0.29098898
155	0x3e9eab60	0.30990124
156	0x3d930c27	0.07180052
157	0x3f81621a	1.0108063
158	0xbf647bf4	-0.8925164
159	0xbeaf2507	-0.34207937
160	0xbe9b3d39	-0.30320147
161	0xbf513105	-0.8171542
162	0x3fd79dc7	1.6845025
163	0xbff75069	-1.9321414
164	0xbf2eebae	-0.6832837
165	0x3ea2de81	0.31810382
166	0x3f754cef	0.95820516
167	0xbf0acba0	-0.5421696
168	0x3df80d9b	0.1211197
169	0x3f24f10a	0.64430296
170	0x3f3b5f9b	0.7319276
171	0xbfc32640	-1.5246048
172	0xbf91206f	-1.1338023
173	0x3f0893eb	0.53350705
174	0x3f4d0961	0.80092436
175	0xbf47ee8e	-0.7809838
176	0xbeb1b69b	-0.3470963
177	0x3ed2897d	0.4112052
178	0x4002c90f	2.0435216
179	0x3ff12c48	1.8841639
180	0xbfd21009	-1.6411144
181	0xbf24e1a9	-0.6440683
182	0xbfe7cb3d	-1.8108898
183	0x4024323b	2.5655658
184	0x3feb89e7	1.840146
185	0x3f6aa4cc	0.9165771
186	0x3fd2d164	1.6470151
187	0x3f194ca3	0.59882563
188	0xbf189afa	-0.59611475
189	0x3fa20f08	1.2660837
190	0x3fc0a92d	1.5051628
191	0x3f90f7b0	1.1325588

transformer_encoder.layers.0.self_attn.out_proj.weight f4 [64, 64]
0	0x403eedc6	2.9832625
1	0xbfe2afb0	-1.7709866
2	0xc00873e9	-2.1320746
3	0xbfbed681	-1.4909211
4	0xc06ecb66	-3.7311645
5	0x40829466	4.080615
6	0x4050c0b7	3.2617624
7	0xc08ddf5a	-4.4335146
8	0xbf9f5835	-1.2448794
9	0xc09d05ae	-4.9069433
10	0x402b024b	2.672015
11	0x4001c230	2.0274773
12	0xc042a514	-3.0413256
13	0x402b2a60	2.6744614
14	0xc02e0c1e	-2.7194896
15	0xc051c7ae	-3.2778125
16	0x3ff49d31	1.9110471
17	0x408075e0	4.014389
18	0xc01d4938	-2.457594
19	0x4066e2aa	3.6075845
20	0x403e669f	2.9750135
21	0xc050d7dc	-3.263175
22	0xbf584371	-0.8447791
23	0xc07882fc	-3.8829947
24	0x3daea02a	0.085266426
25	0x402e2997	2.7212884
26	0x40c22b19	6.067761
27	0xc05c2f78	-3.4403973
28	0xbf54386e	-0.82898605
29	0x40267a1e	2.6012034
30	0xc099ee22	-4.810319
31	0xc024129e	-2.5636363
32	0x3f5eafd4	0.8698704
33	0xbfdbc860	-1.7170525
34	0xbf2542b3	-0.645549
35	0x3c36251c	0.011117246
36	0xc0b51efd	-5.6600327
37	0x3f969cf0	1.1766644
38	0x3e8f55c1	0.27995113
39	0xbf733ca5	-0.9501441
40	0xc0859a29	-4.1750684
41	0xbecf110a	-0.40442687
42	0x40c094e6	6.018176
43	0x3bfeb245	0.007772716
44	0xbf052ca8	-0.52021265
45	0xbf871b2b	-1.0555166
46	0x4010807a	2.2578416
47	0xbfd5277d	-1.6652676
48	0x4088509c	4.25984
49	0x40116f51	2.2724192
50	0xc0225624	-2.5365076
51	0xc05f4dfd	-3.489135
52	0x4055e178	3.3418865
53	0x40b02609	5.504643
54	0xbe61ce64	-0.22051388
55	0xc06f3131	-3.7373774
56	0xc0804828	-4.008808
57	0xc0b446be	-5.6336355
58	0xc089de88	-4.3084145
59	0xc051066b	-3.2660167
60	0x405984dc	3.398734
61	0xc07223b9	-3.7834303
62	0xc066a660	-3.6039047
63	0xbed8cbe9	-0.4234307
64	0x3f159ccb	0.5844237
65	0xbf998ca8	-1.199605
66	0x4040c137	3.011793
67	0xbf37de29	-0.71823364
68	0xbf14ea64	-0.5817015
69	0xc0747467	-3.8196046
70	0x3eff22cf	0.49831244
71	0xbf74778d	-0.9549492
72	0xc05cda51	-3.450825
73	0x3fc7489d	1.5569035
74	0x3f18948c	0.59601665
75	0x40319c79	2.7751753
76	0x400f030b	2.2345607
77	0x3eda5a98	0.42647243
78	0xbf44e60c	-0.76913524
79	0x3f95401a	1.1660187
80	0x40336095	2.80277
81	0x40ec69a7	7.387897
82	0xc07836a9	-3.8783362
83	0x406a3059	3.659201
84	0x3e90ea9c	0.28303993
85	0xc084e490	-4.1529007
86	0xc045c604	-3.090211
87	0xc081ebf9	-4.0600553
88	0x403db653	2.9642532
89	0x4005a2c2	2.088059
90	0x40648caf	3.5710866
91	0xc01d882b	-2.461436
92	0xc062fb9d	-3.5466073
93	0x4029390b	2.6441066
94	0xc08d5f1b	-4.4178596
95	0xc0034d77	-2.051603
96	0x40495025	3.1455166
97	0xbe306e78	-0.1722964
98	0xc0527d2a	-3.2888894
99	0xbee6470d	-0.44976082
100	0x4023a86f	2.5571554
101	0x3e9432ae	0.28944916
102	0xbb41909d	-0.002953566
103	0x3eff15e7	0.49821398
104	0x404fd8cb	3.247607
105	0x3f081e2e	0.5317105
106	0xc0587e0c	-3.3826933
107	0x40557222	3.335091
108	0x4045a436	3.0881476
109	0xbefe8314	-0.4970938
110	0xc03d8afb	-2.9616077
111	0xbff56299	-1.9170715
112	0xbf27bcbd	-0.65522367
113	0xbfd194d0	-1.6373539
114	0xbfb7b5a1	-1.4352304
115	0xbfa6ed6d	-1.3041207
116	0xbfc50d9b	-1.5394777
117	0x404cff11	3.203068
118	0x3f4edb1e	0.80803096
119	0x3f45a4be	0.772045
120	0x3fadf6f7	1.3590993
121	0x400e9725	2.2279751
122	0xc02d0441	-2.7033846
123	0xbef8c2bb	-0.48586068
124	0x3f2f840d	0.6856087
125	0xc04e5456	-3.2238975
126	0xc0415725	-3.0209439
127	0xbfbca0a8	-1.4736528
128	0x3fe8bc3b	1.8182443
129	0x3fbae60d	1.4601456
130	0xc0154e2d	-2.3328965
131	0xbfab0eed	-1.336393
132	0x3f87f8c0	1.0622787
133	0xbe5ecc4d	-0.21757622
134	0xbf1b2339	-0.6060062
135	0x3ccdf7b2	0.025142524
136	0x408df716	4.436412
137	0x3fabb831	1.3415586
138	0xbc94e9a5	-0.018177817
139	0xbea3d865	-0.32001033
140	0x3db5f864	0.088852674
141	0x3fa2a41d	1.2706333
142	0x3e7d240e	0.24720785
143	0xbfc84b39	-1.5647956
144	0x3f7de3bf	0.9917564
145	0xbf994507	-1.197419
146	0xc04d402b	-3.2070415
147	0x3f8e33ff	1.1109618
148	0x3f36df61	0.714346
149	0xbf156b70	-0.5836706
150	0x40087f65	2.1327755
151	0x3ff9f496	1.9527767
152	0xbf4d4e65	-0.80197746
153	0xc01cc7cb	-2.4496944
154	0xbddd8297	-0.10815924
155	0xbf13d2ff	-0.5774383
156	0xbfccf1c4	-1.6011281
157	0x3ee86917	0.45392677
158	0xbeff1614	-0.49821532
159	0xbf843a8f	-1.0330371
160	0x4040c9bc	3.012313
161	0xbf5b7439	-0.85724217
162	0xc026c262	-2.6056142
163	0x40802b34	4.005274
164	0xbeb49529	-0.3527005
165	0x4043f349	3.061724
166	0xc058c859	-3.3872283
167	0x3fd4f78d	1.6638047
168	0xbf52e2a6	-0.8237709
169	0x40396f3d	2.8974144
170	0x4028544b	2.6301448
171	0x3f3ce92b	0.73793286
172	0x4053f5be	3.311874
173	0xc08c4a49	-4.384068
174	0xc0969322	-4.7054605
175	0xc00193c7	-2.0246446
176	0x400efb86	2.2341018
177	0xc041f89e	-3.0307994
178	0x3faaf7ff	1.3356932
179	0x3fc17fc1	1.5117112
180	0x3fcd8a8d	1.6057907
181	0x402bdf1b	2.6854923
182	0xbd9f16e0	-0.07768035
183	0x3ff041c0	1.8770065
184	0x3f7a237a	0.9771038
185	0xc00d96bf	-2.2123258
186	0x3f34752e	0.704913
187	0x3f3aa158	0.7290244
188	0xbebce329	-0.3689206
189	0x4046bd29	3.1052954
190	0xbe2ce2ce	-0.16883394
191	0x3f70d517	0.9407515
192	0xbf877776	-1.0583332
193	0x407753b5	3.864484
194	0xc09c4eea	-4.884633
195	0x40b2697e	5.5753775
196	0x40b1850c	5.547491
197	0xc0ac597e	-5.3859243
198	0xc06e5403	-3.7238777
199	0x400e413c	2.2227316
200	0x40a0a7a1	5.0204625
201	0x3f88fc4a	1.0701993
202	0x401bff57	2.4374597
203	0xc00b7979	-2.179289
204	0x40b37f53	5.6092925
205	0xc03eac66	-2.9792724
206	0x405f8225	3.4923184
207	0x3e3705d4	0.17873317
208	0xc0631e05	-3.5487072
209	0x3fdb71a9	1.7144061
210	0x4022b0f7	2.542051
211	0x3f3ddd16	0.74165475
212	0xbf4a22fe	-0.78959644
213	0xbe853f58	-0.2602489
214	0x4008db36	2.1383796
215	0x3ff9324b	1.9468473
216	0x3f9ab08d	1.2085129
217	0x3f80d4db	1.0064958
218	0xbd8b7b87	-0.0681067
219	0x3db1fb8d	0.08690558
220	0xbfc5a31f	-1.5440406
221	0xbff9668d	-1.9484421
222	0xc01d62ba	-2.4591508
223	0x3f977eb4	1.1835542
224	0xc02f2730	-2.7367668
225	0x4000fc5c	2.0154028
226	0x408eb684	4.4597797
227	0xc0081292	-2.1261334
228	0xbfc1cf6f	-1.5141429
229	0xbe39a7cf	-0.1813042
230	0x3f78a7a2	0.9713079
231	0xc086471c	-4.1961803
232	0xc065faef	-3.5934408
233	0xc00df407	-2.2180192
234	0x40a498c4	5.143648
235	0xc0b53166	-5.66228
236	0xc09cee8e	-4.9041204
237	0x408534a4	4.162676
238	0x3fa1a600	1.2628784
239	0xbf56ac3c	-0.8385656
240	0xbda06a31	-0.078327544
241	0x3f5f8727	0.873156
242	0xbfc2bf8f	-1.5214709
243	0xbf80ce49	-1.0062953
244	0x3fdc478a	1.7209332
245	0x3f8c4b90	1.096056
246	0x402b234e	2.6740298
247	0xc011f009	-2.2802756
248	0xbfe721d3	-1.8057197
249	0xbfdf39a8	-1.743947
250	0xc026f6fc	-2.6088247
251	0xbe8cb827	-0.27484247
252	0xbfb6f080	-1.4292145
253	0xbed2f526	-0.41202658
254	0xc08b2b2e	-4.349021
255	0xbf7ee60e	-0.99569786

transformer_encoder.layers.0.self_attn.out_proj.bias f4 [64]
0	0xbfdcbee0	-1.724575
1	0x3ff2259f	1.8917731
2	0x3f007b52	0.5018817
3	0xbd5edb9c	-0.054408655
4	0xbfa54c4e	-1.2913911
5	0xbfaae88b	-1.3352216
6	0xbd1c1646	-0.03810718
7	0xbe9e549d	-0.3092393
8	0x3f015785	0.5052417
9	0x3f299b98	0.6625304
10	0xbe3248da	-0.17410603
11	0xbfc5efc6	-1.5463798
12	0xbf28c323	-0.65922755
13	0xbf227b94	-0.63469815
14	0x3f6ee5c7	0.9331936
15	0x3f8ab47b	1.0836328
16	0x3f164633	0.58700866
17	0x3eb230ca	0.34802848
18	0x3e4567fc	0.19277948
19	0x3f9711fa	1.1802361
20	0xc014f5df	-2.3275068
21	0xc00ab37b	-2.1672046
22	0x3f206bc8	0.6266446
23	0xbe049e31	-0.1295097
24	0x3f727887	0.9471516
25	0xbf4290a7	-0.7600197
26	0x3e8a760e	0.27043194
27	0x3e1224fd	0.14271922
28	0xc03749c5	-2.8638775
29	0xc0176631	-2.3656123
30	0xc012b5e5	-2.292352
31	0x3ff0089e	1.875263
32	0x4050307d	3.2529595
33	0x3f8d873f	1.1056899
34	0xbf9533a4	-1.1656384
35	0xbe8cece7	-0.27524492
36	0x3ebf7cec	0.37399995
37	0x40092688	2.1429768
38	0xbfa6c068	-1.3027468
39	0xbef507fb	-0.4785765
40	0xbfa86c15	-1.3157984
41	0xbf0e406f	-0.5556707
42	0x3fe54e01	1.791443
43	0x3fac2120	1.3447609
44	0xbfd1604d	-1.6357514
45	0x3f584986	0.8448719
46	0xbe3e6835	-0.1859444
47	0xbd8a29a4	-0.067462236
48	0x3e89202c	0.26782358
49	0xbe6a37ab	-0.22872798
50	0x3eb9f6be	0.36321062
51	0x3fe3b517	1.7789639
52	0xc043989c	-3.0561895
53	0x4024699d	2.5689461
54	0xbe5c6069	-0.21521153
55	0x40081be2	2.1267018
56	0x3f0c2f4a	0.5475966
57	0xbf1eaa67	-0.61978763
58	0xbfb1e8b5	-1.3899142
59	0x3f8d88c9	1.1057369
60	0xbed1ee61	-0.4100218
61	0xbf0b6562	-0.5445157
62	0xbf6280eb	-0.88477963
63	0x4050d457	3.2629602

transformer_encoder.layers.0.linear1.weight f4 [128, 64]
0	0x3f4f49bf	0.809719
1	0x4034846f	2.820583
2	0x3ff9bacd	1.9510132
3	0xbfbd8af5	-1.4808031
4	0x3ef334a8	0.4750111
5	0xbfacc1d1	-1.3496648
6	0x3fdf5b38	1.7449713
7	0x3e9c60ca	0.30542594
8	0xc0945383	-4.6351943
9	0x3ce92632	0.028460596
10	0x4094c30b	4.648809
11	0x3db3a38f	0.08771431
12	0xc051f97f	-3.280853
13	0x405fe519	3.498358
14	0x4096306e	4.693412
15	0x3dc9fcb7	0.09862655
16	0x3f320543	0.6953928
17	0x4058ca1f	3.3873365
18	0xc0993b2e	-4.788474
19	0x3fd71355	1.6802775
20	0xc07ad61d	-3.9193184
21	0x3fc8ea36	1.5696476
22	0x407bbeed	3.9335282
23	0xbe1a76f1	-0.15084435
24	0x401bd50a	2.4348779
25	0xbe2e13c5	-0.16999729
26	0xc06df031	-3.7177851
27	0xc076c05f	-3.8554914
28	0xbf0d3155	-0.551534
29	0xc04a9622	-3.1654134
30	0x400984b3	2.1487243
31	0x3f0eec76	0.5582956
32	0x3f989aa8	1.1922197
33	0x40824c2f	4.0717998
34	0xc054a2a9	-3.322428
35	0x40862a4e	4.192664
36	0xc0059de8	-2.0877628
37	0x4049623e	3.1466212
38	0xbfa4f8de	-1.2888448
39	0xbf9b9b20	-1.2156715
40	0xc022feab	-2.5467937
41	0xbf370127	-0.71486133
42	0xc08b83a5	-4.35982
43	0xbf71e807	-0.9449467
44	0x3fc927fc	1.5715327
45	0x3fcac610	1.5841694
46	0x3fc0b71c	1.505588
47	0xbff4fd36	-1.9139774
48	0xbfe5ea8a	-1.7962201
49	0x4098149b	4.7525153
50	0xc0994879	-4.7900968
51	0x3ed20150	0.41016626
52	0x3e8b2e8e	0.27183956
53	0x3fcf2467	1.6182984
54	0xbedeca31	-0.43513635
55	0xbf6c0fac	-0.92211413
56	0x4098c0ef	4.7735515
57	0xbfe566c7	-1.792199
58	0xc015c3c5	-2.3400738
59	0xbfe44b2e	-1.7835443
60	0xbec51335	-0.38491216
61	0x3ffce782	1.975815
62	0xc0a765b7	-5.2311664
63	0x3e978b20	0.2959833
64	0x40fc7a80	7.8899536
65	0xbeeddcae	-0.46457428
66	0xc000bf16	-2.011663
67	0x400593c9	2.087145
68	0xc074f185	-3.8272412
69	0x4097e096	4.7461653
70	0xbeea1875	-0.45721784
71	0xc0458fcf	-3.0869024
72	0xc07a64ab	-3.9123943
73	0xbe739f10	-0.23791146
74	0xc005f9f1	-2.0933802
75	0x40f4983d	7.643584
76	0xbf1ac639	-0.60458714
77	0x404b4dcc	3.1766233
78	0x3f738a97	0.95133346
79	0xc08e2c3b	-4.442899
80	0x3f9a83eb	1.2071508
81	0x3f0b605b	0.544439
82	0xc0ba5d4c	-5.823889
83	0xc0c14e79	-6.040829
84	0x3faf7229	1.3706714
85	0x404043f5	3.0041478
86	0xc0840046	-4.1250334
87	0x3ff1f5f6	1.8903186
88	0xc05aae06	-3.4168715
89	0xbe933c98	-0.28757167
90	0x3f0ac33d	0.5420416
91	0x3f9d1cbd	1.2274395
92	0xbff6d7a8	-1.9284563
93	0x401fe768	2.498499
94	0x40b45735	5.6356454
95	0xbf6ea444	-0.932194
96	0x3fb60364	1.4219785
97	0x3fbba59b	1.4659914
98	0xc03a5f14	-2.912053
99	0xbfd409c7	-1.6565484
100	0xc062c072	-3.542996
101	0x3f82faef	1.0232829
102	0x4021225f	2.5177228
103	0x4013d5a3	2.3099144
104	0xc03401d5	-2.8126118
105	0xc0a31cd4	-5.097269
106	0x3ff62bc0	1.9232101
107	0xbe6c7a40	-0.2309351
108	0xc0c83126	-6.2559996
109	0x3f836df3	1.0267929
110	0x401fecb7	2.498823
111	0x4053470d	3.3012116
112	0x40751ebf	3.8300016
113	0xc0bf76d6	-5.9832563
114	0x3fab1712	1.3366416
115	0xc0f6ea95	-7.7161355
116	0x40c4afb3	6.1464477
117	0x3eaba7db	0.335265
118	0x407845fa	3.879271
119	0x40d476ac	6.6394863
120	0x3f1a7b82	0.6034471
121	0x40b73a21	5.725846
122	0x40822698	4.067211
123	0x4037bdb1	2.8709528
124	0xc0463d53	-3.097493
125	0x404752e6	3.1144347
126	0xbf226de0	-0.63448906
127	0xc0594a0d	-3.3951447
128	0x404846b2	3.129315
129	0x3fdb7de9	1.71478
130	0xc02bf473	-2.686795
131	0x3fac6f2c	1.3471427
132	0xc05335c4	-3.3001566
133	0x3ff3b377	1.9039143
134	0x40797a1d	3.8980782
135	0xc058e662	-3.3890615
136	0xbf4ed7c1	-0.80797964
137	0x406935e0	3.6439133
138	0xbeb60772	-0.35552555
139	0x3ebb11f5	0.36537138
140	0x4015d1bd	2.3409264
141	0x3fcde085	1.6084143
142	0x3ffc546f	1.9713267
143	0xc04ad613	-3.169316
144	0xbee84965	-0.45368496
145	0xbf131fd3	-0.57470435
146	0x40454bf5	3.082761
147	0x40261a39	2.5953505
148	0xc01aa78e	-2.4164767
149	0x40db8e3d	6.861113
150	0x3f6f6e4b	0.9352767
151	0x4028c58e	2.6370578
152	0xc0641d2c	-3.5642805
153	0x3faa60c6	1.3310783
154	0xbf0dab78	-0.55339766
155	0xc02a38da	-2.65972
156	0xbf8111fb	-1.0083612
157	0x3f86f5e7	1.0543793
158	0x4088c238	4.2737083
159	0xc05181f2	-3.2735562
160	0x3f0fb289	0.561318
161	0xbf81ad89	-1.0131084
162	0xbfbfad82	-1.4974825
163	0x401f6d65	2.491052
164	0xc0357737	-2.8354013
165	0x405e3f5d	3.4726174
166	0x3f5e3524	0.86799836
167	0x409d7653	4.920694
168	0xc03a0d4b	-2.9070613
169	0xc077f4b9	-3.8743117
170	0xbfa5ab98	-1.2942991
171	0x3ee631bb	0.44959816
172	0xc0119eee	-2.2753253
173	0xbfbe4461	-1.4864618
174	0x3c6e3ed1	0.014541344
175	0x3fe57c5d	1.7928578
176	0xc00cae29	-2.19813
177	0x3f157958	0.5838828
178	0xbd8cc603	-0.06873705
179	0xc0924c90	-4.571846
180	0x3f805866	1.0026977
181	0x3fafd27b	1.3736109
182	0xbfd9e0b7	-1.7021703
183	0x402ce347	2.701372
184	0xbfdacfff	-1.7094725
185	0xbf8567e9	-1.0422336
186	0xbfad58de	-1.3542745
187	0x3fbb74bb	1.4644998
188	0xbfd5728d	-1.6675583
189	0xbf3bf485	-0.7341998
190	0xbf43db28	-0.7650628
191	0xbed07f56	-0.4072215
192	0xbf5cd56d	-0.8626316
193	0xc0257acc	-2.58562
194	0x3f9ca2cc	1.2237182
195	0xbffbefc9	-1.9682552
196	0x403d8104	2.9609995
197	0xc02480b9	-2.5703566
198	0x40dcedf3	6.9040465
199	0xbff6940c	-1.926393
200	0xbdf80a9e	-0.121114
201	0x40c9a77d	6.3016953
202	0xc063b083	-3.5576484
203	0xbf651efa	-0.8950039
204	0x40fea0d9	7.9571347
205	0xc02c29b4	-2.6900454
206	0x3f293a77	0.66104835
207	0x4002fc47	2.0466478
208	0xc083b736	-4.1161146
209	0xbf4a2a29	-0.7897058
210	0x403d382c	2.9565535
211	0x402e7244	2.7257242
212	0xbed6a925	-0.41925922
213	0xbf8fdd97	-1.1239499
214	0xc01266d9	-2.2875273
215	0x4072740f	3.7883337
216	0x4024794d	2.5699036
217	0x408193e0	4.049301
218	0xbfa38c1c	-1.2777133
219	0xc01416aa	-2.3138833
220	0xbf7355e9	-0.95052963
221	0x3fa1d65e	1.2643545
222	0xbf8d6626	-1.1046798
223	0xbf7dfcf8	-0.99214125
224	0xc03a1add	-2.9078896
225	0xc04f0ba5	-3.2350857
226	0x4062e6e2	3.545342
227	0x40741fbf	3.8144376
228	0x3fe9d09e	1.826679
229	0xc02c61ed	-2.693477
230	0x3eea58fa	0.4577101
231	0xc0d51605	-6.658938
232	0x4001a945	2.0259564
233	0xc070c48f	-3.761997
234	0xbf67ec89	-0.905953
235	0xbf7946da	-0.97373736
236	0x40629253	3.540181
237	0xc00b0d5c	-2.1726904
238	0x3e4750a0	0.1946435
239	0xbf6bb3c6	-0.9207119
240	0xbe36d724	-0.17855507
241	0x3d576c13	0.052593302
242	0xbf762435	-0.96149
243	0xbf657cda	-0.89643633
244	0x3ff7c1d7	1.935603
245	0xbfa54e80	-1.2914581
246	0xbf9c77c3	-1.2224048
247	0x3ffd8fd3	1.9809517
248	0xbfd9c9cb	-1.7014707
249	0xbe980d97	-0.29697868
250	0xc003b115	-2.0576832
251	0x3fec1275	1.8443133
252	0x406c515b	3.6924655
253	0xc00252c5	-2.0363019
254	0xbd11df67	-0.035613444
255	0xbf9d5999	-1.2292968

transformer_encoder.layers.0.linear1.bias f4 [128]
0	0x3fda8fa7	1.7075089
1	0x3fda1aaa	1.7039387
2	0x404c18bd	3.18901
3	0x405be9cd	3.436145
4	0x408c48de	4.383895
5	0x3fbe4782	1.4865572
6	0xbd2670e3	-0.040635
7	0x40830789	4.09467
8	0x3f9d5028	1.2290087
9	0x4010fd5e	2.2654643
10	0xbf11a31a	-0.568895
11	0x3e4aa354	0.19788867
12	0x3fbd5efd	1.4794613
13	0x3f2bfd49	0.6718336
14	0x4011cbe9	2.2780707
15	0xbe39f04d	-0.18158074
16	0x3f3a803a	0.7285191
17	0x3e908b78	0.28231406
18	0x3de4da1d	0.11174414
19	0x3fd69a22	1.6765788
20	0x3dcd3608	0.10020071
21	0x408ecbab	4.462362
22	0x3e8b27c3	0.27178773
23	0x3df6ddef	0.12054049
24	0xbedabc25	-0.42721668
25	0x3fad6c17	1.3548611
26	0xbfa93829	-1.3220264
27	0x3fb93abe	1.4471052
28	0xbf2d1153	-0.6760456
29	0xbdd8e261	-0.10590053
30	0x3f650638	0.89462614
31	0x401e2bec	2.4714308
32	0xbddd5767	-0.10807686
33	0x3ade84e8	0.0016976865
34	0x3f11e8e9	0.5699602
35	0x3fdb51d3	1.7134346
36	0xbff76072	-1.9326308
37	0x3fb539a1	1.4158212
38	0x4038ef96	2.8896232
39	0x3faeea36	1.3665226
40	0x3fb3a355	1.403422
41	0x3ff39435	1.9029604
42	0xc009682a	-2.1469827
43	0x3fd97be8	1.6990938
44	0x403eddcb	2.9822872
45	0x40810a15	4.0324807
46	0x3fd7c3cd	1.6856629
47	0x3ffb499c	1.9631839
48	0x400b117e	2.1729426
49	0x3e71067e	0.23537633
50	0x3f3b5fdd	0.7319315
51	0x3f9e7cdf	1.2381858
52	0xbe89462d	-0.26811352
53	0x4001c087	2.027376
54	0x3f7ad2e5	0.9797805
55	0xbf8d77ba	-1.1052163
56	0x3e62de6f	0.22155164
57	0xbebb4e9e	-0.36583418
58	0x3fea50f0	1.830595
59	0x400ccfd5	2.200185
60	0x40144cb6	2.317182
61	0xbf2f00d1	-0.6836062
62	0xbe0d812a	-0.13818803
63	0xbe1854b3	-0.1487606
64	0xc0010f36	-2.0165534
65	0x3fa5a7c9	1.2941829
66	0x405f1cc2	3.4861302
67	0x3f38c3cc	0.7217376
68	0x3fea4d4f	1.8304843
69	0x4015ce94	2.3407335
70	0xbf052d52	-0.5202228
71	0x3f840b92	1.0316031
72	0x3d9cd404	0.07657626
73	0x3debbd9d	0.11510775
74	0x3f8ede6e	1.116163
75	0x4017cce7	2.3718812
76	0x3f371f11	0.7153178
77	0x40382285	2.877107
78	0x3fb744a3	1.4317821
79	0x404f3b08	3.237978
80	0x4065d824	3.5913172
81	0x3e3cd634	0.18441087
82	0x400c81ee	2.1954303
83	0x3e1236b0	0.14278674
84	0x3f700306	0.93754613
85	0x3f0fda87	0.5619282
86	0x3fe4a0b8	1.7861547
87	0xbe4eeec6	-0.20208272
88	0xbe991071	-0.29895356
89	0x3f210cd1	0.6291018
90	0x3f5d1740	0.863636
91	0x3cd56157	0.026047392
92	0x3dafb727	0.085798554
93	0x3fa805bf	1.3126754
94	0xbf8caa3a	-1.0989449
95	0x409302b6	4.594081
96	0xbe9b3d99	-0.30320433
97	0x3d40ee2d	0.047102142
98	0xbfe62203	-1.797913
99	0x40602393	3.5021713
100	0x3f8aeeaf	1.085409
101	0x40086d7a	2.131682
102	0x3f5be166	0.85890806
103	0x3fa3f01b	1.2807649
104	0x3fd64815	1.6740748
105	0xbeb62f7e	-0.3558311
106	0xbfd8007b	-1.6875147
107	0x3f6f32d1	0.93436915
108	0x403e311a	2.971747
109	0x3fcf86d5	1.6213022
110	0x3f967e6f	1.1757334
111	0x3f3b051d	0.7305468
112	0x3eac1c91	0.33615544
113	0xbe7a745a	-0.24458447
114	0xbd2b9e8c	-0.04189925
115	0x404246db	3.0355747
116	0x401a9e7a	2.4159226
117	0x404f6663	3.2406242
118	0x3e81bf3f	0.25341222
119	0x3fdcc766	1.7248352
120	0x400eea92	2.233067
121	0x3fc00721	1.5002176
122	0xbf457a89	-0.771401
123	0x401d76b0	2.460369
124	0x3fdae258	1.7100325
125	0x3fbaed47	1.4603661
126	0x3f238dc9	0.6388822
127	0x402a61b1	2.6622126

transformer_encoder.layers.0.linear2.weight f4 [64, 128]
0	0x40440ec9	3.0634024
1	0x3eee28fd	0.46515647
2	0x409da6ec	4.926626
3	0x40824fd1	4.072243
4	0xbe2818d2	-0.16415718
5	0xbf1293cd	-0.57256776
6	0x3f23d650	0.6399889
7	0x3fa3530f	1.2759722
8	0xbf12d1c6	-0.5735134
9	0x3f4d4144	0.8017771
10	0x408c09c8	4.376194
11	0x3fd7d0e0	1.6860619
12	0xbc6fda4f	-0.014639451
13	0x3f89b597	1.0758542
14	0xc013c728	-2.3090305
15	0x3fb7ba56	1.435374
16	0x3fd9cfa9	1.7016498
17	0x400d3fd6	2.2070212
18	0x3ff3619a	1.9014161
19	0x3e209f00	0.15685654
20	0xbfef8c92	-1.8714774
21	0x3ff92d84	1.9467015
22	0xbffc8708	-1.9728708
23	0xbfd66d30	-1.6752071
24	0x400d95f8	2.2122784
25	0xbf1410bf	-0.5783805
26	0x3f27d244	0.65555215
27	0x4003e067	2.0605714
28	0x3f88980b	1.06714
29	0x3fd59d59	1.6688644
30	0x3f22458a	0.6338736
31	0xbe5f20cb	-0.21789853
32	0x4044cf67	3.0751588
33	0xc04cc7c2	-3.1996922
34	0xbfce4e94	-1.611773
35	0x405b6aad	3.428386
36	0xbe5adf29	-0.21374191
37	0xbff0e358	-1.881938
38	0xc05d835b	-3.4611423
39	0xbf4cb541	-0.7996407
40	0x40156fa8	2.33494
41	0x3f96c15d	1.177776
42	0x3f911de1	1.1337243
43	0x3f346436	0.7046541
44	0x3f9dbeff	1.2323912
45	0xbef243f0	-0.47317457
46	0xbf43ae16	-0.7643751
47	0x3f087458	0.53302526
48	0xbfdc3c2e	-1.7205865
49	0x3f8e34e5	1.1109892
50	0xbfc0c26b	-1.5059332
51	0x4049ecd4	3.1550798
52	0xc010bec5	-2.2616436
53	0xbfce7cbc	-1.6131816
54	0xbddb5025	-0.10708646
55	0xbfe7b075	-1.8100725
56	0x4014f9dc	2.3277502
57	0x409bc8de	4.86827
58	0x3f48941c	0.78350997
59	0xc02444aa	-2.566691
60	0xbeaff43e	-0.3436603
61	0xc09f85d5	-4.985087
62	0xbf86bac3	-1.0525745
63	0x3e6d91df	0.23200177
64	0x3fc8996a	1.5671818
65	0xbfefa844	-1.8723226
66	0xbff29547	-1.8951806
67	0x409413d6	4.6274214
68	0xbe96d113	-0.29456386
69	0x403b8005	2.9296887
70	0x3fff5494	1.9947686
71	0xbf20fda8	-0.6288705
72	0x3f598bf9	0.84979206
73	0xbed9b824	-0.425233
74	0x3fab0474	1.3360734
75	0xbeb474b7	-0.35245296
76	0x4037f03d	2.874038
77	0x3ffc8665	1.9728514
78	0x3f1c75da	0.6111733
79	0xc09dd8ba	-4.932706
80	0x402a41a1	2.6602557
81	0x3fd6eccb	1.6791013
82	0x402489ed	2.5709183
83	0x3f941ae8	1.1570711
84	0x3e5253c3	0.20539765
85	0x3d2ec563	0.04266871
86	0xc04fd8a3	-3.2475975
87	0x40724db7	3.7859933
88	0x40a6a146	5.2071867
89	0x3e8940f3	0.26807365
90	0x402fbb7a	2.7458177
91	0xc02031dc	-2.5030432
92	0x3dca0f4b	0.09866198
93	0xc00bc092	-2.1836286
94	0x3f3a72ef	0.72831625
95	0xbfda4c80	-1.7054596
96	0xc0137691	-2.3041117
97	0x3f0072f6	0.50175416
98	0x4083f5dc	4.123762
99	0xc017d18d	-2.372165
100	0x40411912	3.0171552
101	0x401746a0	2.3636856
102	0xc0269764	-2.6029902
103	0x40208995	2.5083973
104	0x402aeec9	2.6708243
105	0x3fde66b4	1.7375093
106	0x405f3691	3.4877055
107	0xc08c276c	-4.3798122
108	0xbf142091	-0.5786219
109	0x4093e552	4.621743
110	0xbfefd990	-1.873827
111	0xbfe864a0	-1.8155708
112	0xc08804bd	-4.2505784
113	0x3fa9692b	1.323522
114	0xbfab205e	-1.3369253
115	0xc00765c5	-2.1155865
116	0xc08e3057	-4.443401
117	0x3fd05a76	1.6277606
118	0x4002d104	2.0440073
119	0xbfc44191	-1.5332509
120	0xbf3d4ba6	-0.73943555
121	0x4053c77a	3.30905
122	0x3fe6fb0a	1.8045361
123	0x3f84de62	1.0380366
124	0xbffb5da8	-1.9637957
125	0xbf45a19d	-0.7719973
126	0x40062c02	2.096436
127	0xbff6721e	-1.9253576
128	0x40928c4a	4.579625
129	0x40498b84	3.1491404
130	0x3ec27323	0.37978467
131	0x4081e327	4.0589786
132	0x404a8a48	3.16469
133	0x3f82ab55	1.0208536
134	0x403ecb44	2.9811563
135	0xbf11beed	-0.56931955
136	0x4041ab24	3.0260706
137	0x40575d94	3.3650866
138	0xbec0e1d0	-0.3767228
139	0x3fb4eac9	1.4134151
140	0x40ca4969	6.321461
141	0x3ff1c0d1	1.8886968
142	0x3f41a3e2	0.7564069
143	0xbe90472d	-0.28179303
144	0x3fd0ff7c	1.6327968
145	0x408fc7ec	4.4931545
146	0x40ac871d	5.3914933
147	0x4066b85d	3.6050026
148	0x3f33bf0d	0.70213395
149	0x4088af36	4.271388
150	0x3fdb7508	1.714509
151	0x3ff59fee	1.9189432
152	0x401c3eed	2.4413407
153	0x40bd9030	5.923851
154	0x403cdb24	2.9508753
155	0x401609d6	2.3443503
156	0x3fb93d73	1.4471878
157	0x406c657a	3.6936936
158	0x405589aa	3.3365273
159	0x3f3950e5	0.7238906
160	0x4096b25a	4.7092714
161	0x40080c78	2.125761
162	0xbedcc940	-0.43122292
163	0x4032906a	2.7900643
164	0x3fca3200	1.5796509
165	0x409346a9	4.6023755
166	0x40b14cf9	5.540646
167	0x3fa1cdf8	1.2640982
168	0x3f8a0631	1.078314
169	0x40816cb1	4.044518
170	0x407f12c0	3.9855194
171	0x40a5754b	5.170568
172	0x409001cd	4.50022
173	0x3fa9feb3	1.3280853
174	0x402a2b84	2.658906
175	0x40113140	2.268631
176	0x40e18f69	7.048756
177	0x40647d20	3.570137
178	0x3f9ea4ef	1.2394084
179	0x4042935f	3.0402448
180	0x3fde24f4	1.7355027
181	0x4040af74	3.0107088
182	0x3faf0983	1.3674778
183	0x403b95f9	2.9310286
184	0x4022edb4	2.5457582
185	0x4054da8c	3.325839
186	0x40847b6d	4.1400666
187	0x3f946507	1.1593331
188	0x40ededb3	7.435266
189	0x404a173b	3.1576679
190	0x40266191	2.599705
191	0x405786c4	3.3676004
192	0x3f44447e	0.7666701
193	0x3f071b0e	0.5277566
194	0x3fd93f87	1.6972512
195	0x409e752d	4.9518037
196	0x403e889e	2.9770885
197	0x406bfff0	3.6874962
198	0x406be454	3.685811
199	0x3f815ceb	1.0106481
200	0x4026b0ce	2.6045413
201	0x3fb91c1a	1.4461701
202	0xbec19c78	-0.3781469
203	0x3fdad45c	1.7096057
204	0x40b347d5	5.6025186
205	0x401d0e12	2.4539838
206	0x401372e4	2.3038874
207	0x40295699	2.6459105
208	0x3f710023	0.94140834
209	0x403e31e7	2.9717958
210	0x3fed519c	1.854053
211	0x3ed383d6	0.4131152
212	0x4065eff8	3.5927715
213	0x4071b021	3.776375
214	0xbe261b71	-0.16221406
215	0x40194091	2.3945658
216	0x405beac2	3.4362035
217	0x40d59d4c	6.6754513
218	0x4058af78	3.3857098
219	0x401dfefc	2.468688
220	0x40195d1a	2.3963075
221	0x3feafb1f	1.8357886
222	0x401f6ddf	2.491081
223	0x40acfc60	5.4058075
224	0x3f634e7a	0.8879162
225	0x3f3f243f	0.7466468
226	0x406f60f4	3.7402925
227	0x3f6c6367	0.92339176
228	0x4015b436	2.3391242
229	0x40ca3786	6.319278
230	0x4003c1cb	2.0587032
231	0x4023cf04	2.5595102
232	0x3fc4cd9e	1.5375249
233	0x3fb0288b	1.3762373
234	0x40262c62	2.596459
235	0x40886af7	4.263057
236	0x404d2813	3.205571
237	0x40c8117a	6.2521334
238	0x4086e1de	4.2150717
239	0x403d0715	2.9535573
240	0x407b1210	3.9229774
241	0x408d82ec	4.4222317
242	0x3fb80edd	1.4379536
243	0x4095d437	4.682155
244	0x40394fea	2.8955026
245	0x406c942b	3.6965435
246	0x3e3ac035	0.18237384
247	0x3f5f9593	0.8733761
248	0x3f9cd737	1.2253178
249	0x4027629f	2.6153944
250	0x405f51ed	3.4893754
251	0xbfc2f651	-1.523142
252	0x3f7b44c4	0.98151803
253	0x401c14d9	2.4387724
254	0x3fe65871	1.799574
255	0x400bb6cd	2.1830323

transformer_encoder.layers.0.linear2.bias f4 [64]
0	0xbf520b96	-0.8204893
1	0x401768bb	2.3657672
2	0x3f4dcd17	0.8039107
3	0xbe2e17a8	-0.17001212
4	0x3f7abb91	0.97942454
5	0xbf4c3a39	-0.7977634
6	0xbf41d125	-0.75709754
7	0xbf280e4b	-0.6564681
8	0xbf7998d9	-0.9749885
9	0xbf7dde55	-0.99167377
10	0x3f2f4650	0.68466663
11	0xbf9e3a19	-1.236148
12	0xbeaff721	-0.34368232
13	0x3e5fc026	0.21850643
14	0xbf0285e3	-0.50985545
15	0x3fe21f18	1.7665739
16	0x4028fd4f	2.6404607
17	0x3f4243e8	0.75884867
18	0xbfb4699a	-1.4094727
19	0x3e6ccbbb	0.23124592
20	0xbfdc9d80	-1.7235565
21	0xc03843b6	-2.8791327
22	0x3f233dc9	0.6376615
23	0x3eaa5c87	0.33273718
24	0xbc1fdc6e	-0.009757144
25	0xbf1f3829	-0.6219507
26	0x3f26a5cd	0.6509674
27	0xbc13d232	-0.009022282
28	0xbfaec872	-1.3654921
29	0xbf7c03b8	-0.98443174
30	0xbfe4ab6a	-1.7864811
31	0x3fd1be8d	1.6386276
32	0x4067ff9d	3.6249764
33	0x40238dc9	2.5555289
34	0xbfd476bc	-1.6598735
35	0x3ed8aa96	0.42317647
36	0x3dd8eff5	0.10592643
37	0x40157f72	2.3359036
38	0xbded8e78	-0.115994394
39	0xbf0aeb76	-0.54265535
40	0xbfdcb06b	-1.7241338
41	0xbeec9edc	-0.4621495
42	0x3ebd2b62	0.3694716
43	0x3f63cf52	0.8898822
44	0xc019ff50	-2.406208
45	0x3fb984c0	1.4493637
46	0x3fcf9a9f	1.6219062
47	0x3d3ce3ad	0.046115566
48	0xbfa78abb	-1.3089212
49	0x3e078cae	0.13237259
50	0xbf1032e1	-0.56327635
51	0x3fc889ef	1.5667094
52	0xc04db2d4	-3.2140398
53	0x3fb34d29	1.4007922
54	0x3fa93974	1.3220658
55	0x3f176193	0.5913326
56	0x3fc57640	1.5426712
57	0xc009ccaf	-2.153118
58	0xbf4ae389	-0.7925344
59	0x3f022433	0.50836486
60	0xc0486f29	-3.1317847
61	0xbdf0e2e4	-0.11762026
62	0xbf6e8f28	-0.9318719
63	0x40157122	2.33503

transformer_encoder.layers.0.norm1.weight f4 [64]
0	0xbd520cba	-0.05128167
1	0x4004acfe	2.0730586
2	0x3fafa312	1.372164
3	0x3f10ab68	0.56511545
4	0x3feeb7d9	1.8649856
5	0x3fcf1e3e	1.6181104
6	0x4093d225	4.6194024
7	0x3d3d8f77	0.046279397
8	0x402051de	2.5049968
9	0x40141d50	2.314289
10	0x4046c82b	3.1059673
11	0x3f85a51b	1.0441011
12	0x3eb6dcbb	0.3571528
13	0x408a1e7f	4.3162227
14	0x400d9777	2.2123697
15	0x3f7e9ee1	0.9946118
16	0x3fa8f4ee	1.3199747
17	0x407323c8	3.799059
18	0x40955dc6	4.667697
19	0x403331b8	2.7999096
20	0x4071b182	3.7764592
21	0x40eb8358	7.359783
22	0x40a65b4f	5.198646
23	0x3fb24fd5	1.3930613
24	0x406995ba	3.6497636
25	0x404aa56d	3.1663468
26	0x4064db3d	3.5758812
27	0x40c7b34e	6.240638
28	0x40b76954	5.7316074
29	0x404bf6fc	3.1869497
30	0x406bb563	3.682946
31	0x4010aa52	2.2603955
32	0xc04fc9c0	-3.2466888
33	0x40699b35	3.650098
34	0x3f0ee936	0.558246
35	0x408bd912	4.370248
36	0x4044739d	3.0695565
37	0xbe516550	-0.20448804
38	0x3fa72c23	1.3060344
39	0x3febac8f	1.8412036
40	0x3df6f52a	0.1205848
41	0x4004a9bd	2.07286
42	0x4104981c	8.287136
43	0x406886a3	3.6332176
44	0x406826db	3.6273715
45	0x404dd8a7	3.2163484
46	0x3f2639fe	0.6493224
47	0xbf135d54	-0.5756428
48	0x3fe73f57	1.8066205
49	0x40ac10c5	5.377047
50	0x403c514e	2.9424624
51	0x3f8d076a	1.1017888
52	0x3e9c2a38	0.3050096
53	0x4052964b	3.2904232
54	0x40744cca	3.8171868
55	0x40427a96	3.038732
56	0x40a00e6e	5.0017614
57	0x409fac97	4.989818
58	0x3f371e5d	0.71530706
59	0x3ff42e23	1.907658
60	0x4059f9f5	3.4058812
61	0x3f93bc22	1.1541789
62	0x40181e5b	2.3768528
63	0x4013295b	2.2993991

transformer_encoder.layers.0.norm1.bias f4 [64]
0	0x3e891ddb	0.2678059
1	0xbed55aa8	-0.41670728
2	0x3facaaf5	1.3489672
3	0x3e6163c5	0.22010715
4	0x3edc76ee	0.43059486
5	0xbe832208	-0.256119
6	0xbe377650	-0.17916226
7	0xbfa4722d	-1.2847344
8	0xbe895e3b	-0.26829705
9	0xbe98adb3	-0.29820022
10	0x3fde3e65	1.7362791
11	0x3ec4c762	0.38433367
12	0x402683fa	2.6018052
13	0xbf8428cd	-1.0324951
14	0x3f3043c0	0.6885338
15	0xbeb03330	-0.34414053
16	0xbe3c2cbd	-0.18376441
17	0x3d288e9b	0.041151624
18	0xbe6af1b7	-0.2294377
19	0xbf466fd7	-0.77514404
20	0x3ee18787	0.44048712
21	0xbf56d462	-0.8391782
22	0x3bb2343d	0.005438356
23	0xbebc3448	-0.36758637
24	0xbe4f63ba	-0.20252886
25	0x3f07a7ea	0.5299059
26	0x3d04370e	0.032279067
27	0xbf8d23ca	-1.1026547
28	0xbf41b302	-0.7566377
29	0x3f0c2d4d	0.54756624
30	0xbf0ceff5	-0.55053645
31	0xbdd938bf	-0.106065266
32	0xbcd96e3e	-0.026541825
33	0xbe917b3a	-0.28414327
34	0x3f64e0d6	0.8940557
35	0xbdd30416	-0.10303514
36	0x3fb9ea3f	1.4524611
37	0xbe35f2ae	-0.17768356
38	0x3f95092a	1.1643422
39	0xbf8ca2f6	-1.0987232
40	0x3fde820e	1.738344
41	0x3eab7b72	0.3349262
42	0xbe73d8be	-0.2381315
43	0xbe719f79	-0.2359599
44	0x3e306557	0.17226158
45	0xbddfaec7	-0.10922008
46	0x3f5f0c45	0.87128097
47	0xbf8b014c	-1.0859771
48	0x3e4707ce	0.19436571
49	0x3f8eb7cf	1.1149844
50	0xbda66d6f	-0.081263416
51	0xbdab2c70	-0.08358085
52	0xbecfd39e	-0.4059114
53	0xbf5d44da	-0.86433184
54	0xbd1d8c01	-0.038463596
55	0x3e396104	0.18103415
56	0x3e595aa7	0.21225987
57	0x3f32520c	0.69656444
58	0x3f578eb3	0.84202117
59	0xbefc0317	-0.49221107
60	0x3dde6183	0.10858443
61	0xbcd731a1	-0.026268782
62	0xbec9c455	-0.39407602
63	0x3f24238d	0.64116746

transformer_encoder.layers.0.norm2.weight f4 [64]
0	0x4070776d	3.7572892
1	0x4071d65d	3.7787087
2	0x4060f356	3.514852
3	0x40943371	4.6312795
4	0x403e5dc1	2.9744723
5	0x408d65b2	4.418664
6	0x40d67081	6.7012334
7	0x400ab5fd	2.1673577
8	0x4098c488	4.7739906
9	0x40cc523f	6.38504
10	0x404ad84b	3.1694515
11	0x40b2fffa	5.593747
12	0x40bf468f	5.977363
13	0x40c0b008	6.021488
14	0x40ab5528	5.354145
15	0x4064cab1	3.5748713
16	0x40c26e32	6.0759516
17	0x3fbcc1b4	1.4746614
18	0x40bafcfb	5.8433814
19	0x4122cfe0	10.175751
20	0x40daf593	6.8424773
21	0x40978a84	4.7356586
22	0x403ce69c	2.9515753
23	0x40b502c5	5.656588
24	0x4051109b	3.2666385
25	0x40960f68	4.6893806
26	0x4046557f	3.0989683
27	0x3fc76d6a	1.5580266
28	0x4058640d	3.3811066
29	0x40e2c2d7	7.086284
30	0x4083bb70	4.1166306
31	0x3f532bef	0.8248891
32	0x408b6e10	4.3571854
33	0x40919d7a	4.550473
34	0x402e6208	2.7247334
35	0x40bf2f01	5.974488
36	0x40d11426	6.5337095
37	0x40460b41	3.094437
38	0x40270be2	2.6101003
39	0x40c6796f	6.2023234
40	0x402ea03e	2.7285304
41	0x40886f66	4.2635984
42	0x409b17c7	4.8466525
43	0x40058583	2.086274
44	0x40769c6a	3.8532968
45	0x40d22a4f	6.5676646
46	0x4090b2d3	4.521829
47	0x4010a3cf	2.259998
48	0x4039e6d7	2.9047143
49	0x40cb8b28	6.360737
50	0x405c6613	3.44373
51	0x40c6c32f	6.211326
52	0xbf98f87e	-1.1950834
53	0xc02760b1	-2.6152766
54	0x4008f21f	2.139778
55	0x4082d2dd	4.08824
56	0x403e789a	2.976111
57	0x40be240a	5.9418993
58	0x40f9df27	7.8084903
59	0xbfe078df	-1.7536887
60	0x405f4c86	3.4890456
61	0x408f6bd0	4.4819107
62	0x409464e5	4.637316
63	0x3e7f49a1	0.24930431
