transformer/results/st_transformer/t12_r4_i110_n3_h64_e400_l0.005.pth (torch, 323063 bytes, 32 tensors)

embedding.weight f4 [64, 5]
00000000: f685 38be 8fd5 5bbe 0071 9f3e 2b21 8a3e
00000010: 8b3c d8be ef1b 803e 248b 99bf 6998 0dbe
00000020: e9df 2d3f 20c6 8abf 0ea2 ef3c d79f eb3e
00000030: 9081 3bbe f233 f43d 430e 0bc0 66dd f33e
00000040: 05f9 5c3e bea1 ecbd 472f 073f 3d9b b33f
00000050: 3988 ba3d 61c9 383e feaf 6a3e bdd4 2dbe
00000060: cd85 2e40 4bab 1d3e 0c66 f43e 8302 7dbd
00000070: adcf ccbe 1904 3b3f 7404 9a3d 22b2 20be
00000080: bf6c 8d3e ca05 543d 5da7 d7bf e5dd a23e
00000090: 1a08 8fbd 9112 9d3e aa38 363c 232f ec3f
000000a0: 6fc8 88be e88b f5be 5351 253e 5f2a 7cbb
000000b0: 67c7 0bbe a605 d63b a28b ad3f b327 a03d
000000c0: 40b0 21be 7a94 aebf b33a 343e 10f5 bdbe
000000d0: 63bc 623e 4a49 e2be e86e 3ac0 8cf2 243e
000000e0: 6bbf 473f cc29 053e 3d24 2b3f 2739 32c0
000000f0: 713a 0dbf 861c eebe 8eda bdbe 0428 66bd
00000100: af2a 00c0 b90b 0e3f 9047 45be 210e d23e
00000110: f302 463f 41ed d63f 2fd9 e0bd ccf6 bf3e
00000120: 66e9 bc3c 906f adbe 4d4f 19c0 4dda 3fbe
00000130: 93ed 52bf 7089 a1bd 75b3 9dbe 1730 3240
00000140: 74c4 1c3e 5610 60bf 082e 683e 5935 a63c
00000150: f987 36c0 c6be 18be 7f6e 073c cfb1 3b3e
00000160: 9d01 ba3e 6517 4240 470e cf3e 96d0 afbe
00000170: 1e5c 14bf c647 7c3c a54e 50c0 81bc 27bf
00000180: e2d9 d43e 7def d73e 8736 0ebf 48c1 a6c0
00000190: 9323 15bd c4e5 883f b60c f83d fad9 59be
000001a0: ace9 5cc0 ab89 0b3f 614b ff3e 3093 20be
000001b0: 146b 59be d4c2 93c0 b3bc 95bd 4430 0ebe
000001c0: 8172 44be 04cc 30be 0554 293e 6f4f 453f
000001d0: 0021 5f3f 5858 e03e 5735 a63e 14f2 2cc0
000001e0: d7f7 bb3d a519 c1be 2b89 46bf 04e4 5cbe
000001f0: 91d8 fe3f 7656 27be 9237 d1be b28d c5bc
00000200: e8e1 38be 4e24 44bf 48c4 2fbf 5678 153f
00000210: 9082 083f f1f1 9dbe 696a 28c0 5fe8 b9be
00000220: 0a9f cd3e 049a 093e ba7c 8e3e bb8a 29c0
00000230: 1989 27bd 63a1 5f3f 4225 cfbe 72e5 233e
00000240: 7372 4ec0 31bc 8bbe c779 c83e 2e68 b33d
00000250: 7b16 583e 55ed 18c0 1a14 52be 185e 8a3d
00000260: 1096 e13e 9688 bc3d b907 4bbf 7819 ffbd
00000270: e705 3bbf fd64 8dbf 04ab 07bf 9537 9440
00000280: 523b dbbe 4eda 343e 9f93 e2bc c550 9f3d
00000290: d1f8 88bd 50e1 f6be bd2b 11bf f461 32bf
000002a0: 1384 a8be ba6e a240 7e39 19be ee3b e5be
000002b0: b3c8 10bd 7fd2 393e 373c 7e3f 2dfc 0bbf
000002c0: 168e 00bf a54d 0fbf a072 3abf 733e 6840
000002d0: 6111 e0be 30fc 59bf 1d80 30bf 866c 313e
000002e0: 2bbb 2b40 6bd0 8c3e 5d27 fd3e 960d 033f
000002f0: 18c9 cbbe c3ca 92c0 1833 773e cc89 67be
00000300: 9983 f13e 1209 773e 29a3 2d40 e9a6 44bf
00000310: 287f 3e3e 9719 2fbf d418 16bf a42f 5740
00000320: e0bc 963d 5b36 f73e 77d5 b03d 85b5 b03d
00000330: 317a 91c0 ddea c33d f03d 7bbf 9cb1 09bf
00000340: ec04 02be a25f 2e40 9000 22be 384c 64bf
00000350: 2f12 b8be 1dec 803e 88c2 7f40 abeb cbbe
00000360: 5a60 e3be 777d babf 7e1b 1ebd ae87 4240
00000370: 98ed 41be 4a71 7c3e 6847 273f 3084 c8be
00000380: 1b9f 29c0 754f e4be 98f6 27bf c954 53bf
00000390: 46c0 e1be d865 4240 cceb 463e b065 283f
000003a0: 7b57 c73e c620 8bbe f057 57c0 ba58 5abd
000003b0: b62a c4bd fcd3 44bf 5ba6 c2be af95 4440
000003c0: 5547 293d 654a 5ebd 49c6 683d 3487 8c3e
000003d0: 650b 52c0 7717 d6bd d145 d63e fd22 8b3e
000003e0: 04d1 d7be fba8 73c0 38eb 2abe cdab 21be
000003f0: 6e3d 9ebe e48e bebd 0cb6 d23f 49ec bdbe
-0.18019852 -0.21468185 0.311409 0.2697843 -0.4223369 0.25021312 -1.1995587 -0.13827671
0.67919785 -1.0841713 0.029252078 0.46020386 -0.18311143 0.1192397 -2.1727455 0.4762985
0.21579368 -0.115542874 0.52806515 1.403175 0.09108014 0.1804557 0.22918698 -0.16975684
2.7269166 0.15397374 0.47734106 -0.061769973 -0.40002194 0.7305313 0.075203806 -0.15692952
0.2762203 0.051763333 -1.684795 0.31809917 -0.06983967 0.30678228 0.011121908 1.8451885
-0.2671542 -0.47958302 0.16144304 -0.0038477404 -0.13650285 0.006531435 1.3558238 0.07820072
-0.1578989 -1.3639061 0.17600517 -0.3710103 0.22142176 -0.4419654 -2.9130192 0.1610815
0.78026456 0.13004225 0.6685217 -2.7847383 -0.551673 -0.46506137 -0.37080806 -0.056190506
-2.0026052 0.5548664 -0.1926558 0.41026405 0.7734825 1.6791154 -0.109789245 0.3749298
0.023060512 -0.33874178 -2.3954651 -0.18735619 -0.8239376 -0.07887542 -0.30800977 2.7841852
0.15309316 -0.87524927 0.2267381 0.02028911 -2.852049 -0.14916524 0.00826609 0.18329547
0.36329356 3.032678 0.4044058 -0.34338826 -0.5795306 0.0153979715 -3.2548 -0.6552201
0.4157248 0.42174903 -0.5555195 -5.211094 -0.03641088 1.0695119 0.121117994 -0.21274558
-3.4517622 0.5450694 0.49862197 -0.15681148 -0.21232253 -4.6175327 -0.07311382 -0.138856
-0.19184305 -0.17265326 0.16535957 0.7707433 0.8715973 0.438174 0.3246257 -2.7022753
0.09178131 -0.37714878 -0.7755305 -0.21571356 1.9909841 -0.16341576 -0.4086271 -0.024115417
-0.18054926 -0.76617897 -0.68658876 0.58386743 0.5332422 -0.3084865 -2.6314948 -0.36310098
0.401604 0.13437659 0.27829534 -2.6490924 -0.04090223 0.8735563 -0.40458113 0.16005495
-3.2257354 -0.27292016 0.3915541 0.08760105 0.21102326 -2.3894856 -0.2051548 0.06756228
0.440598 0.09205739 -0.7930866 -0.1245603 -0.7305588 -1.1046444 -0.52995324 4.631785
-0.42818695 0.17661402 -0.027658282 0.077790774 -0.06688083 -0.48218775 -0.56707364 -0.69680715
-0.32913265 5.0760164 -0.14963338 -0.44772285 -0.03534765 0.18146704 0.9931063 -0.54681665
-0.50216806 -0.5597785 -0.72831154 3.6288116 -0.4376326 -0.8515043 -0.68945485 0.17326555
2.6832988 0.2750276 0.49444094 0.51192605 -0.3980186 -4.587251 0.24140584 -0.22611159
0.47170714 0.24124554 2.7130835 -0.76817185 0.18603194 -0.6839842 -0.58631635 3.3622828
0.07360244 0.48283657 0.08634465 0.08628372 -4.546166 0.09566281 -0.98141384 -0.53786635
-0.1269719 2.724587 -0.15820527 -0.891788 -0.35951373 0.2518014 3.9962482 -0.39828238
-0.44409448 -1.4569539 -0.038600437 3.0395312 -0.18938291 0.24652591 0.6534333 -0.3916335
-2.650336 -0.4459187 -0.6561065 -0.82551247 -0.44092005 3.037466 0.19425887 0.6578016
0.3893393 -0.27173442 -3.3647423 -0.053307272 -0.09578459 -0.7688596 -0.38017544 3.071636
0.041327793 -0.054270167 0.056829724 0.27446902 -3.2819455 -0.10453694 0.4185014 0.2717513
-0.42151654 -3.8071887 -0.16691291 -0.15788193 -0.30906242 -0.09304598 1.6461806 -0.37094334

embedding.bias f4 [64]
00000000: ac97 c2be e79a 0a3f 690d a63d 6aaa 853e
00000010: 950f c13d c14e 2d3e 371f 60bd 6526 933e
00000020: 0af5 c2be 26a1 8abe e413 07be c055 043e
00000030: 0d92 543e 1453 50bd 05ec b9be 2771 bf3c
00000040: b088 b6be 60b8 5ebd 79a0 2e3e 57c4 16bf
00000050: 0a58 173f ecfc 853d befb 5d3e d203 b53e
00000060: 9cc8 083e 91d3 a63e 0c77 1dbf 5205 313e
00000070: 0591 2dbf 5efe f8be 4772 a1be b1f9 0cbf
00000080: 6d3e c5bb 9419 ec3d b7ab 263d 5e5f 6ebd
00000090: e71f a63e 6332 d0bd b529 433e 3d1f 9ebe
000000a0: 35c1 02bf eca7 533e 5524 4e3e edef 6ebe
000000b0: 9c8e 303e 869e 053f 8f90 fbbe 0b81 9bbb
000000c0: ea01 29be 8888 52bf 8662 b03d 1368 c63c
000000d0: 5447 ae3e cc10 afbd 4118 e43d b678 adbe
000000e0: db7c 90be cd9b 32bd eb50 ff3c ea1d a5be
000000f0: 8026 b5be fcb3 3cbd 7667 253e f152 cfbe
-0.3800634 0.5414261 0.081080265 0.26106578 0.094268 0.16924573 -0.05471727 0.2874023
-0.38077575 -0.27076072 -0.13191181 0.12923336 0.20758839 -0.05086048 -0.3631288 0.023369385
-0.3565116 -0.054375052 0.17053403 -0.5889334 0.5911871 0.06542382 0.21678063 0.35354477
0.13357776 0.32583287 -0.61509776 0.17287186 -0.6779941 -0.48631567 -0.315325 -0.550685
-0.0060194046 0.11528316 0.040691104 -0.058196418 0.32446215 -0.101658605 0.19058879 -0.30883208
-0.5107606 0.20669526 0.20131047 -0.23333712 0.17241901 0.5219501 -0.49133727 -0.0047456077
-0.16504636 -0.8223958 0.08612542 0.024219548 0.34038794 -0.085481256 0.111374386 -0.33881158
-0.28220257 -0.043605614 0.031166514 -0.32249385 -0.35380936 -0.046070084 0.16152748 -0.40492967

transformer_encoder.layers.0.self_attn.in_proj_weight f4 [192, 64]
00000000: f0ae 183f 4026 d7be 4c92 3d3f 3d37 7abf
00000010: f24c 83bf ff07 92bf 1831 963f c6f1 ccbe
00000020: f84e dc3f 1a8e 0d3e e9e2 973f 2726 53bf
00000030: 1c03 ca3f aa00 8fbe 2303 883f f062 bf3b
00000040: 11b4 e83f 7a72 4f3f 0af2 5b3e 4f83 f23f
00000050: 8b36 38be 4136 a13f 3a79 3ebe e66d 173f
00000060: beee 1bbf f0db 1f40 7e5e aebe 0356 663f
00000070: 8a85 8ebf 15cc 613f 2183 ecbf 253f c03e
00000080: cdae 1cc0 3a90 40bf 93a6 b9be f687 743f
00000090: 7ac6 03c0 f9a9 b8bf ed31 47c0 2d35 c23e
000000a0: 8cb3 6bbe 3466 3abf b451 8e3e 218f 8ebe
000000b0: 1784 b6bf 25ed dcbe 240c 1ebf 1e99 29bf
000000c0: fd1b 273e 1da3 26bf 9a90 b53e 421e a4bd
000000d0: 6105 9ebd bcee 413f e3b6 0abf 1484 48bf
000000e0: 7024 023f 2d4d a3bf 1729 d1be c90b 90bf
000000f0: da64 79bf db94 aebf ed05 e4bf ac14 1ebf
00000100: 8be0 5b3f babf 593e 76b5 92bf 999e c63e
00000110: 7d48 2c3f ea1d 15be b3b0 d1be 96b5 69be
00000120: 06ad dcbf 098a 683f 6f25 f1be 75ba 2d3f
00000130: d5ec b5be 87b3 653f e83d ac3e c4c1 6ebe
00000140: 212f dabe 6127 223f d281 0fbf 59ba 0dbf
00000150: ed8c 883f a134 20bf e7b3 f03f 5cea 523e
00000160: b35b bd3f d6d7 4fbe 616d e8bd 6b89 eb3e
00000170: 0a20 c93d 0030 90be 09ea 283f 11ac febd
00000180: 7319 4c3e 7071 1dbf ad07 963e 8b1a b2bf
00000190: 9502 eebe 893e a83f 8a09 2dbf 93d6 c23e
000001a0: 6fa6 4e3f 9d8a e7bd ba6f b8bf 6452 b3be
000001b0: 8840 993f 2fa4 24bf 318e 163f 768e 24bf
000001c0: 7acf 193f 9962 763f feef dc3d b789 2bc0
000001d0: e91f dbbc dd1e 4bbf b5f6 adbf 110b 793e
000001e0: fc0c 98be 998d 4fbf df5e d9bd edc3 893f
000001f0: 1d52 363d 828d 73bf 2393 903f 8da5 15bd
00000200: 6f76 35be 2f7b b13e 4c03 92bd 9994 3d3f
00000210: b8da b43f f827 783f 3d45 173e e768 0bbf
00000220: 2838 f33e e671 13bf 7019 93be 625b 263f
00000230: f1ec 933f ca42 ad3f ecfc e5bf 291a 7e3f
00000240: dd8b af3e 3279 993f 0fd6 9c3d bf7d 1fbe
00000250: 7f33 9fbf 2321 09bc 04d1 b7be 61d0 7ebf
00000260: 822b 3e3e 1dee 4cbe 3dea 58bf c99e 92bf
00000270: fcd6 a9bf e35b a0bf 0a58 f03d 11a6 ae3f
00000280: 36a3 593e 40a0 c13f bdad 353e 56fc e43e
00000290: 7f9f 293f cf4c 1fbf 4553 ba3f dbce a73f
000002a0: 9ad4 f1bf 7741 d93f db07 1d3f b359 b33e
000002b0: a1c7 17c0 4d06 d93f e44b e0bf 3bf8 c23f
000002c0: 2435 8abf 6092 e9bf bc83 8e3e b010 2640
000002d0: 7da2 93bf 5e5d 1f3f cf07 f93e 12ef 433d
000002e0: 8ae1 4dbe b3ef b73f 520b be3e 62c9 ecbf
000002f0: df09 12c0 c2cf f03e 153c 10bf e6bd a23e
00000300: deef 80be dbca 8b3e c8f9 fbbe 34e8 0bbf
00000310: 704d 82bf 7d11 79ba 3e84 253e d9c1 783e
00000320: 3ab1 45bf f367 1e3f 1219 2e3f b8ab 9d3e
00000330: ed44 20be d981 9a3f 3c7a dd3d 9e1e 84bf
00000340: 8285 54bd 372a d3bf 0840 443f fccf 303f
00000350: e4b8 953f a40e 2d3f 8b59 443f e14c 513f
00000360: 1017 ed3e 4686 253c a3a1 4b3e fd2a 5e3f
00000370: 3100 513f de21 d33e f9fc b3bd 32e8 01bf
00000380: 6057 2abf 50ff dcbf ef10 12be 0877 b1bf
00000390: 73e7 45bf 7429 c33f ddfe f5bf cc82 6ebf
000003a0: 6e2d d13f 4330 b3bf ceb4 9ebf 1a94 a9bf
000003b0: e100 ce3f e1a3 eebf 3970 cb3f e33f ebbf
000003c0: b52f 7f3f ce8e a93f ecca adbd 8687 74c0
000003d0: 65b3 7f3f 9805 ffbe 5490 b0bf 8887 763f
000003e0: 15f5 263f 1a5a 0ec0 1262 94bf 2020 f93f
000003f0: 2ae9 983f 0381 c0bf 57ef 5a3f 6f9d 8abf
0.59641933 -0.4202137 0.74051356 -0.97740537 -1.0257857 -1.140869 1.1733732 -0.40028208
1.7211599 0.13823739 1.1866122 -0.8248009 1.5782199 -0.27930194 1.0625957 0.0058406517
1.8179952 0.8103405 0.2147905 1.8946322 -0.17989556 1.2594682 -0.18600932 0.59152067
-0.60911167 2.497799 -0.34056467 0.89974993 -1.1134503 0.8820203 -1.8477517 0.37548175
-2.448169 -0.7522007 -0.362599 0.9551996 -2.058989 -1.4426872 -3.1124222 0.37931195
-0.2301771 -0.728122 0.2779671 -0.27843574 -1.4259061 -0.43149677 -0.61737275 -0.66249263
0.1631927 -0.6509264 0.35461885 -0.08013584 -0.0771587 0.75754905 -0.54185313 -0.78326535
0.5083685 -1.2757927 -0.40851662 -1.1253597 -0.9741951 -1.3639177 -1.7814308 -0.6175029
0.858895 0.21264544 -1.1461627 0.38792875 0.6729811 -0.14562193 -0.40955123 -0.22823176
-1.7240303 0.90835625 -0.47098872 0.67862636 -0.3553225 0.8972706 0.3364098 -0.23316103
-0.42614082 0.6334134 -0.56057465 -0.5536247 1.0668007 -0.62580305 1.8804902 0.20597214
1.4793609 -0.20297179 -0.11348987 0.4600328 0.09820564 -0.2816162 0.6598211 -0.12435163
0.19931583 -0.61501217 0.2930273 -1.391435 -0.46486345 1.3144084 -0.6759268 0.38054332
0.8072271 -0.11305735 -1.4409096 -0.35023797 1.1972818 -0.64313024 0.58810717 -0.6427988
0.6008221 0.962442 0.107879624 -2.6802804 -0.026748614 -0.7934397 -1.3590914 0.24320628
-0.29697406 -0.81075436 -0.10613798 1.0762917 0.044511903 -0.951378 1.1294903 -0.036534835
-0.1772096 0.34664294 -0.07129535 0.7405487 1.4129248 0.9693599 0.14772506 -0.54456943
0.4750378 -0.5759567 -0.28730345 0.6498319 1.1556684 1.3536007 -1.7967811 0.9925867
0.34286395 1.1990111 0.07658016 -0.15575312 -1.243759 -0.008369717 -0.35901654 -0.9953671
0.18571284 -0.20012708 -0.8473242 -1.1454707 -1.3268733 -1.2528042 0.11735542 1.364443
0.21253666 1.512703 0.17742057 0.44723767 0.66258997 -0.62226576 1.4556662 1.3110002
-1.8893006 1.6973103 0.6134011 0.35029373 -2.3715594 1.6955048 -1.752316 1.5232004
-1.0797467 -1.8247795 0.2783488 2.5947685 -1.1533962 0.6225184 0.4863877 0.047835417
-0.20105568 1.4370025 0.37118012 -1.8498957 -2.2818525 0.47033507 -0.5634168 0.31785506
-0.25183004 0.27303204 -0.49214005 -0.5465119 -1.0179882 -0.0009501202 0.16163728 0.24292697
-0.7722355 0.61877364 0.68007004 0.30795074 -0.15651293 1.2070876 0.1081433 -1.0321844
-0.051885135 -1.6497258 0.76660204 0.6906736 1.1697049 0.67600465 0.7669913 0.8175793
0.46306658 0.010102814 0.19885878 0.86784345 0.8164092 0.41236776 -0.08788485 -0.50744927
-0.66539574 -1.7265415 -0.14264272 -1.386445 -0.7730629 1.5247025 -1.9218403 -0.9316833
1.6341989 -1.3999103 -1.2398927 -1.3248322 1.6094018 -1.8643762 1.5893623 -1.8378872
0.9968217 1.3246706 -0.0848597 -3.8207717 0.9988311 -0.49808955 -1.3794045 0.96300554
0.65217716 -2.2242494 -1.1592429 1.9462929 1.1946156 -1.5039371 0.85521454 -1.0829295

transformer_encoder.layers.0.self_attn.in_proj_bias f4 [192]
00000000: 861b b9bf 85e2 023f d769 7abd 40ae 0cbf
00000010: f468 6d3f 61ff d1be ef4a 833e 1f06 b93e
00000020: 7730 7c3f b20e aebe 165b 873d 0a60 2f3f
00000030: d46e 67bf c2ce 6ebf 16d5 683f 8f23 53bf
00000040: 78cf 15bb 2393 0c3f 612a c83e 06ce 483f
00000050: 3929 8a3e c35f 143d 3b6b c13e d3f3 16bf
00000060: 75ed 7b3f 193a 1b3b 23ad 0d3e 5382 903e
00000070: 3322 1d3f d1fc b7be 3523 ce3d c097 e4be
00000080: b16b 293c 8cce 34bf 7452 00bf fd44 e03c
00000090: 1789 0d3d 3fab 8e3e ce81 933f d2e7 8fbe
000000a0: 1313 033e 978a 1abd df04 733f f979 103e
000000b0: eac9 db3e 33b3 8f3e fa83 ac3e fb0f 0bbf
000000c0: 97d5 f93e d38f 0fbf 9708 df3d 1e4d 113f
000000d0: 01c8 f9be 3cc1 76bf 677e a0bd bf75 423f
000000e0: 6bca 5ebf 2c65 b6be 4966 0a3e d266 8d3f
000000f0: 0895 a7bf 8958 853e 49f0 28bf 3209 263f
00000100: 73e2 86be 92f8 bc3e 1da2 8abe 564c 873e
00000110: 2a80 b23e cb5d b7be 1b93 273e a48d 2e3e
00000120: e891 8e3e 12a5 09be 1562 5fbe 7113 06bd
00000130: 1c14 8ebe d976 60be df49 b33e 24a4 b0be
00000140: bcb7 b0bd 77d1 e5bd bc4d b03d 6732 bebd
00000150: d14b 0e3d 4a46 01be 09fc 543e 8704 993c
00000160: 7f0d 693e 3715 a13e 507a 253e 5042 b6bd
00000170: 985d 07be 66cf 17be a0e0 6a3e 396e 843e
00000180: 4c62 a03e 7bf0 02be 5f39 0ebe e081 3d3e
00000190: 0fe4 2b3e c29e b43e f4cd f1bc 18b1 b53e
000001a0: 93ec bdbc 4a0d 7cbe fb78 653e 9d67 9ebe
000001b0: 793a ce3e e7de 8cbe 95d5 0f3e 2dd1 10be
000001c0: 10df 03bf a406 6dbf c2de f9be 64bd 2ebf
000001d0: 9c86 673f aba1 85bf 91f1 31bf 8c16 81bf
000001e0: 3bdf 023d a776 46bf 4f6e 69bf 7062 8a3f
000001f0: 445c 8abf 0360 753f ef04 6abf cd2c 263f
00000200: 8d8d 55be c41b 2fbe c77b c63e e0cb 953e
00000210: 7aae 49bf 7b6e 86bc 33bb 663f 8ee8 59bf
00000220: bd5a c3be 1f5c 183f 11f7 a83d 0f0e a5be
00000230: ad56 f83e 2dbe 06bd 7db8 af3e 5745 86be
00000240: dbd3 1c3c 6606 b6bd ba2d 873d c8d0 20bf
00000250: 8b19 573f c5a8 38bd 79d3 d63e 1ea6 10bd
00000260: 33d9 95be 0df4 b7be 9006 cf3e 205f 3c3f
00000270: bb59 3f3e 17a9 f43e b043 903e 4752 ce3d
00000280: ee2c 9a3e 299d 80be 12e7 16be a526 0b3e
00000290: 8caf bbbc 344e 993e 134e d43d d73c 8e3e
000002a0: 7624 edbd b287 aabe cdf1 a23e 70c4 4e3e
000002b0: 99eb b23e f4de 133e 78bb ecbe 0616 83be
000002c0: 2ff3 cabd 2ce3 9a3e 4480 fd3e 14d5 903e
000002d0: 648c 5dbe 2752 96bd 65f0 113e 69bd 813d
000002e0: 0d89 0dbf a09c 2fbd 9b95 12bf 13a5 febe
000002f0: 739e 59bf 1cf2 d03e 45a3 0c3f 2e56 bebe
-1.4461524 0.5112689 -0.061136093 -0.54953384 0.9273827 -0.4101515 0.25643107 0.36137483
0.9851145 -0.33995587 0.0660917 0.6850592 -0.90403485 -0.9328424 0.90950143 -0.82476133
-0.0022859257 0.5491201 0.39094833 0.78439367 0.26984575 0.036224138 0.37777123 -0.58965796
0.98409206 0.0023685752 0.13835578 0.2822443 0.6138031 -0.3593507 0.10065309 -0.44647026
0.010340617 -0.70627666 -0.50125813 0.027376646 0.034554567 0.27865025 1.1523988 -0.28106552
0.12800245 -0.037729826 0.9492931 0.14109029 0.42927486 0.28066406 0.3369444 -0.5432126
0.4879577 -0.56078833 0.1089031 0.56758296 -0.48785403 -0.963886 -0.07836609 0.75960916
-0.87027615 -0.35624063 0.13515581 1.1047003 -1.3092356 0.2604411 -0.65991646 0.6485778
-0.26344642 0.36908394 -0.27076808 0.26425427 0.34863406 -0.35813746 0.1636471 0.17046219
0.27845693 -0.13441876 -0.21814759 -0.032733385 -0.27749717 -0.21920337 0.35017297 -0.3450023
-0.086287946 -0.11221593 0.08608577 -0.09286957 0.034740273 -0.1262447 0.20799269 0.018678917
0.22759055 0.31461498 0.1615994 -0.08899367 -0.13219297 -0.1482521 0.2293725 0.25865343
0.31324995 -0.12787049 -0.13889073 0.18506575 0.16786216 0.35277373 -0.029517151 0.35486674
-0.023184096 -0.24614444 0.22409432 -0.30938426 0.40278986 -0.2751381 0.14046319 -0.14142294
-0.5151224 -0.9258826 -0.48802763 -0.6825774 0.9043977 -1.0439962 -0.69509226 -1.0085006
0.03195117 -0.775248 -0.9118394 1.0811291 -1.0809407 0.9584963 -0.9141378 0.6491211
-0.20854779 -0.17100435 0.3876631 0.29257107 -0.78781855 -0.016410103 0.90129393 -0.85120475
-0.38155165 0.59515566 0.08250249 -0.32237288 0.48503628 -0.03289621 0.3432044 -0.26224777
0.009571995 -0.08887939 0.066005185 -0.62818575 0.8402335 -0.045082826 0.41958216 -0.03531467
-0.29267272 -0.35928383 0.40434694 0.7358265 0.18686573 0.47785255 0.2817664 0.10074287
0.30112404 -0.25119904 -0.14736584 0.1358896 -0.022910856 0.29942477 0.10366454 0.27780792
-0.1157922 -0.33306652 0.31825104 0.20192122 0.34945372 0.14440519 -0.46236777 -0.2560274
-0.09909665 0.30251443 0.4951192 0.28287566 -0.21635586 -0.07339888 0.1425186 0.06334955
-0.5528725 -0.04287398 -0.5725953 -0.49735317 -0.850074 0.40809715 0.5493663 -0.37175125

transformer_encoder.layers.0.self_attn.out_proj.weight f4 [64, 64]
00000000: b793 84bf 6677 97bf 040f e1be e499 0cbf
00000010: c27b fdbf e263 b33f 1bef 64bf 92bd ba3f
00000020: c0bb 84bf 1391 2c3f a651 983f ee60 6bbe
00000030: e033 e1bf b38b db3e a8cc 43c0 5afc 1a3f
00000040: c4b6 2ebe da70 cfbf c369 223f 3f63 173c
00000050: c0cc 94bf 8da4 f4bf 38df bc3e 528c fbbe
00000060: 3981 c3bf 7234 0cbf aa89 723f 7c5b 033f
00000070: a7be 5740 a284 ff3e e7e5 bfbf 5099 97be
00000080: 06a9 0e40 e399 0bc0 1bac af3e 50fb 753f
00000090: f2a6 163e 4147 26be 9fb6 91be b2ed c83f
000000a0: 93ef a9bf 48ba 06bf 332c 8cc0 a354 ce3f
000000b0: 4dd4 a6bf 470c c2be 75a1 0140 886d df3f
000000c0: da3f cdbf c8db e23f 1eb4 b13f 5c80 0b40
000000d0: 1a3c d7bf 3873 76bf 0916 c23f a6ed a53f
000000e0: d6b3 5bbf ab01 03c0 c520 a5bf 6f6b 39bf
000000f0: 4af8 cebf 765e c63f 52fc cc3f 410a d5bf
00000100: 35a3 babd 4a1f 33bf 603f 1040 5853 a13e
00000110: 50ae 413f 02a9 d83f 2e85 f2bf 7d03 2540
00000120: 1f5a abbe 758f f23f 7d4b ae3f 8b7d fc3f
00000130: e10d 9d3e 6dce 9b3f db71 01c0 db1c 01bf
00000140: 2449 5540 80c5 e63f a7dd 47bf c99e d2bf
00000150: 7b11 3440 95c6 ca3f cea1 0abf e38c 2940
00000160: 6d05 6640 5418 2f3f b0c8 7f3e 4c19 413f
00000170: 5bbd dcbf 1329 6bbf 3b40 5e40 81ae 12c0
00000180: 8009 f13f 7eab 603f 13dc 0dbf 3262 0640
00000190: 840d eabe 101a 873f 4b37 0e40 d6df 243f
000001a0: e90d 76be 554a 24c0 f489 f5bd 28e5 02bf
000001b0: abff d23f 7478 613f b8d5 e3be 3d9a ac3e
000001c0: c0d2 0840 cd7a 34c0 ac06 04c0 2efc edbf
000001d0: f0f0 2cbe d46f 623f 915b 87bf 87cd 27bf
000001e0: f399 933f be6e 4a40 414d dc3f 83aa 16bf
000001f0: 4b1f f83f ec95 8c3e 9750 c7bf e3ed d73f
00000200: d623 d9be 1159 7cbf fd82 85be 21c2 1a3f
00000210: 8ecf b9be dcec 073f 3c0b 873f 5659 85be
00000220: 5cb2 68be 1926 c3be b097 d73e 1514 a63e
00000230: 46bf 703c 0ffe fe3f 9abb c0bf a417 0040
00000240: eab6 85bf 9833 153e ce53 2fc0 af3a 2ac0
00000250: 94a3 d93f efd8 703f e8bb c53f 583b 053e
00000260: 348c 4dbf 8184 10c0 ab7c 95bf 1867 ad3f
00000270: 7f86 c6be 5de6 013f 44fb d03e 03e1 3f3f
00000280: 6d01 3dbf c7fe af3e 5435 82bf b72b 18bf
00000290: 3a1e 553f 813b 0ec0 c351 b6bf 31c4 2ac0
000002a0: 2720 df3f 2a92 6a3f fe9f c53e 0083 50c0
000002b0: c10f bb3f 8205 cc3f f469 21c0 0c2a ffbf
000002c0: 9a43 7c3e adf7 1ebf 9fc6 443f 5935 6d3d
000002d0: 7bc6 60bf 759f 2fbf c3c1 953f eb22 aa3d
000002e0: 2ef3 dfbe ec40 763f 4a86 e9bc 0693 0a3f
000002f0: 593f 803f 3b23 a13f 5173 f23e 20f3 9ebf
00000300: bc20 0ac0 7e60 1ac0 7f68 30be 9cf1 663f
00000310: 7ca0 c2be 80ed b03f b73f d4bf 8a56 edbe
00000320: 7b04 2bc0 f1c6 0940 3624 ef3f f1e2 3abf
00000330: 2e97 2dc0 29f0 413f de86 0cc0 6eb2 4c3f
00000340: adfe 1bbf 756c 11c0 864c 3540 5918 e23f
00000350: d00e 7aba 12d6 21c0 1e61 8cbe 7f93 14be
00000360: b86d 1dc0 db85 b2bf 6b70 d03f 2ed3 253f
00000370: ed16 1740 9c6d 453e 387f 25c0 8dd9 7f3d
00000380: 0497 c53f 2b1d 18c0 8c89 b93e 0720 93bf
00000390: 4502 a23f 3075 c1be e2a6 efbe 5d1c be3e
000003a0: 2ee4 c2be 2ad2 193f 419f 44bf a2df 4dbf
000003b0: 4cd5 7c3e 56bf 463f c581 4e3c bf55 2240
000003c0: 27b2 02bf ca92 f7be 652a 35c0 a34b f6bf
000003d0: 50c0 0940 675e 0640 85e0 c2bf c033 fcbf
000003e0: b0ca f13f 5b2f 9c3e 719a f33f 5ae0 c33f
000003f0: 99b7 513f dca4 a7bf 9d88 e2bf eb6b b23f
-1.0357579 -1.1833313 -0.4395677 -0.5492232 -1.9803393 1.4014857 -0.89427346 1.4589102
-1.0369797 0.67408866 1.1899917 -0.22986194 -1.7593956 0.4288002 -3.0593662 0.6054131
-0.17061907 -1.6206315 0.6344263 0.009239971 -1.1624985 -1.9112717 0.36889052 -0.49130493
-1.5273811 -0.54767525 0.9474131 0.5131147 3.3710115 0.49905878 -1.4992036 -0.29609156
2.2290664 -2.1812675 0.34310994 0.960866 0.14712122 -0.16238119 -0.2845964 1.5697539
-1.3276237 -0.5262799 -4.3803954 1.6119579 -1.3033539 -0.37899992 2.0254796 1.7455301
-1.6035111 1.7723322 1.3883092 2.1797094 -1.6815217 -0.9626956 1.5162975 1.296315
-0.8582128 -2.0469768 -1.2900625 -0.72429556 -1.6169522 1.5497577 1.6014502 -1.6643754
-0.091131605 -0.6996962 2.253868 0.315089 0.75656605 1.6926577 -1.8946893 2.578338
-0.33467194 1.895003 1.3616787 1.9725813 0.3067465 1.2172371 -2.0225742 -0.50434655
3.3325891 1.8029022 -0.7807259 -1.6454707 2.813567 1.5841852 -0.54153144 2.649224
3.5940812 0.68396497 0.249789 0.75429225 -1.7245287 -0.9185955 3.4726703 -2.2919009
1.8831024 0.87761676 -0.5541393 2.0997434 -0.45713437 1.0554829 2.2221248 0.64404047
-0.24028744 -2.5670369 -0.11989203 -0.51130915 1.6484274 0.8807442 -0.44498992 0.33711424
2.1378632 -2.8199952 -2.0629072 -1.8592584 -0.16888785 0.88451886 -1.0574819 -0.65547985
1.1531357 3.1630092 1.7211076 -0.5885393 1.938455 0.2745813 -1.5571469 1.6869472
-0.42410153 -0.98573405 -0.260765 0.6045247 -0.36291164 0.53095794 1.0550303 -0.2604472
-0.22724289 -0.38115004 0.42107916 0.32437196 0.014694041 1.9921283 -1.5057251 2.001443
-1.0446446 0.14570463 -2.73949 -2.6598318 1.7003045 0.94081014 1.544797 0.13010919
-0.8029206 -2.2580874 -1.1678671 1.3547087 -0.38774487 0.5074213 0.408167 0.74952716
-0.738303 0.34374067 -1.0172524 -0.59441704 0.8324925 -2.2223818 -1.4243702 -2.6682246
1.7431687 0.9162928 0.38598627 -3.2579956 1.4614183 1.5939181 -2.5220919 -1.9934707
0.24635163 -0.62096673 0.7686557 0.057912204 -0.8780286 -0.6860269 1.1699756 0.08307441
-0.4374022 0.9619281 -0.028506417 0.5413059 1.0019332 1.2588876 0.47353604 -1.2417946
-2.158248 -2.4121394 -0.17227362 0.90212417 -0.38013065 1.3822479 -1.6581944 -0.46355087
-2.6721485 2.1527674 1.8682926 -0.73002535 -2.7123523 0.7575708 -2.1957316 0.7995976
-0.6093548 -2.2722447 2.8327956 1.766368 -0.00095389504 -2.5286908 -0.27417845 -0.1450939
-2.4598217 -1.39471 1.6284307 0.6477536 2.3607743 0.19280094 -2.5858898 0.062463332
1.5436711 -2.3767803 0.36237752 -1.1494149 1.2656943 -0.3778472 -0.4680701 0.37131014
-0.38064712 0.6008631 -0.768055 -0.8041936 0.24690741 0.77635705 0.012604182 2.5364835
-0.5105309 -0.4835418 -2.8307126 -1.9241832 2.1523628 2.0995119 -1.5224768 -1.9703293
1.888998 0.3050488 1.9031507 1.5302842 0.8192077 -1.3097186 -1.7697941 1.3939184

transformer_encoder.layers.0.self_attn.out_proj.bias f4 [64]
00000000: 9feb 27be 8640 0540 8234 5b3f 577f 703e
00000010: baa5 bbbf 846d e5bf 3115 4abf 197b 23bf
00000020: 219d d13e 4dad b5bf 5244 8a3f afbc 9dbe
00000030: 086c a6ba 1f57 c5bf 87be c6bd 6069 2f3d
00000040: 7b5a 58bf 8e98 30bf 5572 633e ecfe dcbf
00000050: 1390 49bd 5b15 e5bd 726f 68be cee6 1c3f
00000060: a07d 06bf a9ba 543e 4a47 ab3e 67a0 96bf
00000070: 4da2 02bd 3fac abbe 4601 a5bd cdd8 b5be
00000080: a791 a53e 4554 3dbe 5798 1ebe 2969 663f
00000090: 0d35 aebe be0a 0bbf e6ee 2f3f ca06 3bbe
000000a0: 5390 b43e 2b98 bebf eba0 663f 43bf 643f
000000b0: b5e9 003e 5032 6b3e ab54 f1be 689a 203f
000000c0: 5d8c db3e 7b6e 34bf 0beb ebbf 53e6 b33e
000000d0: 557c a63e e642 1cbd 55d4 3b3f 003f 2c3f
000000e0: c02d 05bf be4d 8c3e 1714 c83f c3c1 0e3f
000000f0: 1e9f b6bf be4d 293f 9312 75be 2672 233f
-0.16398476 2.0820632 0.85626996 0.23486076 -1.4659951 -1.7924047 -0.78938586 -0.6385971
0.40940192 -1.4193512 1.08021 -0.30808017 -0.0012696991 -1.5417212 -0.09704309 0.042825103
-0.8451306 -0.6898278 0.22211583 -1.7265296 -0.049209666 -0.11185714 -0.22698763 0.6128968
-0.5253544 0.2077433 0.33452827 -1.1767701 -0.031893063 -0.3352985 -0.080568835 -0.35516968
0.32337686 -0.18489178 -0.154878 0.9000421 -0.3402485 -0.54313266 0.68723905 -0.18264309
0.3526636 -1.4890188 0.9008929 0.8935434 0.12589152 0.22968411 -0.4713491 0.62735605
0.42880526 -0.7048108 -1.8431104 0.3513666 0.32516733 -0.038149737 0.7337087 0.6728363
-0.52022934 0.27403063 1.5631131 0.55764407 -1.4267309 0.6613425 -0.23932867 0.6384605

transformer_encoder.layers.0.linear1.weight f4 [128, 64]
00000000: 9d0d e93e e866 683e af65 a7bd d963 0dc0
00000010: 3a21 30bf ee11 fdbd d01f b7be c502 763e
00000020: 8720 13bf de51 2e40 c2de 38bf 7172 13be
00000030: 17b6 42bf 3ea2 9f3f b26c 89be e2e6 203f
00000040: bdb1 0fbf 1cf8 5abf 142b 783f e730 c83f
00000050: 3e39 b9bf baa3 2cbf 068b bbbd 137a 913f
00000060: 63c4 613f 94a1 98bf 28b5 d7be 2205 1640
00000070: 0fa5 b9bf 2a2f ac3f aedf 8d3f 39b3 b1be
00000080: 1256 d0bf b307 1dc0 8672 ebbf 0033 89bf
00000090: 6b37 953f 0395 2e3f 5455 7dbf 93b1 4a3e
000000a0: b036 223f 8770 503e d0be 6cbf e10c d5bf
000000b0: c18c 34c0 2d21 d2bf 4452 4abf 7b99 c43e
000000c0: 2966 72bf 48ff d23e 0f14 9a3e 2fd1 2bbf
000000d0: 7949 163f ecd0 fcbd d85a 843f 7828 ec3f
000000e0: 2594 1640 6fac 813f fc07 09c0 4191 0abf
000000f0: e7ce 0abe a838 bfbf 675d 833f 9e99 2b3f
00000100: f4ef 0e3f 16ab a7be 6d80 8cbf ac4a c53f
00000110: b7ed d9be 7f87 acbf 420c db3f 613b 813f
00000120: e182 4540 cbbc 9fbe 8bab 25bf b8d9 d1bf
00000130: 49fd d63e 4692 b73f 3d7c 6f3f e176 e93f
00000140: 0f7b 0bc0 3e8a b4bf 3235 a7be 1504 52bf
00000150: 7438 ff3f a6a3 903f 0ab7 053f c944 5abf
00000160: 3ef7 463f 91c3 bebf c03e 6cbf 466b 40be
00000170: 127a 15c0 4cdd f9be 6a9c af3f b790 2440
00000180: d8d1 943f fbe8 c53c 0255 523e 95ed a6be
00000190: f267 b33f f50d 99bf 021d 49bf da72 15bf
000001a0: 2b73 bebf cccc b73f d60f d5be aa1d 3abf
000001b0: 8983 d7be 7692 efbf e3a6 573e fd3a a5bf
000001c0: 007c a33e 9a20 9d3c 19d8 b93f 90d8 d03f
000001d0: 5640 17bf 5c0d 28c0 9a48 8ebd 9426 b7bf
000001e0: 8725 7bbf 2413 0abf d970 a53e 4dd7 4cbd
000001f0: 6e0a 5a3f 7a97 1bbf 8828 7dbe 2b42 bb3f
00000200: 3010 713f 686e c8bf 5106 553d 3f2b 30bd
00000210: 4d9b 2a40 e754 943f 777e a93f 6a7f 0140
00000220: 70bf a1bf 30bf 203f 0160 0a3f f0f0 693f
00000230: 1bae 5fbd d9fc 95bd 5cc4 8ebf c708 8a3d
00000240: 5c2d e13f 94b0 813e 5f92 27bf e0d0 e0be
00000250: 9071 bbbe a70f 1b3e 162b 5f3e d112 143d
00000260: 2fa7 213f d870 efbd 3d36 10c0 4202 4ebf
00000270: e391 e4bf 9f75 2a40 0dd6 253e 4578 35bf
00000280: b763 843f 1cca a2bf 1624 973f 87eb 05c0
00000290: 2427 b73f c6ee 9dbf 6538 b8bf 754b 45bf
000002a0: 516b d4bf c30a 1f40 5043 edbf e9fb e9bf
000002b0: ba85 e33f 2ce2 57bf 4023 16c0 8d13 2740
000002c0: 3dbf eabf c158 513f 7d9e 83bf eb1f 413f
000002d0: ec9f 9f3f 8d53 3f3f e9c3 ff3f 4276 8a3f
000002e0: 9da0 cfbc c2c2 b23f 499b f9bf b2b4 3ebe
000002f0: 3ae1 863d 7997 89bf 9653 8bbe b747 a9bf
00000300: d611 1abf bc94 67bf 12d0 933f 6b41 c7bf
00000310: b3cd 2b40 561b 0f40 8888 9d3e 2d51 d2bd
00000320: 05ab 4dbf 134f ff3f c74d b03f bdc7 1f3f
00000330: 4779 0cc0 6895 23bf 5574 59c0 172a de3e
00000340: 3bbb fa3b 58f3 8abe a0e5 c0bf 20b8 91bf
00000350: 7309 99bf f2f9 8fbf a6c2 3e3f 8457 583f
00000360: 9c2c 2d3f ab04 083f 13b9 6abf 0b23 eb3f
00000370: ab22 44c0 fb50 d43f acfa e43f 10a6 9abf
00000380: 4aa4 c2be 4350 20c0 cbc0 1f40 c316 a2bf
00000390: b41b 2840 80f6 273f 4873 98bd 8a93 de3e
000003a0: 440d 8bbe 77e1 c13f 987e ebbd 53f2 f5bf
000003b0: c0ba 443f 1909 30be 3369 15c0 765a 0a3f
000003c0: 491f 84bf cace adbf 25d6 373f 9c9d 23bf
000003d0: b6e6 5a3f 6c49 d23f b282 0b40 c7e2 c2bf
000003e0: 7dfb 1040 c4e1 b93f 1e6a 08c0 3ca7 bcbe
000003f0: d520 83bf 9ffd dfbf 196d 95bf f2ed b63e
0.455182 0.22695506 -0.081736915 -2.2092192 -0.688007 -0.123569354 -0.3576646 0.24024494
-0.5747151 2.7237468 -0.722149 -0.14399125 -0.760591 1.2471387 -0.2684074 0.628523
-0.5613058 -0.85534835 0.9694073 1.5639924 -1.4470594 -0.67437327 -0.09157376 1.1365379
0.8819029 -1.192431 -0.421304 2.3440633 -1.4503497 1.3451893 1.1083887 -0.3470705
-1.6276267 -2.453595 -1.8394325 -1.0718689 1.1657537 0.68196124 -0.98958325 0.19794302
0.63364697 0.20355426 -0.92478657 -1.6644555 -2.821091 -1.6416374 -0.7903178 0.38398346
-0.94687134 0.4121039 0.30093428 -0.67116064 0.5870586 -0.12344536 1.0340223 1.844985
2.352792 1.0130748 -2.1411123 -0.5412789 -0.1355549 -1.4939165 1.0262879 0.67031276
0.5583489 -0.32747716 -1.0976692 1.5413413 -0.42564175 -1.347885 1.7113116 1.0096246
3.0861132 -0.31198725 -0.6471488 -1.6394567 0.41990116 1.4341514 0.9354895 1.8239404
-2.179386 -1.4104688 -0.32657772 -0.8203748 1.9939103 1.1299942 0.5223242 -0.8526121
0.7772101 -1.4903432 -0.9228325 -0.18790922 -2.3355756 -0.4880165 1.3719609 2.5713327
1.1626539 0.024158945 0.2054024 -0.32603136 1.4016097 -1.1957384 -0.7855989 -0.58378375
-1.4878896 1.4359374 -0.41613644 -0.72701514 -0.4209254 -1.8716571 0.21059756 -1.2908627
0.31930542 0.019180585 1.4519073 1.631609 -0.59082544 -2.6258154 -0.069474414 -1.4308648
-0.9810414 -0.53935456 0.32312658 -0.050010014 0.85172164 -0.6077801 -0.24722493 1.4629568
0.94165325 -1.5658693 0.052007977 -0.043009993 2.6657288 1.158841 1.3241719 2.0234017
-1.2636547 0.6279173 0.5405274 0.91383266 -0.0546094 -0.073236175 -1.1153674 0.067399554
1.7591968 0.2533003 -0.6545772 -0.4390936 -0.3661008 0.1514269 0.2179378 0.036150757
0.63145727 -0.11691445 -2.2533104 -0.80472195 -1.7857021 2.663429 0.16194935 -0.7088664
1.034293 -1.2717929 1.1807888 -2.0925004 1.430882 -1.2338493 -1.439221 -0.77068263
-1.659525 2.4850318 -1.8536167 -1.8280002 1.7775185 -0.84329486 -2.3459015 2.6105683
-1.8339611 0.8177605 -1.0282742 0.7543933 1.2470679 0.74736863 1.9981662 1.081734
-0.025345141 1.3965685 -1.9500514 -0.18623617 0.06585927 -1.0749351 -0.27212209 -1.3225011
-0.60183465 -0.90461326 1.1547873 -1.5566839 2.68443 2.2360435 0.30768228 -0.10269389
-0.8033908 1.9946007 1.3773736 0.6241415 -2.1949022 -0.6389985 -3.3977253 0.43391487
0.007651714 -0.27138782 -1.5070076 -1.1384315 -1.1956009 -1.1248152 0.7451576 0.8450854
0.67646194 0.5313212 -0.9168865 1.8370069 -3.064616 1.6587213 1.7888999 -1.2081928
-0.38015968 -2.5048988 2.4961421 -1.2663196 2.6266909 0.65610504 -0.07443863 0.43471938
-0.27158558 1.5146931 -0.11498755 -1.9214576 0.7684746 -0.1719097 -2.3345459 0.5404428
-1.0322047 -1.3578732 0.71811134 -0.6391237 0.85508287 1.6428657 2.179852 -1.5225457
2.2653496 1.4522023 -2.1314769 -0.3684634 -1.0244395 -1.7499274 -1.1673919 0.35728413

transformer_encoder.layers.0.linear1.bias f4 [128]
00000000: 2ab7 dabd 9a3e adbe 4972 4d3d 1721 5f3f
00000010: 3cb0 183f 410d ee3e 54bb e53b 70b4 b7be
00000020: 9352 933f b603 2f3f 65b4 983e b45b 8b3f
00000030: e9d7 fcbd 6553 24be 4733 9dbf 4361 653f
00000040: 61a1 ee3e 5b43 323f 1321 6c3f 51df 933d
00000050: 870a 0cbf 7ec3 393e bee0 a0ba 3391 163f
00000060: dcc6 cc3e 3546 e3be ac1d 213f 5121 22be
00000070: e9b1 433f a7a0 2e3f 13d4 9fbe f71e c9be
00000080: c6c1 11bf 1c93 263f fb52 b63e 9691 143f
00000090: 22c1 ccbe 4ffa c03e b9bb 3d3f beab f53e
000000a0: 29d2 60bd 61dd f43d 0acb 393e 5ccd 7a3f
000000b0: 45b3 103f 8a19 59bd a73a 433f 2589 073e
000000c0: 4f71 6c3f 5626 893f 1fee 833e 446b 1b3f
000000d0: b1f2 aabe defa 013e 58aa 1d3f e94f bbbe
000000e0: 4a06 5fbf 249f b13f 44ab 2c3f 4501 0a3f
000000f0: 062b fabe db73 9c3f 85a9 e73e 96bb f23d
00000100: 3fec 003f 4dd8 513f 3564 d03f b80b 2b3d
00000110: 35d7 95bf 012e 343f ce29 17bf db41 4cbe
00000120: 2462 d33e 9a4e a93e d240 24bf 296a 55be
00000130: 8a17 85be c622 043f 2b42 9a3f 1c6c b3bf
00000140: b62a 163f 5538 903e 9fb7 983e 9b8c b4be
00000150: 6d03 cdbc 3551 15be b7fc ef3e aad2 27bf
00000160: 86c0 14bd b6a6 c8bd afd6 8c3f 7414 183f
00000170: beb2 053f 8179 033f 045d 583e 34ef 613d
00000180: ce25 92be 8cb8 03bf ae49 23be 022c 8b3f
00000190: 1e4e 163f 56be e2be 19e1 45be 1e74 ae3f
000001a0: ecde 223f 2d59 593f 53f8 733e b592 7ebf
000001b0: 062b 13bf 4ea7 d8bd 5a5b ea3e dbce 3e3f
000001c0: ec7e be3d 04a5 833f b57d 2c3f ed13 4ebf
000001d0: 7b9e 9fbe aa9d 4d3f d723 eabd 3c00 c4be
000001e0: 1121 083f 04a2 eebd a845 0b3f 066e 3dbc
000001f0: 28a5 c4be 7891 ab3c ebec 563e c6a2 2e3f
-0.10679467 -0.33836824 0.05015782 0.87159866 0.5964391 0.46494487 0.0070108566 -0.3587985
1.1509575 0.6836504 0.2982513 1.088736 -0.12345869 -0.16047437 -1.2281274 0.89601535
0.46607497 0.69634026 0.9223797 0.072203286 -0.54703563 0.1814098 -0.001227401 0.58815306
0.39995468 -0.443895 0.629359 -0.15833022 0.76443344 0.68213886 -0.31216487 -0.39281437
-0.569363 0.6506822 0.35610184 0.58034647 -0.399911 0.3769097 0.7411457 0.4798259
-0.054887924 0.11956287 0.1814386 0.97969604 0.56523544 -0.05300287 0.7626137 0.1323591
0.92360395 1.0714824 0.2576761 0.6071055 -0.33388284 0.12693354 0.6158805 -0.36584404
-0.8711897 1.3876691 0.6744883 0.5390819 -0.4886095 1.2222856 0.4524652 0.118521854
0.5036048 0.81970674 1.6280581 0.041759223 -1.1706301 0.70382696 -0.59048164 -0.19946997
0.41285813 0.3306778 -0.6416141 -0.20841278 -0.2599452 0.5161556 1.2051443 -1.4017367
0.5865892 0.28167978 0.29827592 -0.35263523 -0.025026048 -0.1458176 0.46872494 -0.6555582
-0.036316417 -0.097974226 1.1003016 0.5940621 0.52225864 0.51357275 0.21129233 0.055159763
-0.28544468 -0.5145347 -0.15946075 1.0872805 0.5871295 -0.4428584 -0.19324149 1.3629186
0.636214 0.84901696 0.23825197 -0.9944261 -0.57487524 -0.10578786 0.4577282 0.74534386
0.09301552 1.0284734 0.67379314 -0.80499154 -0.31175599 0.803187 -0.11432617 -0.3828143
0.53175455 -0.11651996 0.5440316 -0.011561876 -0.38407254 0.020943388 0.20988815 0.6821712

transformer_encoder.layers.0.linear2.weight f4 [64, 128]
00000000: 87e8 aebf d58c ca3f 07c0 8f3e 3679 0c40
00000010: 4ca6 c1be 88b3 133f f0c9 803e b057 1cbf
00000020: 457d 6b3f da44 0fbf cb58 24c0 7a3a fa3d
00000030: 7912 393f e966 fc3d 0deb fb3f 8178 b1be
00000040: 1f56 453e d70d bc3f 5031 62bf 8e9b 6bbd
00000050: 39c3 6a3f ca0a 50bf 1cb4 5b3e ded6 a8be
00000060: 128e 453f 5ae8 4040 bc19 6cbf 6582 1b3f
00000070: 8e6f 91be b703 babf a3c0 ebbd d157 0a3e
00000080: 135c 263f 71a0 2ebd c638 153b 2fc7 273f
00000090: 73b2 ad3f bad7 ce3e 6249 353d 7bbf bcbe
000000a0: 9b44 94be 8452 f13f 7c26 b43f 3a8e db3f
000000b0: 137a cfbe 9d97 003e 10cf 683f ffc4 0b40
000000c0: d739 7d3f 24bf 983f 470b 49bf 2349 9b3f
000000d0: f242 0b3e 90b9 a03f 9e2d ad3f 0cc4 e2be
000000e0: 338a c43e be29 acbe 8c0e 243f 877a ca3c
000000f0: 2a2a 8e3e 38c7 37bf 4347 f23f 7511 df3e
00000100: 4594 a43e 540e c03f c40a ebbf 5de9 e53e
00000110: a729 123f a524 b93f 5d61 0340 4088 353f
00000120: d9a9 0140 57d7 7cbe e581 693f 4ca8 153f
00000130: a574 8c3f 4bc1 9dbf f467 213f 5a85 373f
00000140: 1eed bc3f 75ec dabe 3a3e f73f ca02 a3be
00000150: a12f d83f be0a 7a3e ab84 dcbe 2aac d73f
00000160: eb8e 8cbe 0d21 bbbe 22c4 b03f eca0 08bf
00000170: 2e5b 83be 0cbb 24bf 58e0 8e3e e59d 0c40
00000180: 8c97 83bf 6012 1d3f a288 dfbf 1b0c 9d3e
00000190: 1b0b ba3e c880 823e 858c b9be 55a7 e2be
000001a0: 1397 a43f e9b5 1240 9055 353e f8a0 1b3f
000001b0: e4a4 0a40 7780 e0bf 99c4 c43f 69ba c6bf
000001c0: 5fec 41be 31ef 813f 865d bebe a8b8 443e
000001d0: f5c6 0340 1248 a93e b228 a2be 6c74 0e40
000001e0: e196 6dbf 93df 733f 468e 383e 1935 6640
000001f0: 4f0e 04bf 340d 903f 3d85 233f 99b7 24bf
00000200: d2b5 b6bf aa3b 2240 21f2 ea3f e945 5e3f
00000210: 06b4 e33e 70d3 df3f 68a8 4140 2daa 35bf
00000220: 224a 7a3f 5593 a53f d4e6 5c3f f305 1d40
00000230: 3eae 2040 4616 1bbf a821 a9bf 80d0 ce3f
00000240: 8c8a ec3f b5d3 2140 d306 d33f bdf3 6040
00000250: ecbe 183f 71a7 833f 4831 e23f 8822 ef3f
00000260: ff14 853f 2ab0 ad3e 8165 1640 5190 8cbf
00000270: 6a20 1f40 75bb c13f 5518 b7bf 2bfd edbe
00000280: b4be 89bf 8c35 df3f 9ee4 03be 926b f33f
00000290: 750d 1240 9f56 91bc d23f b03e 5774 dc3f
000002a0: 42fa 923f 3a9c b43f f212 0340 b23b 6e3f
000002b0: f22e 2540 7cdf ad3f 1059 d13f 20b9 0a40
000002c0: 26c0 f83f 343b 333f 120d 453f e084 f43f
000002d0: 49fd 9e3f a505 0940 d735 4c3f ecae 573e
000002e0: c531 ac3f 0cd4 0b40 e43f b73f f9c0 f13f
000002f0: cb10 6d3f c888 e83b 07f8 e43e 48e2 d73f
00000300: 067c 223f 19eb ce3f e0c3 7c3f f740 f33f
00000310: 6f66 b53f 6519 1440 07d1 be3f b1c8 17bf
00000320: ed25 0d40 4fd3 2dbe 80ad c03f 94be 2b3f
00000330: f270 1f40 0ce6 f73f 0e8c 2dbf 9bf5 8a3f
00000340: 46b9 d13f 230e 983f 06bc 1440 9402 ff3e
00000350: 7edf 2640 7f0d 813f 1ea3 f13f 554f 4640
00000360: 57b4 dc3f 1f95 1540 ffd0 f03f 225d ac3e
00000370: c07d 4140 58ad cb3f abe9 de3f 7d9f 0340
00000380: 12f2 a83f eaa8 723f 31b5 b2be 1202 9c3f
00000390: f6dc d63e eff3 0d40 644c f93f 234b 0840
000003a0: 65c7 0740 188b c73e b6b1 d53f 62fe 4abd
000003b0: af1f 9b3f 2b97 0cbe 68b3 2cbe da86 3d3e
000003c0: f986 1b3f cacf 903f 6d21 1540 997f 1c3f
000003d0: 6343 bf3f 6d3d 843e 7149 f33f 92a8 873f
000003e0: b4d2 1a40 dad1 503f 477f 3d40 b48a e63f
000003f0: 0a7c 4a3f a91d 6c3f e1a8 0440 36d7 893d
-1.3664712 1.5824229 0.28076193 2.1948981 -0.37822187 0.5769582 0.25154066 -0.610713
0.9198802 -0.55964434 -2.5679195 0.12218185 0.7229381 0.12324316 1.9681107 -0.3466225
0.19271134 1.4691724 -0.88356495 -0.057521395 0.91704136 -0.8126646 0.21455425 -0.3297643
0.7716991 3.0141816 -0.9222677 0.6074584 -0.28405422 -1.4532384 -0.11511352 0.13510062
0.64984244 -0.042633478 0.0022769435 0.65538305 1.3570083 0.4039896 0.044259436 -0.36864838
-0.28958592 1.8853307 1.4074244 1.7152779 -0.40522823 0.12557836 0.9094095 2.1838987
0.9891638 1.1933331 -0.7853283 1.2131695 0.13599756 1.2556629 1.3529546 -0.44290197
0.38386688 -0.33625597 0.64084697 0.024716629 0.27766544 -0.7178836 1.8927997 0.43568006
0.3214437 1.5004373 -1.836266 0.44904605 0.57094806 1.4464308 2.0528176 0.70911026
2.0259917 -0.2469152 0.9121383 0.58459926 1.0973097 -1.2324613 0.63049245 0.71687853
1.4759862 -0.42758527 1.9315865 -0.31838065 1.6889535 0.2441816 -0.43069968 1.6849415
-0.27452788 -0.36548653 1.3809855 -0.5337055 -0.25655502 -0.6434791 0.27905536 2.197137
-1.0280623 0.61356163 -1.7463572 0.30673298 0.36336598 0.25488877 -0.3624002 -0.4426829
1.2858604 2.292353 0.17708421 0.60792494 2.1663141 -1.7539204 1.5372497 -1.5525638
-0.18937825 1.015112 -0.37180728 0.19211066 2.0590184 0.33062798 -0.31671673 2.2258558
-0.9280835 0.9526302 0.18023023 3.5969908 -0.51584333 1.1254029 0.6387518 -0.6434265
-1.4274237 2.5348916 1.8355142 0.86825424 0.44473284 1.7486401 3.0259037 -0.7096279
0.9776937 1.2935587 0.86289716 2.453488 2.510635 -0.6058086 -1.3213396 1.6157379
1.8479781 2.5285466 1.6486458 3.5148766 0.59666324 1.0285474 1.767129 1.8682413
1.0397032 0.33923465 2.3499453 -1.0981542 2.4863534 1.5135332 -1.43043 -0.46482214
-1.0761323 1.7438216 -0.1288018 1.9017203 2.2820714 -0.0177415 0.3442369 1.7223004
1.1482623 1.4110177 2.0480313 0.9305984 2.5809903 1.3583827 1.6355305 2.1675491
1.9433639 0.7001221 0.7697307 1.910305 1.2421046 2.1409695 0.79769653 0.21062821
1.3452688 2.1848173 1.4316373 1.8887016 0.9260375 0.0070963837 0.4472048 1.686593
0.63470495 1.6165496 0.9873638 1.9004201 1.4171885 2.31405 1.490754 -0.59290606
2.2054398 -0.16975139 1.5052948 0.67087674 2.4912686 1.936708 -0.6779183 1.0856203
1.6384666 1.1879314 2.323976 0.49806654 2.6073909 1.0082244 1.8877904 3.098592
1.7242535 2.3372266 1.881378 0.33664805 3.0233002 1.5912275 1.741506 2.0566094
1.3198874 0.9478899 -0.34903863 1.2188132 0.41965455 2.2180135 1.9476438 2.129586
2.121545 0.38973308 1.6694858 -0.049559005 1.2119044 -0.13729541 -0.16865313 0.18508473
0.60752827 1.1313412 2.3301651 0.611322 1.494244 0.25828114 1.9006788 1.0598319
2.4191103 0.8157021 2.9608934 1.8011079 0.7909552 0.9223276 2.0728076 0.06730501

transformer_encoder.layers.0.linear2.bias f4 [64]
00000000: da15 88bd ed19 b93f 55fb d13e c02d 2f3f
00000010: e2b1 d4bf ac31 dfbf 4b16 13bf 08c5 5dbe
00000020: 1e7e 233f 69ca b7bf 4584 073f 2e9d 4bbd
00000030: 14b5 8dbc 3159 62bf 290e c43e 611d e83d
00000040: 8302 0ebf cf53 76bf 9d33 0b3f aa6c 30bf
00000050: 546e edbe 4594 bf3c d21b 883d 8a51 22be
00000060: c821 1cbf 5260 c3be baa1 4ebd 7811 50bf
00000070: 167b 083d c9bb e6be f867 c4be 86a9 3fbd
00000080: 4dac 1c3f 061b 63bf af82 3e3d f942 843f
00000090: 976b 8abe c517 a0bd 8654 0f3f 4c2e 8fbe
000000a0: ace7 b13f f00e 80bf d3da 943f 4ba5 8d3f
000000b0: 96a9 fd3e 3f66 76be dd2f 05be 0fa2 64bd
000000c0: e6f1 853d 335e ec3c c971 8ebf b965 92be
000000d0: 8dff ef3e b78e 1dbf 95ba 303e a427 d33f
000000e0: d1fe b0be 173d a33f f1cd a03f f5f9 903e
000000f0: 46bf 9bbe fe42 763f fa66 963e d03e be3e
-0.06644793 1.4461037 0.41012064 0.68429184 -1.6616786 -1.7437034 -0.5745589 -0.21657193
0.63864315 -1.4358646 0.529362 -0.049710445 -0.017298259 -0.88417345 0.38292053 0.113337286
-0.5547258 -0.9622163 0.5437563 -0.6891581 -0.46373236 0.02338613 0.06645931 -0.15851417
-0.60989046 -0.38159424 -0.050447203 -0.81276655 0.03332051 -0.45065144 -0.38360572 -0.04679253
0.6120041 -0.8871311 0.04651135 1.0332938 -0.2703521 -0.07817034 0.5598835 -0.2796501
1.3898826 -1.0004559 1.162928 1.1066068 0.49543446 -0.24062441 -0.1300654 -0.055818614
0.06540279 0.028853511 -1.1128474 -0.28593233 0.46874657 -0.6154589 0.17258675 1.6496472
-0.3456941 1.2753018 1.2562848 0.28315702 -0.30419368 0.9619597 0.2937544 0.37157297

transformer_encoder.layers.0.norm1.weight f4 [64]
00000000: 2c0f 4340 61a9 4b40 24ff e73f aa1f ea3f
00000010: c46c 1240 550a a83f 3fcc 0840 03ce ab3f
00000020: ebff a83f a8e9 b23f cc4f ca3f 8669 ac3f
00000030: 6ca8 0f40 070a ea3f 3cbc 4640 b6f5 2040
00000040: acf3 0340 6a15 0740 ce51 2b40 3ec3 ff3f
00000050: 3abe 963f 80e5 1140 cdf4 0040 194b cb3f
00000060: de61 5a40 cd17 2140 bc8f 903f fa4f a43f
00000070: bc60 ac3f e947 653f a7d2 983f c87f e13f
00000080: 8f9f 913f 5752 f63f 55cb 2e3f d55d b73f
00000090: 250e 543f 4ebc 913f 7539 493f 9ca3 cc3f
000000a0: a944 6f3f 11ad 0d3f ab98 653e d06c 9b3f
000000b0: d5b6 eb3e 47f0 cb3f 59bf 093f 2afc c63f
000000c0: 975f 293c 9b64 3f3f e1ad b33e 1305 e33f
000000d0: f93a 813f 631b 203f 6f24 973e 0179 823f
000000e0: 48c2 b43e 0a1a d03f 26fe 623f 3e85 903f
000000f0: 3876 0540 333e d53f 3f10 993d 42e8 973f
3.047801 3.182213 1.8124738 1.8290913 2.2878885 1.3128153 2.1374662 1.3422245
1.32031 1.3977556 1.5805602 1.3469703 2.2446547 1.828431 3.105239 2.514997
2.0617476 2.110682 2.676868 1.9981458 1.1776803 2.2796326 2.0149415 1.5882293
3.4122233 2.5170777 1.1293864 1.2836907 1.3467021 0.8956285 1.1939286 1.7617121
1.1376818 1.9243878 0.6827901 1.432551 0.8283408 1.1385591 0.786033 1.598743
0.9346414 0.55342203 0.2242152 1.2142582 0.46037927 1.5932702 0.538076 1.5545704
0.010337732 0.74762887 0.35093597 1.7735924 1.0096122 0.6254179 0.29519984 1.0193177
0.35304475 1.6257946 0.8866905 1.1290662 2.0853405 1.6659607 0.07473802 1.1867754

transformer_encoder.layers.0.norm1.bias f4 [64]
00000000: a40d 12bf 15f1 d73e 6322 12bf b60a ccbe
00000010: 0589 cb3a f87d ebbb fc5a 84be 8a91 70be
00000020: a384 823e f798 8dbd 6bd5 6fbd 8e41 aebe
00000030: e437 d4be 5418 5b3e f618 bcbe 8724 a43d
00000040: d9d2 a73c 8d60 7dbe a28a 8cbe a96e 9abd
00000050: 1714 b13e 0f76 c8bd 8f4c 973e 44a2 c4be
00000060: c113 783e 1555 673e 3e34 37be 76d4 8f3c
00000070: 73ee 693e e528 033d 1b86 0abf 247d 863e
00000080: a2fc afbd ab43 00bd 7383 37be 1324 99be
00000090: e7d4 99be 4959 733e 65d4 febd 9f4c 17bf
000000a0: 5f51 5cbe b576 43bf 9da9 5ebe 8f0d ecbe
000000b0: 228c ae3e dc4b 6cbe 81ef ae3e fa41 fabe
000000c0: 6bdc 023f 363b bc3d 30bf 983d 9efa 08bf
000000d0: 5d8b b73e 13fc d13d cbb3 98be b216 93bc
000000e0: 03b4 ff3c 7fc2 b6be c797 a7be ea25 a23e
000000f0: fe0d 3e3f ab9f 92be 45a8 073f d8a2 29bf
-0.57052064 0.42176118 -0.5708372 -0.39851922 0.0015528506 -0.0071866475 -0.25850666 -0.23493019
0.2549182 -0.06913941 -0.05855314 -0.3403439 -0.4144889 0.21395999 -0.36737794 0.080147795
0.020486282 -0.24743862 -0.27449518 -0.07540638 0.3458564 -0.09788143 0.29550597 -0.3840505
0.24226286 0.2259105 -0.17891023 0.017557364 0.22844867 0.032021422 -0.5411088 0.2626735
-0.08593108 -0.031314533 -0.17921238 -0.29910335 -0.30045244 0.23764528 -0.12442855 -0.5910129
-0.21515416 -0.7635301 -0.2174439 -0.46104094 0.34091288 -0.23075813 0.34167102 -0.4887846
0.5111758 0.09190981 0.07458341 -0.5350741 0.35848513 0.102531575 -0.2982467 -0.017955158
0.031213766 -0.35695264 -0.32732984 0.3166955 0.742401 -0.28637442 0.52991134 -0.66264105

transformer_encoder.layers.0.norm2.weight f4 [64]
00000000: 9af5 f03f e42d 0740 f507 3440 fa5c c23f
00000010: 089b df3f e4bf 303f 3059 0340 fc4b f53f
00000020: b28a d73e 7524 873f 459e fbbe 6113 cd3f
00000030: 21a5 3840 88b8 8b3f 2a26 d33f 1744 2f3f
00000040: 1363 2440 3bce 0b40 0b01 973f a1e8 bc3f
00000050: d46b 1540 bfea 733f 375c de3f e7e5 af3f
00000060: 5b7e 443f 8961 bf3f 234b ba3f 5f1a a33f
00000070: c1be 0740 2b12 1d40 bf83 1840 da99 d23f
00000080: bcaf a83f 8b73 3e40 53ca 1040 450b 6d3f
00000090: 5ecd 0640 f7b4 0b40 56af 0240 69e7 1e40
000000a0: 49f5 1440 b7b6 943f 0466 fb3f 598b 6c40
000000b0: b4e3 af3f 2395 9d3f 3dd3 b63f 0ea9 633f
000000c0: 69bc 0740 3475 e93e c1c3 cc3f e91e 8d3f
000000d0: a07d a83f d3ab d93f e944 6b40 c77e 1040
000000e0: 270a 9d3f ccd1 a83f 7a58 693f 646b 4c40
000000f0: b0bf 1840 3395 873f 48b3 cd3f 2c95 2840
1.8824952 2.112176 2.8129857 1.5184624 1.7469187 0.690428 2.0523186 1.9163814
0.42098004 1.0558001 -0.49144188 1.6021539 2.8850787 1.091569 1.6496022 0.6846327
2.568547 2.1844623 1.1797193 1.4758493 2.3347063 0.9528007 1.7371892 1.3742036
0.76755303 1.495164 1.455418 1.2742423 2.1210177 2.454234 2.3830411 1.6453202
1.317863 2.9758022 2.262349 0.9259532 2.1062846 2.1829202 2.0419517 2.4828742
2.327471 1.161826 1.9640508 3.696005 1.3741364 1.2311138 1.4283215 0.8892983
2.1208746 0.4559723 1.5997239 1.1025058 1.3163338 1.7005562 3.676081 2.2577379
1.2268723 1.3189025 0.9115063 3.1940546 2.3866997 1.0592407 1.6070337 2.6341047

transformer_encoder.layers.0.norm2.bias f4 [64]
00000000: 6dea d6be 27e2 b1be 4bcf a4bc b602 c8be
00000010: bd8a 00bc 1919 dabe 5d2a 10be f2ff cc3d
00000020: c1d3 68be 57cc dcbe ffa2 06bf a37f 1abe
00000030: f0f3 0c3e 8043 2dbe 2830 b7bd 8146 94be
00000040: d78c 14be 0bbe 073d 2e42 8b3e b474 7f3e
00000050: 18a1 4b3e 576a fc3d 2050 93be 22e6 9a3e
00000060: c76d 71be 6a30 693f 58c9 283f e099 7cbe
00000070: efb1 673e ecda 043f e651 56bf cced a5be
00000080: 76fa b4be 2168 343f 9281 3e3e f45b 90be
00000090: a6d9 92bf 7aa5 d2bd 5763 613e 820b 35bf
000000a0: af44 cbbe a70e 85be 9f34 ed3e 8308 d0be
000000b0: 80a6 ecbe b225 453f 60b5 bf3e 211f 6cbc
000000c0: 8fc4 8e3e ebcd 42bd a1ec a0be 2e86 a23e
000000d0: 9a81 a2be e392 eebd 4ec5 f7bc 496a 53be
000000e0: c105 d2be 41f1 62bf b5b9 423d 7580 d43e
000000f0: eef0 00bf b0fb babd bad0 933d f3e0 b4be
-0.41975728 -0.34742853 -0.020118376 -0.39064568 -0.007845578 -0.42597273 -0.1407866 0.10009755
-0.22737028 -0.4312465 -0.5259246 -0.15087752 0.1376493 -0.1692028 -0.08944732 -0.2896004
-0.14506851 0.033140223 0.2719893 0.24946862 0.19885671 0.1232497 -0.28772068 0.30253702
-0.23577033 0.910895 0.65932226 -0.24668074 0.2262647 0.5189655 -0.8371872 -0.32407987
-0.35347337 0.7047139 0.18604115 -0.28195155 -1.1472671 -0.102854684 0.22010551 -0.70720685
-0.3970084 -0.2598774 0.4632921 -0.40631494 -0.4622078 0.77010643 0.37443066 -0.014411719
0.27884337 -0.04755966 -0.31430534 0.31742996 -0.31739503 -0.1164911 -0.03024545 -0.20646013
-0.41020015 -0.88649374 0.047540385 0.41504255 -0.5036763 -0.09130037 0.07217546 -0.35327873
