transformer/results/t12_r4_i110_n2_h64_e1_l0.005/model.pth (torch, 319223 bytes, 32 tensors)

embedding.weight f4 [64, 5]
00000000: f2bf 953e 24ec ec3e adec 37be 708d e23e
00000010: d77b 0cbf f869 a3be a44e e93e b1fc 163e
00000020: 8506 c0be d8c9 b0be b47c 653e b6f6 253e
00000030: 0406 493e ebcf cdbe 0401 873e 4381 0f3e
00000040: 68af d8be f793 853e 6fad 903e 54c0 923d
00000050: 067b bebe 6a8f a83e 6bbb 8ebe c6ba 9fbe
00000060: 5ddf c1be 48ba 803e e4af c6be d13a aebe
00000070: 9a08 94be 1a0e c0bd bc11 c33e c6a6 82bd
00000080: bde5 563e f93d b1be 4de1 f7be 0a03 19be
00000090: 57ec df3e 84d9 eb3e bc1f 3cbe 1b11 993c
000000a0: 509f a43d b330 a3be f558 e53e 9c46 623e
000000b0: 3dc3 9fbe 0d3b 943e a674 823e 50a7 ecbd
000000c0: 953b a5be f188 903d d0e1 093e 818e 15be
000000d0: 23e4 b6bc 5c96 d9bd 9e33 3e3e a6d2 45bd
000000e0: b43f 92be 43fc cb3d 1f16 f5bd 581c c83e
000000f0: 6ed1 9dbd 41cd 04be 7dfa 58be 0bc0 873e
00000100: 0af3 ad3e 9a81 acbe 84be f0be 9642 553e
00000110: 541d 763d 4958 283d e07c 563d 947a 7c3e
00000120: c38a 54be 63e3 8c3e 7303 c43d bae1 953e
00000130: 5f1a 0b3d 93c5 dfbd 5462 cd3b 8617 80be
00000140: d016 d83e 19ba 1f3e bf42 373e 2565 a23e
00000150: 3690 083e c9e0 d43e 4b83 053d 6712 293e
00000160: 0db4 8dbd 539c f0be 8d5e d03e 3abc ad3e
00000170: 63ae 513e c88b 59be 4f7e 1cbf 8e9c ecbe
00000180: 5094 a83e ebe7 9fbd ea50 a83e e0ef 013f
00000190: 2d0c 0cbe 7d13 793e eec7 333d 884d 5b3e
000001a0: 5697 d7be 32ea d5be d074 843e 6c07 82be
000001b0: 0a8c ee3d be97 15be 5b47 c1be 8b02 38be
000001c0: 4c63 9cbd b4a5 b5be b787 f23b d954 c7bd
000001d0: 65e6 ecbe bbec 973e 2966 b23d 4b20 54bd
000001e0: 7123 d33c 11be f73e 2d70 a3be d5d9 363e
000001f0: 4ae1 79be 2e39 7fbe 0ad4 ee3e 24eb 853c
00000200: fc30 2fbc ccff 0b3e 5ac3 a9be 0014 663e
00000210: d8e8 e83e 0a96 a3bb 62d3 013f a767 693c
00000220: 3339 313d bac1 713e 7e86 b8be 7bdd af3e
00000230: 1f65 3b3e 52e0 ffbe df7c 163e ed8d 15be
00000240: 816b 133f d552 c2be 0b1e 8c3c 6f44 793e
00000250: a99a 96be 3576 03be eec4 58be b2e1 98be
00000260: 11c2 8e3e 6bfa 3fbe f89a 2d3e 34ae a6be
00000270: 7fff 763e 259c d43d 1444 313e bee3 2bbe
00000280: 1802 773e 87c6 0a3d 984a dfbd b9d1 9fbd
00000290: 01b0 cfbe fdde bfbc 0514 d73d a823 d03e
000002a0: 9892 bf3e d6f8 1fbf 4842 3ebc 92cc 62be
000002b0: e033 9c3e bb4e 68be 48d8 07bf 982b acbd
000002c0: fa27 47bc 44d8 1b3c c092 52be 0abc 85be
000002d0: 2929 a83d 87ff d93e 2755 53be b10f 303e
000002e0: f9bd 6ebe 8191 b6bb 1e66 933c cd67 883d
000002f0: 0e75 193e 553f eabe c8cf 953e c6e5 c83d
00000300: 5fdc d4be 5354 a4be 1ef3 f53e b2f1 09bf
00000310: 84a3 82be e96c e13d 1ae2 8a3e c245 a23e
00000320: 9880 463e 877e e1be e2b5 f43d ab1f c6be
00000330: b82e b7be 9d71 6f3e 2bee 04bf 0a71 d5bd
00000340: 9d8b 433e fe05 353e 327a 7fbe aa5f ca3d
00000350: ea42 1dbe 4672 c23e 9a23 953e c281 9f3e
00000360: b2ae 28bd bccc a4bd f5fc 383e 7987 e83e
00000370: 90a8 ab3e 9288 f9be ad8d 4c3e b1f9 a1be
00000380: 191d ab3e de49 203d 38a1 313d fa4d ca3e
00000390: 9c73 c03e a477 f3bd 2681 c6bd 9fc1 00bf
000003a0: 8eca 0fbe c4f8 8fbe 92d5 69bd d73d 3fbe
000003b0: f04f 8dbc 3584 a2be 9761 793d 7a4f a63e
000003c0: 8df2 87be 248e c0be 3bb0 243e cee6 b23d
000003d0: 5411 79bd 101f c0be 154e 0cbe 6832 1f3e
000003e0: e131 af3e 0bc5 683d d57b bebe 0ff6 bb3d
000003f0: b47c b23e e36e 7fbd e2be 9bbd 747c 7cbe
0.29248005 0.4627391 -0.17961378 0.44248533 -0.54876465 -0.31916785 0.4556781 0.14744832
-0.37504974 -0.34528995 0.22410852 0.16207394 0.19631201 -0.4019769 0.26367962 0.14014153
-0.42321324 0.2608945 0.2825732 0.0716559 -0.37203234 0.32921916 -0.27877364 -0.31197184
-0.37865725 0.2514212 -0.3880607 -0.34029248 -0.28912812 -0.0937769 0.38099468 -0.06379466
0.20986076 -0.34617594 -0.48414078 -0.14942566 0.43735 0.4606439 -0.1837148 0.018684914
0.08038199 -0.31873092 0.4479443 0.22097248 -0.31203642 0.28951302 0.2547962 -0.1155535
-0.3227202 0.070573695 0.13465047 -0.14605142 -0.022325581 -0.10624382 0.18574378 -0.048296593
-0.28564227 0.099602245 -0.1196711 0.39084125 -0.07705961 -0.12968923 -0.21189304 0.26513705
0.33974487 -0.33692628 -0.47020352 0.20826182 0.060086563 0.04109982 0.052365184 0.24656135
-0.20756058 0.27517232 0.095709704 0.29273778 0.033960696 -0.10926356 0.006267825 -0.25017947
0.42204905 0.15598334 0.17896555 0.31717792 0.13336262 0.41577747 0.032595914 0.16510926
-0.069191076 -0.46994266 0.40697137 0.33932668 0.2047668 -0.21244729 -0.6113023 -0.46213192
0.32925653 -0.07807907 0.32874233 0.50756645 -0.1367652 0.2432384 0.04389184 0.21416295
-0.42107648 -0.4178024 0.2587037 -0.25396287 0.11647804 -0.14608666 -0.37749752 -0.1796972
-0.07636127 -0.35477984 0.0074014324 -0.0973298 -0.46269527 0.296728 0.08710892 -0.05178861
0.025773736 0.48387197 -0.3192152 0.17856534 -0.24402347 -0.24924156 0.46646148 0.016347475
-0.010692831 0.13671798 -0.33156854 0.22468567 0.45490146 -0.0049922513 0.5071317 0.014245904
0.04326744 0.23609057 -0.3604011 0.34348664 0.18300293 -0.4997583 0.14696072 -0.14604922
0.5758591 -0.3795382 0.01710417 0.24342512 -0.2941487 -0.12838061 -0.21168873 -0.29859692
0.27882436 -0.1874787 0.16953647 -0.3255478 0.24120902 0.10381345 0.17311126 -0.16786095
0.24121892 0.033880737 -0.109028995 -0.07803673 -0.40563968 -0.023421759 0.10501865 0.40652204
0.3741653 -0.6248907 -0.011612482 -0.2214835 0.30508327 -0.22686283 -0.53064394 -0.08406752
-0.012155527 0.009512011 -0.20563793 -0.26120025 0.08210976 0.42577764 -0.20637952 0.17193486
-0.23314656 -0.0055715446 0.01799303 0.066604234 0.14986059 -0.45751444 0.29260087 0.09809451
-0.4157438 -0.32095584 0.48037046 -0.5388442 -0.25515378 0.11007101 0.27125627 0.31693846
0.19384992 -0.44041845 0.11948754 -0.38696036 -0.3577783 0.23383184 -0.51925915 -0.10421951
0.19096227 0.17678067 -0.24948958 0.09881528 -0.15357557 0.3797781 0.29128724 0.31153685
-0.041182227 -0.080468625 0.18065245 0.45415857 0.3352704 -0.48737007 0.1997592 -0.31635812
0.33420637 0.039132945 0.04336664 0.39512616 0.37588203 -0.11888054 -0.09692602 -0.5029544
-0.14042112 -0.2811948 -0.057088442 -0.18675934 -0.017250031 -0.3174149 0.060884085 0.3248251
-0.2655224 -0.37608445 0.16082852 0.08735429 -0.06080754 -0.375237 -0.13701661 0.15546572
0.34217742 0.05682854 -0.3720385 0.09177791 0.34860766 -0.06236161 -0.076047674 -0.2465685

embedding.bias f4 [64]
00000000: b416 3dbd d706 d4be 3821 1cbd f5e4 e5be
00000010: f5c2 e83e 810e c5be 430f 7ebe 138f 003e
00000020: dc74 b2be cdd6 39be 6463 bdbe 2b5d c9be
00000030: d188 f83d 2da5 053d 0436 8bbe 6775 b7be
00000040: 18e3 a0be d988 bbbd 2139 2c3e 5a04 1abd
00000050: c7c7 d13e 5b1e 2f3d 2495 a73b 38eb 7fbe
00000060: f814 e23c 6193 813e 8ca1 cc3e b6b2 99be
00000070: 0178 cf3e c89e bebd b33a d7be 3a1c 96be
00000080: 0073 86be 6261 9d3d 60d5 823e 1853 d4bc
00000090: 6409 ccbe f3a0 a9bd 7cc6 a03d b238 863e
000000a0: 4af8 f13c 757d f6be f14e 3d3d 0667 66be
000000b0: ce6c 5f3e 1cfc 833e f032 cbbd 6123 823e
000000c0: 9846 933e f000 acbe aa45 f3bb 8125 9dbe
000000d0: ba6e 373e 2197 ddbc 43ad b8bd 263f 5c3e
000000e0: a30e 8fbe e704 cdbd 55ba a2be ab67 e23e
000000f0: 41e2 e53e 2935 afbd 61fd df3d dffa bdbe
-0.04616423 -0.41411468 -0.038117617 -0.44901243 0.4546124 -0.38487628 -0.2481051 0.12554578
-0.34854782 -0.18148346 -0.36989892 -0.39328894 0.12135471 0.032628227 -0.27189648 -0.35831758
-0.3142326 -0.09156961 0.16818668 -0.037601806 0.4097273 0.04275356 0.0051142145 -0.24992073
0.02759789 0.25307754 0.39967 -0.30019158 0.40521243 -0.09307629 -0.4203697 -0.2931841
-0.26259613 0.0768459 0.25553417 -0.025918528 -0.39850914 -0.08282652 0.07850358 0.2621513
0.029537339 -0.4814259 0.046217863 -0.22500238 0.2181885 0.25778282 -0.09921825 0.25417617
0.28764796 -0.33594465 -0.007424076 -0.30692676 0.17913333 -0.027049603 -0.09017422 0.21508464
-0.27940854 -0.10010701 -0.31782785 0.44219717 0.4489918 -0.08555061 0.10937 -0.37105462

transformer_encoder.layers.0.self_attn.in_proj_weight f4 [192, 64]
00000000: f200 8b3e 9224 2dbe e525 91bd 64c4 2fbe
00000010: 5c23 043c a26b 10be 404e df3d 30df 2c3e
00000020: 6440 713d 75aa e6bd 0aac dcbb 8c8f 813d
00000030: 00e6 04be c1ba 4abe 6c0a b03c f725 32bd
00000040: 1283 b73c ce5b cbbd ae8b da3d ee22 023d
00000050: 46cc 563e 49ae 323d c012 aabd f370 7bbd
00000060: 3306 1abd 21c6 e83d 5fde b03d 3754 37be
00000070: 9b12 0abe 1460 d0bd 0ccb 91bd edde 113e
00000080: 19ce 3f3d 654d a13d c103 0e3d 7f6c 543c
00000090: e58e 6e3d b051 47bd 54c3 45bd 85e1 d63a
000000a0: 5d65 4dbe 48b0 bebd b8f5 31be 5b26 e73d
000000b0: fbd3 f2bd b617 b23d c436 80bd 4e9b 093e
000000c0: 89d7 83bd 866b 363e b5ff 3dbd 64f5 873d
000000d0: 61f4 2b3e 2b34 213e 77bf f43c f5e9 a23c
000000e0: 8616 82bd 96ef 9bbc f29a af3d 47e5 1a3e
000000f0: 5e49 343e cfef a2be ef8b 31be bcc0 eb3b
00000100: b7ef 4a3d d154 b1bc 7f16 24be 68f2 18bd
00000110: 513c 2abe cc2e 43be e574 853d 241a dcbd
00000120: 9d27 07be f00b 39be 350b cc3d c428 c1bd
00000130: b055 e4bd 2b46 abbc 264e e9bd 8e99 af3d
00000140: 0fa2 86bd 2077 53bc 2898 463d f455 d63d
00000150: a219 223d b2cc b3bd af30 3dbe ba23 b2bc
00000160: 6bd9 bbbd fc88 67ba bc4b 973d b31c 9f3d
00000170: 3f85 473e 1ff5 69bd bf71 85bd a809 25be
00000180: 0095 803d cb9c fb3d e0b0 eabc 70b6 003d
00000190: 0ec3 023d e589 803d ac17 fbbd 2758 f63d
000001a0: c4bd 7abc c844 aabd 6acb f83d 7be5 343e
000001b0: e268 1dbe 1f2f 273d 682a 29bc d0a7 c4bd
000001c0: e676 26be 2244 bb3d d36d e0bd 7eb4 f1bd
000001d0: 1e41 f2bd bfc2 113e 2bd8 12be 0599 bebd
000001e0: cac4 e43d b715 d83d e0ff 973d 6749 2a3e
000001f0: 6e32 3b3d 0987 df3d 912a b1bc 9e9a 1e3e
00000200: 340e d93d 5776 aa3c 1905 6e3d 4f56 29be
00000210: 3966 8abd d229 383d d5a2 75bc e558 69bd
00000220: a709 fe3d a0de b73d d8ab eebd 516e 26bd
00000230: 364c 823a 9e9f 80bd 7790 88bd 1bb1 b23a
00000240: 2a5f cb3c ce67 bfbd 87c3 e7bd d6fc f1bc
00000250: 629d 193e bc4f f63c b851 e53d c46c 053e
00000260: ec19 8c3d dcca a0bd 4ff7 dabd dfa9 a73d
00000270: 4178 4bbd 1aca 1f3e 9d40 1dbe bcd5 0bbe
00000280: d177 f13d 19c7 173e 5226 2abe 3928 a9bd
00000290: 73bf e43c 6bfe 9a3d db15 313d bc2c 0c3d
000002a0: 8979 113e 64ab 83bd db52 f0bd 929f 4dbd
000002b0: 2412 033e 3a1c 13bc 1ced d83d 7dea 5b3d
000002c0: 73b9 a03c c0bf fa3b 55ed 2cbc ab73 59bd
000002d0: 1f23 7a3d eb5c 00be 54ab 7b3d dfb7 1cbe
000002e0: d23b 3abd 3aab 843d 4e86 1d3e 99d5 ef3d
000002f0: de38 cf3d aad1 ec3d 688a 043d 29e4 f4bd
00000300: 34fe 96be 6a63 3a3e fcfa db3d bb91 733e
00000310: 5e2d b33c 6712 50bd eff2 1d3e 3d07 8fbe
00000320: 122f cf3d 98e2 843c 5e9f f53d b226 71bc
00000330: fb62 513e 780f 293e 4834 073e 9964 ccbd
00000340: 7ef2 4ebe dc02 65bd 0e9b 8ebd b5f3 30be
00000350: ccca 63bd cafe 6e3d 37c8 aabc 6760 223e
00000360: 407b 5fbe cbeb 0ebc c37f ecbd b478 423e
00000370: 20b7 e8bc f2f7 1b3e 4b6e 273e 317a 05be
00000380: 3793 fbbd 255e 2e3d 6b84 34be 9a3f 2abe
00000390: 9c7f d0bc 5d9a 3e3d 47b1 123e 00b6 a4bd
000003a0: 9066 973d 7a47 cabd 708e bebd 9618 473d
000003b0: 6124 9e3d 9307 52be 8390 30bd dea9 7f3c
000003c0: b4bc 303e c46e 29bb 41c7 413e d2a0 5abe
000003d0: 2b74 30be b836 4ebe 904d 2a3e 07a2 9a3d
000003e0: 9e7a 903e 3688 dbbc 5042 c2bd 3913 e3bd
000003f0: 828a 593c abf8 193d 97b9 72bc 4d1e 5d3d
0.2714916 -0.16908482 -0.07087306 -0.17164761 0.008065071 -0.14103559 0.10903597 0.16882014
0.0588993 -0.11262981 -0.006734376 0.063262075 -0.12978363 -0.19797803 0.021489345 -0.043493237
0.022401366 -0.0992962 0.10671173 0.031771593 0.20976362 0.043623243 -0.083043575 -0.061387014
-0.03760357 0.11365915 0.08636164 -0.17903219 -0.1348366 -0.101745754 -0.07118806 0.14245196
0.04682741 0.0787609 0.03467155 0.012965321 0.058241744 -0.048661888 -0.048281983 0.0016394114
-0.20058198 -0.09310967 -0.1737889 0.112866126 -0.11856838 0.08695929 -0.06260446 0.1343815
-0.064375944 0.17814454 -0.04638644 0.066386014 0.16792442 0.15742557 0.029876454 0.01988695
-0.06351952 -0.019035142 0.08574475 0.15126525 0.17606112 -0.31823584 -0.17338537 0.0071946066
0.049545016 -0.021646889 -0.16024207 -0.03734055 -0.16624571 -0.1906082 0.065164365 -0.107471734
-0.13198705 -0.1807096 0.09963075 -0.094316036 -0.11149156 -0.020907482 -0.11391859 0.0857421
-0.06573879 -0.01290682 0.04848495 0.10465613 0.039575227 -0.08779277 -0.18475603 -0.021745551
-0.091723286 -0.0008832363 0.07387492 0.07769146 0.19484423 -0.05711853 -0.06515836 -0.16116965
0.062784195 0.12285765 -0.028648794 0.031423986 0.0319243 0.06276301 -0.122603744 0.120285325
-0.015304033 -0.083139 0.12148173 0.17665665 -0.15372041 0.040816423 -0.010325052 -0.0960232
-0.16256294 0.09143855 -0.10958447 -0.11802004 -0.11828826 0.14234446 -0.14340274 -0.0930653
0.11170347 0.10551017 0.07421851 0.16629563 0.04570239 0.10914428 -0.021626743 0.1548867
0.10598412 0.020808382 0.05811033 -0.1653683 -0.06757779 0.044961758 -0.014992435 -0.056969542
0.12404185 0.08978009 -0.1165387 -0.04063255 0.0009940926 -0.062804446 -0.066681795 0.0013633104
0.024825651 -0.09345971 -0.11316591 -0.029539507 0.15001443 0.030067317 0.11197227 0.13029772
0.06840882 -0.07851192 -0.106917016 0.08186697 -0.04967523 0.1560444 -0.1535668 -0.13655752
0.11790431 0.14822043 -0.1661618 -0.08259625 0.027923321 0.075680576 0.043233734 0.03422235
0.14206518 -0.064291745 -0.117345534 -0.050201006 0.12799889 -0.008978898 0.105921 0.053690422
0.01961968 0.007652253 -0.010554631 -0.053088825 0.06106865 -0.12535445 0.061442688 -0.15304516
-0.045467205 0.064779714 0.15383264 0.117106624 0.101182684 0.11563428 0.032358557 -0.119575806
-0.29490817 0.18201986 0.10741231 0.2378606 0.021872219 -0.0507988 0.15424703 -0.2793521
0.101164 0.01622133 0.119932875 -0.014718698 0.20447914 0.16509807 0.13203537 -0.09980125
-0.20209691 -0.05591093 -0.06963168 -0.17280467 -0.055613324 0.058348455 -0.020847423 0.15857087
-0.2182436 -0.00872321 -0.11547806 0.18991357 -0.028407633 0.15231302 0.16350667 -0.13034894
-0.122839384 0.042570252 -0.17628638 -0.16625825 -0.025451474 0.04653393 0.14325438 -0.08042526
0.07392609 -0.09876914 -0.093045115 0.04860743 0.077217825 -0.20510702 -0.043106567 0.015604464
0.17259485 -0.0025853375 0.18923666 -0.2135041 -0.17231815 -0.20138061 0.1663115 0.075504355
0.2821855 -0.026798349 -0.09485304 -0.11087651 0.013277652 0.037590664 -0.014814756 0.053983975

transformer_encoder.layers.0.self_attn.in_proj_bias f4 [192]
00000000: 05db 513d 7004 273d 0e8f 29bc 4d14 6cbd
00000010: 85f6 56bd 84e6 8f3c dec1 5ebd da4b 8cbd
00000020: 2345 873d 47cc 9ebd bb7e 8dbc 4cd4 013e
00000030: eaca e53d 1739 213e b9fc 94bd cdbb 16bd
00000040: b4f5 30bd b8d1 193d d41d 17bd 457b 993d
00000050: 540b de3c 4ae1 06bd 451a 8d3d 208c c2bb
00000060: ad44 18bd 1a26 02bd 6da0 5abc ed0e 89bd
00000070: 7561 72bd 88cc b3bc 6ed9 e9bc f6c0 c33c
00000080: 1f95 3abd 0777 06bb 44d3 7c3d 4081 973d
00000090: af90 52bd 7585 f13d f1f2 403d 06ab f23c
000000a0: a9e8 dc3b a27b 223d 2e69 9d3c c292 56bd
000000b0: 1d07 bbbc b4cc 3d3d 0154 ecbc b2ca 813c
000000c0: 66a2 233d db40 0a3d 7ed3 d03b 3e54 393d
000000d0: af08 1b3d fd63 62bd cf98 5fbd cd6f 153d
000000e0: e81c 8ebd d9f5 7e3d 3760 bcbc 0269 1a3d
000000f0: a1dd b93d 1a19 eebd 32de d73d 9e00 ef3d
00000100: f1f2 9536 16d4 3db7 273f 65b5 12c4 a2b8
00000110: 0e3f 3ab6 8bb3 3c38 6d4f be37 f8d6 acb7
00000120: 7c65 a938 587c da38 67ee f639 86f3 0939
00000130: a176 433a 57dc 8bb9 84ba e9b9 30d4 34b9
00000140: 2eb8 9038 f725 e8b8 f1d7 52b9 8d87 deb8
00000150: f81f 8cb7 f934 21b8 c25e 5d39 08a9 48b6
00000160: 6fca 97b8 aa0f 4638 0d9f 1338 a0ef 2638
00000170: 0d5f f738 20f9 73b6 623b d6b7 c9af 6ab8
00000180: f9af fdb6 7c0a d9b7 c887 79b7 adb2 3436
00000190: 6699 0037 8cb0 65b8 4c59 99b8 877e 96b7
000001a0: 7dc3 bcb6 7a5a 40b6 9b50 9337 9d10 ff36
000001b0: 4284 8038 d5ea 9238 a577 7ab8 d081 6e36
000001c0: 8db7 1f39 c17f 11b8 ef83 73b7 18e6 82b8
000001d0: f003 cc38 8ec3 9ab8 20f4 abb7 77be d938
000001e0: f42d e138 205f 5c36 f732 01b9 dbe3 bc38
000001f0: 0b63 c7b9 3fa6 10b8 eba7 1139 aff9 2f39
00000200: 26b0 253d b915 8c3c 8bde e23c 77b1 90bc
00000210: dc7b 93bc 9b81 78bc 3814 553d d310 e4bc
00000220: 37cd fdbc 3235 7b3c a681 9bbb 926e 033c
00000230: 1012 d4bb b519 9dbc b95d e83c 1501 d2bb
00000240: 496f 643c 7562 873c 824c 133d e2cb 563c
00000250: 5571 ea3c 6de8 f93c 878f 193c 861c 883c
00000260: afc0 223c e2ab 04bd be26 ee3b ef05 16bd
00000270: b9cd ad3b 25b3 1b3c f65c 8cb9 2e72 fe3a
00000280: 661b 6e3c 9470 4fbc 154b d9bc 0570 223c
00000290: 24fa b2ba 1c7c 4e3c 4e13 61bd 0649 1f3c
000002a0: 6228 28bd 1307 083b 0dc6 b2bc df0f 4abc
000002b0: 37cc c0bc 8015 eebb 245a 883c b465 6f3b
000002c0: 4bc3 9ebd 94b5 923c 6ea8 bdbc c86b 913b
000002d0: 6381 cabc 4b62 aabc 16de 0dbc a661 83bc
000002e0: b1d0 86bb bc82 48ba 1fd4 08bc ba2a ccbc
000002f0: c0cb 02bc df74 3f3d ad8f 533b 28bb 5abd
0.051234264 0.040775716 -0.010349048 -0.057636548 -0.052481193 0.017565973 -0.054384105 -0.06850405
0.06604984 -0.077538066 -0.017272344 0.12678641 0.112203434 0.15744434 -0.072747655 -0.036800195
-0.04320307 0.03755352 -0.03689368 0.07494215 0.027105011 -0.032929696 0.06889776 -0.0059371144
-0.03717487 -0.031774618 -0.013343913 -0.066923 -0.059174974 -0.021948114 -0.028546061 0.023895722
-0.04555237 -0.0020517723 0.061724916 0.07397699 -0.051407512 0.11793033 0.047106687 0.029622566
0.0067416024 0.039668687 0.019215193 -0.052386053 -0.02283054 0.0463378 -0.02884865 0.015843723
0.039949797 0.033753257 0.006372868 0.045246355 0.03785008 -0.055271138 -0.05458909 0.036483575
-0.06939107 0.062246177 -0.022995098 0.0376978 0.090754755 -0.116258815 0.10540427 0.116700396
4.468828e-06 -1.1314658e-05 -8.5401047e-07 -7.761283e-05 -2.7752862e-06 4.4989905e-05 2.268675e-05 -2.06041e-05
8.077451e-05 0.00010418211 0.000470984 0.00013156058 0.0007456337 -0.00026676312 -0.00044580188 -0.00017245184
6.900761e-05 -0.000110696936 -0.00020107605 -0.00010611033 -1.6704187e-05 -3.8434726e-05 0.00021111502 -2.9900712e-06
-7.237947e-05 4.7221467e-05 3.519566e-05 3.9800652e-05 0.000117955824 -3.6354832e-06 -2.553844e-05 -5.595366e-05
-7.5604735e-06 -2.5873298e-05 -1.4873171e-05 2.6926093e-06 7.66511e-06 -5.4762277e-05 -7.312241e-05 -1.7940312e-05
-5.6255944e-06 -2.8662894e-06 1.75613e-05 7.6015262e-06 6.1281506e-05 7.0055634e-05 -5.9716072e-05 3.5540324e-06
0.000152318 -3.4689674e-05 -1.4514647e-05 -6.241741e-05 9.7282114e-05 -7.379717e-05 -2.0498468e-05 0.00010382843
0.000107373955 3.2837925e-06 -0.00012321385 9.00698e-05 -0.0003803003 -3.4487104e-05 0.00013890832 0.00016782315
0.04045119 0.017100202 0.027694007 -0.017662747 -0.018003397 -0.015167619 0.052021235 -0.027840054
-0.030981643 0.015332507 -0.00474568 0.0080219675 -0.00647188 -0.019177297 0.028365003 -0.0064088204
0.013942548 0.01652644 0.035961635 0.013110133 0.028618494 0.030506337 0.0093725985 0.016615164
0.009933635 -0.032390483 0.007267802 -0.036626752 0.005304065 0.009503161 -0.00026772142 0.001941269
0.0145328995 -0.012661118 -0.02652506 0.009914403 -0.001365487 0.012602832 -0.05495005 0.009722
-0.041054137 0.002075617 -0.021822954 -0.0123328855 -0.023534877 -0.0072657466 0.016644545 0.0036529126
-0.07752093 0.017908849 -0.023151603 0.0044378974 -0.0247199 -0.020798823 -0.008658906 -0.016037773
-0.0041142334 -0.00076488755 -0.008351355 -0.024922717 -0.007983148 0.046742316 0.0032281682 -0.053401142

transformer_encoder.layers.0.self_attn.out_proj.weight f4 [64, 64]
00000000: 1887 c136 609b e6bc bc23 37bd 08f4 f6bd
00000010: dd4f 813d a62e e63d 24de 1f3c 8167 9dbd
00000020: 2957 98bd f247 44bd aaf5 a3bd 36b4 d43d
00000030: 7a61 5fbe 38f3 4dbe 10ac e8bb a677 a8bc
00000040: 8a47 863d 594b f2bd 7484 93bc 8be9 4bbd
00000050: 9458 e33d 33d9 34bd f85a 2b3d 6632 0b3d
00000060: b951 a4bd 4180 303b 2503 e2bd 8903 a6bd
00000070: 5657 4d3d aa9d 8c3d 531c a5bd 341e c4bd
00000080: d73a 893d c9eb 0dbe 91f8 d53d cc7b 16bd
00000090: 770e e93d 307a b23d c3de 0fbd 96ec c3bd
000000a0: 67fc ad3d 80f6 18be 43dd c9bd 80cd 993d
000000b0: 1250 d3bd c5bd 34bd f849 c6bd 66ea 06bd
000000c0: 3a32 313d f40d b93d ce25 25be 6c36 7dbd
000000d0: b29f 02be 3d67 9fbd 1a86 8c3d ccd9 da3d
000000e0: 88d9 8abc 58bf 0dbc 2043 223e efe8 b0bc
000000f0: 3404 a4bd fb1d 5d3c 439b 123d 757f 083b
00000100: e7ae 073c 62dd f1bc 2dc0 a93b 2899 94bb
00000110: c946 1bbd 47fc 013e 2abb ae3c 5d53 60bd
00000120: d1b0 773c 8b1f a1bd 768d 0ebd 9730 c93b
00000130: bd2f b83c e8cd 293c 3f7c 99bd f687 9abd
00000140: 515b 11be 70e7 0abe 467e d73d 0565 483c
00000150: 70e3 9f3c d082 b73d 275f c23d 33ed 5a3d
00000160: 37e6 c2bb 2c89 73bd 1b2b 6d3d faae f73c
00000170: c3ab cc3d 7b93 793c 5568 1dbe 40c2 df3c
00000180: 2258 f3bb 19f7 91bd ba81 db3d 9b93 0dbd
00000190: 0ae1 8fbc c635 bbbd 0882 e53d 2527 843b
000001a0: 744a 9d3d 586e b7bd 643a 11bd d5c1 a13d
000001b0: f85c 633d 8c1d 92bb 6dd2 b53d 7986 ae3d
000001c0: fdd0 5c3d 7f4f 903d 2e49 1cbb ca0e 41bd
000001d0: 921f 5f3d 0d34 efbd 8b99 a3bd c83b 4cbd
000001e0: d72f 153d 6d43 c03d 557a 383d 379e 0dbe
000001f0: b6f1 a9bc a55b 5dbd 6f49 84bd b086 abbd
00000200: d66a 083d 9c21 8cbd 7851 92bd c83c 0a3e
00000210: ddab 6abd 1b64 fa3c b882 a5bd 4ee9 c0bd
00000220: b33f 89bd 9143 ae3c 31f6 0f3e 0697 c5bd
00000230: e062 d7bc 2214 303e 6066 753d c729 613d
00000240: d9ea 5c3d 87b6 d03d 7855 a4bd 8418 ab3d
00000250: 33be 3bbd cccb 4dbd d25c c63d 5380 f1bd
00000260: d43e 713d a54b 0e3c 9681 88bd bcbc 75bc
00000270: a9ab 80bc 32d8 623c 83d4 e03b 6e36 313d
00000280: 44d3 89bd 7697 0f3d 0603 403d 6a5d c83c
00000290: 1b8c e63d 06a5 b33d 4714 0c3c eff3 a8bd
000002a0: c247 173c e5b7 c1bd b7ed 8a3c 15f5 8c3d
000002b0: e011 70bd e5bd 9c3d 65d5 15be a581 e73c
000002c0: 6027 61bc fc1a d83c 30c3 0f3d b9e7 a5bd
000002d0: 40e4 91bd 6fa8 b5bd 915a 04bd 43fa b5bc
000002e0: b37c 1fbd 28ba 30b9 1df9 24bd 55c2 313d
000002f0: f7c8 5b3d 010b 1ebd f760 b3bd 04ec ff3d
00000300: f9c2 53bd df16 c03d 9216 e3bd 9efd a33d
00000310: fd1b 15bc 5c94 be3d 66c4 ed3d c6b2 f3ba
00000320: 4e30 d6bc 00f7 64bd 68e1 513e 674a 4abe
00000330: 6b1e fb3d a66a cc3d c1b9 a7bd 6062 36be
00000340: 2563 06bd 13d5 bfbc 29c5 bbbd b245 c43d
00000350: 42e3 b13c 1e53 763d 1f14 ad3d da28 bdbd
00000360: 65b1 c1bb 96ed c8bd d5bd 6b3d 9b0a f53c
00000370: d52d 8fbd c382 ebbc 4df5 ca3d 35d3 3fbb
00000380: 4e1e 073d 6b7a 3c3c 53c1 e2bd 3b18 d1bd
00000390: a4c2 ef3d e1ff ea3d a455 82bd e304 9cbd
000003a0: 1af7 88bd cd57 8ebc 9c62 97bd 56e0 afbd
000003b0: 669c 95b9 01d6 08be c2ac d33d ea82 a8bd
000003c0: bd91 9abc 1443 233d db02 153e 21de c73d
000003d0: 0ef4 6cbd 222e 4abe 787d 463c b10e 7abb
000003e0: 560b 25be 2765 b4bd 485d b3bd f05a 83bd
000003f0: 4588 c83d 3344 7ebd 3be9 86bc 2bbe c93c
5.767575e-06 -0.02815026 -0.044711813 -0.12058264 0.06314061 0.11239366 0.009757552 -0.076857574
-0.074384995 -0.047920175 -0.08005841 0.10385935 -0.21814528 -0.20112312 -0.0071005896 -0.020564865
0.06556614 -0.11830778 -0.018007495 -0.04978327 0.11100879 -0.04415245 0.0418348 0.03398361
-0.080234 0.0026931914 -0.11035756 -0.08106143 0.05013212 0.068660095 -0.08062043 -0.09576073
0.06700676 -0.13859476 0.10447801 -0.036739156 0.11379712 0.08714712 -0.03512455 -0.095666096
0.084954076 -0.14937782 -0.098566554 0.07509899 -0.103180066 -0.04412629 -0.09682077 -0.032938384
0.04326079 0.090358645 -0.16127703 -0.06181948 -0.12756231 -0.07783363 0.06861515 0.10686073
-0.01694943 -0.008651577 0.15845919 -0.021595446 -0.08008614 0.013495917 0.0357926 0.0020827923
0.008281446 -0.029524509 0.00518038 -0.004534859 -0.037909303 0.12693892 0.021329481 -0.054767
0.01511784 -0.078673445 -0.034802876 0.0061398256 0.0224837 0.010364033 -0.07494401 -0.07545464
-0.1419499 -0.13564849 0.105221316 0.012231116 0.01951763 0.089604974 0.09490805 0.053448867
-0.005947854 -0.05945699 0.057902437 0.030234803 0.099936984 0.015232916 -0.15371831 0.027314305
-0.0074262777 -0.07127208 0.10718103 -0.034564596 -0.017563362 -0.09141116 0.11206442 0.0040329867
0.076802164 -0.08956593 -0.035456076 0.07898299 0.055508584 -0.0044590887 0.08878026 0.085217424
0.053910244 0.07046413 -0.002384733 -0.047133245 0.054473467 -0.1167985 -0.0798827 -0.0498617
0.036422577 0.093878604 0.04503854 -0.13829885 -0.02074514 -0.054042477 -0.06459319 -0.08375299
0.03330501 -0.06842348 -0.07144445 0.13499749 -0.057292808 0.030565312 -0.08081573 -0.09419499
-0.06701603 0.021272453 0.14058758 -0.09647946 -0.026292264 0.1719518 0.059912086 0.054971483
0.053934906 0.10191064 -0.08024114 0.08354285 -0.045835685 -0.050243184 0.09685673 -0.11792054
0.05889781 0.008685027 -0.066653416 -0.014998611 -0.015706854 0.01384549 0.006861271 0.0432648
-0.06729749 0.035056554 0.046877883 0.024458606 0.11257192 0.0877171 0.008549756 -0.08249652
0.009233417 -0.09458903 0.016959054 0.06882683 -0.058610797 0.07653407 -0.14632185 0.028260062
-0.013742298 0.026380055 0.035098255 -0.08100838 -0.07123613 -0.08870017 -0.032312933 -0.02221406
-0.03893728 -0.00016854017 -0.040276635 0.04339822 0.053658452 -0.038584713 -0.08758729 0.12496188
-0.051699612 0.09379362 -0.11088289 0.08007358 -0.009100911 0.09305641 0.11609726 -0.0018592707
-0.02614608 -0.05589962 0.20496142 -0.19754945 0.12261661 0.09981279 -0.081897266 -0.17810965
-0.032809395 -0.023417031 -0.09168465 0.09583606 0.02171481 0.06013786 0.084511034 -0.092363074
-0.0059110397 -0.09810941 0.057554085 0.029912284 -0.06991164 -0.028748875 0.09910069 -0.0029270176
0.032987885 0.011503796 -0.1107203 -0.102097 0.11707047 0.11474586 -0.06363991 -0.076181196
-0.06687756 -0.017375851 -0.07391855 -0.085877106 -0.0002853602 -0.13362886 0.10335685 -0.08228095
-0.018868322 0.039858893 0.1455187 0.097591646 -0.057849936 -0.19744161 0.012114875 -0.003815573
-0.16117606 -0.08808356 -0.08758026 -0.06413829 0.09791616 -0.06207676 -0.016468635 0.024626812

transformer_encoder.layers.0.self_attn.out_proj.bias f4 [64]
00000000: 845d b43c 84dd c7bc 85e0 c1ba e090 243b
00000010: b276 b7bc bf66 4fbd 3d6d e1bc b8f1 283b
00000020: 2db3 a03c 906a a8bd 7426 d8ba c749 9e3c
00000030: 00c5 623a c7b6 64bb 1b51 973d 825f 0c3d
00000040: ad23 adbc d29a a23b ec0e d0bc 2485 553c
00000050: 36f9 8ebd cbd7 16bd c043 53bd 0c5d 97bc
00000060: a6c9 a7bc b5f2 e13c adf4 8a3d 1c1a c6bc
00000070: 606c 723d 72a9 eb3b 2d1f b23c 127c 05be
00000080: 3c06 33bd 6af2 a0bc 1fab 5fbb e2d9 d63d
00000090: 593e e33a 8687 6bb9 056e 7f3c dffe 19bd
000000a0: 1404 1dbd f483 a8bc bfef b93c e807 5d3d
000000b0: 08f0 4cbb d5af a63d 6add 363b bb96 1ebd
000000c0: d867 03bd 46ba 743b 0ecb 503d 0e18 c33c
000000d0: 8890 35bc 50b8 51bc 3290 41bd 8aa1 283c
000000e0: 8398 d4ba 6915 b43c 28a6 8f3b 30ea 2f3d
000000f0: 50d1 053d 37c8 9a3d d40c 5fbd 6b14 a33b
0.022017248 -0.024397619 -0.0014791643 0.0025110766 -0.022395466 -0.050635096 -0.02751791 0.0025778841
0.019616688 -0.0822345 -0.0016490952 0.01932229 0.0008650571 -0.0034898983 0.073885165 0.03427077
-0.021135176 0.0049623037 -0.02539774 0.0130322315 -0.06981127 -0.03682689 -0.051578283 -0.018476985
-0.020481896 0.027581552 0.067849495 -0.024182372 0.059185386 0.0071918303 0.021743381 -0.1303561
-0.043707117 -0.019646842 -0.0034129096 0.104907766 0.0017337307 -0.00022461833 0.015590196 -0.03759658
-0.038333967 -0.020570733 0.022697328 0.053962618 -0.0031271 0.08139006 0.002790297 -0.038717967
-0.032081455 0.0037342473 0.050974898 0.023815181 -0.011081822 -0.012800291 -0.047256656 0.01029242
-0.0016219768 0.021982865 0.004383821 0.042947948 0.03267032 0.07557719 -0.054455593 0.0049767992

transformer_encoder.layers.0.linear1.weight f4 [128, 64]
00000000: cff0 0abc caf1 a9bd 8cff c13d f895 083d
00000010: 2c22 2ebc f6ea 0bbe 2264 10bd b1a0 92bd
00000020: 62ae f9bc ef99 64bd 5698 933d a1b0 1dbd
00000030: 6569 2ebe 4602 d13d 5442 d83d 5cb5 703c
00000040: 49bc fcbd 7007 3abe 5cab b6bb 2382 31bd
00000050: 3fef e83c cbee 11bd 9d03 c8bd 0038 c1bc
00000060: 8a40 c33d d5b1 3b3e 4e63 ee3d e532 2c3d
00000070: f1af 283e acc5 9c3d 0a12 a43d 481b 743c
00000080: bc59 2bbe 0ae4 88bd 4108 f3bd 2600 9f3b
00000090: d415 543c 013f af3d 4d8b af3d 88e2 1f3e
000000a0: 5fd4 843d ca7e 013a 6a7f 963c 394c f13d
000000b0: 5078 7a39 c182 d73d 3dc0 86bd 682f e8bb
000000c0: 9c22 f8bc 3df8 7c3d e175 fcbd 654f 18be
000000d0: e651 fbbc 293d f43b cc7b 6e3d dcc2 b73d
000000e0: dc02 debc c671 003e 81b9 b93d 6815 c43c
000000f0: 5429 473d 3762 ce3d e5ec bbbc 35c2 0d3c
00000100: b5f9 883d c858 0c3e 2f2f f6bb f5e5 ac3d
00000110: 9470 2fbc 103d 383d aab5 1cbc 9fe1 3ebc
00000120: f399 203e a1d0 563d c163 a23d f169 64bd
00000130: 9fe4 7cbb d51d 4d3d d119 cb3d 9cca 83bd
00000140: d29e 983d 0cd2 d23c 68a6 08bc 8510 273d
00000150: 899f a63d b4a2 af3d 16fe 833d 2048 2a3e
00000160: 6469 4a3d dabf cbba a49a 953c 4064 e03c
00000170: 227e 3bbc 96b7 ad3d 8fe3 a73d 82b6 d8ba
00000180: 57f5 c23b 17c5 803d 00b1 d53d d866 07be
00000190: 7dc4 a73d f033 69bd 4414 b2bd 4c3e 2abd
000001a0: f826 b0bb 4ace 103d f929 883d 70ec f1ba
000001b0: 232a 98bc 2fca 0abe 88da 85bd 1fc9 983d
000001c0: 055e 7c3d 9071 643d 7c9f c8bd 7628 533d
000001d0: 8e28 2bbd 07b4 febd e0e1 9d3d cea4 503d
000001e0: 301a 133e 5eff d4bd 8a34 11bd cc66 d9bd
000001f0: c5de 55bc fc06 6d3d f6c1 003d b280 98bd
00000200: e1b8 153d 2142 25bd 4ff1 46bd a41f 80bd
00000210: f91a c73d 0153 113e e604 b83d 8d51 bfbc
00000220: e233 583d d7c0 253e b02f 84bb bac3 ad3d
00000230: 5e4f 73bd 00a3 c63d 20d9 853d ea32 f93d
00000240: ecea 433d 21eb e03d c9ee 91bb 06fb 83bd
00000250: be2b 52bd 6261 c8bb 929c 283e 17c2 683c
00000260: 14e7 7dbd 3c6b 8cbd 2478 88bd 50a5 2c3d
00000270: 4d47 143d 2662 96bd eb8d 953d 6ab6 cb3d
00000280: e588 6abd ab3f d3bd 5944 c83d 9e94 ce3c
00000290: c12b b0bd a98e bdbd caac a73d 4047 db3c
000002a0: 253f b9bc d116 77bd b141 38bd 13f1 b2bd
000002b0: 008e d8bd 5d5a 2dbe 06bd 6e3d d56a b3bd
000002c0: 4d0e 9a3d 3666 e43d e232 c1bc bf32 09be
000002d0: 2ba1 fdbc 308c 82bc df2d 113e 1777 85bd
000002e0: aa61 8b3d 0e2b bfbd 5a6c 1abd ab5d 6c3d
000002f0: c506 cf3c 98ea 82bd d016 153d 4e67 d8bd
00000300: 1c81 273d 8ece cdba 41d8 d3bd 3267 82bd
00000310: b436 7c3d 8b9b e93d 0452 333a 69ad 03be
00000320: a268 a83d 84e2 0c3e 8cba fb3c 6e35 893d
00000330: 6b20 1fbd 1ed8 01bd 5281 a4bd d895 c23b
00000340: 9e8e a1bc b74c 92bd b913 173b b751 2c3c
00000350: c324 983d 82c3 153d d787 a6bc 9811 e9bc
00000360: e02e 273d 1e05 a0bd a49c 17bd 7a85 9abd
00000370: a6d8 c1bd 858f fc3c 68a3 13bd 3257 a439
00000380: 43bd 40bd 991c 023c a201 05be d74a cebd
00000390: 9325 90bc dd8a c1bb ee2a d1bd 7b32 a43d
000003a0: e2ef 5bbc fb20 f6bc 8072 afb9 ec65 49be
000003b0: 6c25 df3c 2466 48be 6282 0d3e 903c b0bc
000003c0: 7b4c 283d c035 9a3c dbe5 f03d 3fba 9dbd
000003d0: bd9b 9e3d 1634 b13d 8b14 183c 25f2 f5bd
000003e0: 28b5 153e 3e51 273d 7e27 b7bd 19ad 01be
000003f0: 877f 13bb 7e99 263d 52ea c13d b73c 973d
-0.008480265 -0.08298071 0.0947257 0.033346146 -0.010628264 -0.13663849 -0.035251744 -0.07159556
-0.03047866 -0.055810865 0.0720679 -0.038498525 -0.17032392 0.10205512 0.10559526 0.014691677
-0.123406 -0.181669 -0.005574627 -0.043337 0.028434394 -0.03562812 -0.09766314 -0.023586273
0.09533794 0.18329556 0.116400346 0.042040724 0.16473366 0.076548904 0.08011253 0.0148990825
-0.1673345 -0.0668412 -0.11866809 0.0048523126 0.012944657 0.08556939 0.085714914 0.15613759
0.06485819 0.00049398525 0.018371303 0.117821164 0.00023886678 0.10522986 -0.06579635 -0.0070857294
-0.03028994 0.061760176 -0.12327171 -0.14874037 -0.0306787 0.00745358 0.05822353 0.08972713
-0.027100973 0.12543401 0.09068585 0.023935989 0.048623398 0.10077327 -0.022940109 0.00865226
0.06688253 0.13705742 -0.007512949 0.08442298 -0.010707993 0.04498011 -0.009564796 -0.011650472
0.15683727 0.052445058 0.07929183 -0.055765096 -0.0038588417 0.05007728 0.099170335 -0.06435129
0.074521676 0.025734924 -0.008340456 0.04078724 0.08135898 0.08575955 0.064449474 0.16629076
0.049416915 -0.0015544847 0.018262215 0.027391553 -0.011443647 0.08482282 0.081977 -0.0016533884
0.005949657 0.06287592 0.10434151 -0.13222826 0.08191774 -0.056934297 -0.086952716 -0.041563317
-0.005375739 0.035352983 0.06648631 -0.0018457305 -0.01857478 -0.1355369 -0.06535822 0.07460236
0.0616131 0.055772364 -0.09796044 0.05155226 -0.041786723 -0.12436681 0.07709098 0.05093842
0.14365458 -0.1040027 -0.035450496 -0.1061531 -0.013053601 0.05786799 0.031434976 -0.07446422
0.036553267 -0.04034627 -0.048569974 -0.06256035 0.097219415 0.1419182 0.08985309 -0.023354316
0.052783854 0.16186844 -0.004034005 0.084845975 -0.059401862 0.096990585 0.06535554 0.12167914
0.04783146 0.10982347 -0.0044535142 -0.06444363 -0.051311247 -0.0061151246 0.16465977 0.014206431
-0.06198795 -0.06856391 -0.0666354 0.04214984 0.03620081 -0.07342939 0.07302459 0.09946902
-0.05725946 -0.10314878 0.09778661 0.02521735 -0.086020954 -0.09255726 0.08187254 0.026767373
-0.022613117 -0.060324494 -0.044984523 -0.087373875 -0.10573959 -0.16929002 0.058285736 -0.08760611
0.07522259 0.11152308 -0.023583833 -0.13398264 -0.03096064 -0.015935987 0.14177655 -0.06516855
0.06805737 -0.09334384 -0.03770099 0.057706516 0.025271783 -0.063924015 0.03639871 -0.10566579
0.040894613 -0.0015701817 -0.103439815 -0.06367339 0.061575606 0.114066206 0.00068405294 -0.1285912
0.08223082 0.13758284 0.0307286 0.06699644 -0.038849276 -0.031700246 -0.080324784 0.005938273
-0.019721325 -0.071435384 0.0023052527 0.010517529 0.07428887 0.036563404 -0.020328445 -0.028450772
0.040816188 -0.07813476 -0.03701462 -0.0754499 -0.094651505 0.030830154 -0.03604451 0.00031345483
-0.047055494 0.0079413885 -0.12988904 -0.10072868 -0.017596042 -0.0059064464 -0.10213266 0.08017441
-0.013423892 -0.030045023 -0.0003346391 -0.19667786 0.027239524 -0.19570214 0.13819268 -0.021513253
0.041088562 0.018824458 0.117625915 -0.07701539 0.077445485 0.08652513 0.009282242 -0.12009076
0.14619887 0.040848963 -0.089430794 -0.12663688 -0.0022506432 0.040673725 0.09468521 0.07384627

transformer_encoder.layers.0.linear1.bias f4 [128]
00000000: f08d b73c 1455 723d 0c0b 20bd a54a 2abd
00000010: 5afa da3c 61f7 7bbc ac54 0ebe 5545 bcbd
00000020: fc9b c13c 34f2 efbd c950 ccbd e80a d8bc
00000030: f9c6 34be d8a4 663b 7bdf 0dbe 713d 81bd
00000040: 3f19 22be 9b56 9abd 25ce 0f3e 3aa4 c6bd
00000050: ad52 b73d 32ad e5bb b911 15be dfea 3cbe
00000060: da87 07be 7864 36bc b3e3 623c f703 c8bd
00000070: a0a2 abbd 68b6 c83c 5411 3abe c4c5 dbbc
00000080: abe2 0dbd ff88 82bd 5f4c 0a3e c590 1c3e
00000090: 1a52 c83d 68f6 9dbd b4ce e3bd 8c9a 28bc
000000a0: a784 11be 56ee 75bd 5e50 6bbc a734 313b
000000b0: a633 17bc e7e0 a43d ad86 993d 9e74 37be
000000c0: cee3 0cbe 79ac 7a3d a499 e2bd 64bd 29be
000000d0: 7e66 23be 986d 2bbe 7f48 d1bd e601 653d
000000e0: e470 32bd 8e72 483d 1d0e 14be 73b0 51bd
000000f0: dfcc f7bc c47b bfbd 09a4 f5bd 12a7 abbd
00000100: e9a0 32bd 5859 163e 35f5 0fbe d5cf 433d
00000110: b054 86bd d81f 943d 43fe ce3c 243d 09be
00000120: ddcb 8ebd 81cd 58bd 77f4 2abe 2d46 1e3b
00000130: d0a9 24bd 1652 85bd 3d84 3ebe 5dbd 1e3e
00000140: 663c 0f3d 6dcd 37be 7291 c1bd ca18 0dbb
00000150: 628f acbd 164c 8fbd 7aef dc3c 59dc aabc
00000160: b7b3 c33b 942d fbbd f6b4 09be 86e3 3ebd
00000170: 798e b7bc 96b9 a8bd 912d bd3d cc67 863d
00000180: f669 85bd d37b 01be a9ec eabd ac04 8ebc
00000190: df40 c93c e171 793d b569 e13d c4ab 99bc
000001a0: 2e85 50bd 6c9f 5e3c f8c1 1cbd fb84 acbd
000001b0: 97ab 0fbe 16da dbbd bdf9 df3c 64d7 41be
000001c0: eca2 e73d 25cc 1d3d d09d 9abd 5854 02be
000001d0: 9616 6abd b924 e63b f3e2 a2bd fcfd fd3c
000001e0: 2fef f0bc 8eac 1e3d 82f0 f63d d45b 2c3c
000001f0: b61d 1dbd 3baf 47bd 4de3 1e3d 724e 04be
0.022406548 0.059163168 -0.039073035 -0.041575093 0.026730705 -0.015378804 -0.13899487 -0.091929115
0.02363395 -0.117161185 -0.09976346 -0.026372388 -0.17654027 0.003519347 -0.13854782 -0.06310547
-0.15829943 -0.0753605 0.14043482 -0.096992925 0.08951316 -0.007009172 -0.14557542 -0.18448971
-0.13235417 -0.011132352 0.013848233 -0.09766381 -0.08380628 0.02450104 -0.18170673 -0.0268277
-0.034639996 -0.06373786 0.13505696 0.152896 0.09781285 -0.07713014 -0.1112341 -0.010290753
-0.14210759 -0.060041748 -0.014362423 0.002703944 -0.009228623 0.08050709 0.074963905 -0.1791558
-0.13758776 0.06119964 -0.11064461 -0.16576153 -0.15957066 -0.16741025 -0.10218906 0.055910014
-0.043564692 0.048937373 -0.14458509 -0.051193666 -0.030249057 -0.09349778 -0.11994178 -0.083814755
-0.043610487 0.1468252 -0.14058383 0.047805626 -0.065591216 0.07232636 0.025267726 -0.1340223
-0.069724776 -0.05293036 -0.16694818 0.0024150715 -0.04020101 -0.06509797 -0.18605132 0.15501924
0.03496971 -0.17949457 -0.094515696 -0.0021529668 -0.084257856 -0.06996934 0.02696966 -0.020857023
0.0059723514 -0.12264553 -0.13447937 -0.046603702 -0.022406803 -0.08238523 0.09237207 0.065627664
-0.06514351 -0.12644891 -0.114709206 -0.017336212 0.024567066 0.06089962 0.1100649 -0.018758662
-0.05090826 0.013587814 -0.03827092 -0.084238015 -0.140303 -0.10734956 0.027340764 -0.18929821
0.11310372 0.038524766 -0.075496316 -0.12727487 -0.057150446 0.0070234207 -0.079534434 0.031004898
-0.029410927 0.03873878 0.12057592 0.01051994 -0.038358413 -0.048751097 0.03879099 -0.1292055

transformer_encoder.layers.0.linear2.weight f4 [64, 128]
00000000: 3e03 7c3c 05b1 433d 0999 5d3c 8320 973d
00000010: 3fe2 3f39 834e 7ebd f538 2e3d 7e10 46bc
00000020: 0e83 2f3d 0521 88bd 2304 70bd c028 2b3d
00000030: f443 4c3d fc47 563c 1df7 73bd 3544 75bd
00000040: df95 babd 8a4b bf3d 5947 243c 1833 a83d
00000050: 6263 20bd 5d05 7c3d 083b 423d 2b65 df3c
00000060: 5304 bd3c f644 a1bd 570c 3e3c 6533 a93d
00000070: 0947 483c d261 83bd 3f84 a0bc e182 d5bc
00000080: 794d 2cbd 4976 5dbd 6328 6f3d a41e d0bc
00000090: ab87 993b dd87 273d 6d6a 043d b274 c3bc
000000a0: c01d 14bd ae75 a93c c9f6 6abd b7bb 4abd
000000b0: 572d f6bc 007c 993d 4e3e d2bc 0ad6 39bd
000000c0: 3c0e d63c d016 eabc 4b4d 0fbd 2579 e2bd
000000d0: 6d1b 92bd fedd 983c 44bf 883d 525f 8fbd
000000e0: b539 56bc e94d d93b c3bb a9bc fc9a f83a
000000f0: 9eb9 063c ec9e f4bc e800 56bd af36 003d
00000100: 6171 bebd 9d7c 52bd 3f85 853d ebd0 88bc
00000110: d6db 99bd 115b 6fbd 7cdc 0bbd 6399 833c
00000120: 364d 47bc bdd4 69bd 0355 0bbc 5c15 7dbd
00000130: 049a 92bd 4446 4f3d 61a6 793b 65b0 55bd
00000140: bed5 8abd f4d1 1bbd 8ac3 e4bc 8c08 abbd
00000150: 5313 d4bd a4f1 bebc 5b27 74bd e1b9 80bd
00000160: 076b b8bc 5184 b93d e0b1 4cbb fe80 87bd
00000170: 20fb 8b3d 3dd2 3a3d 0b92 b03d c789 4abb
00000180: 903c bdbd 41ea 1ebd f3ad 9abd be21 503d
00000190: b962 f53c 38ae 5b3c a1b0 313c e1ea a3bc
000001a0: a047 1a3d 2010 1dbd 66ea 88bb 7d6f bdbd
000001b0: fa77 39bc 228b 243d 776c 213a ac91 34bd
000001c0: 21fb 513c e212 203c ee71 13bd e219 1b3d
000001d0: fd56 6cbb ee97 2b3d 8f5a 1f3c f132 3f3c
000001e0: 2a1c 1d3d 9d04 5a3b 8752 7dbc 088f 5f3d
000001f0: 65c6 f73a 8cb7 82bd 7ab3 873d 9600 403d
00000200: cb63 4a3d 1c38 3b3d a412 723c 4cf9 50bc
00000210: d3b1 83bd db97 a3bb 255c 593c 1ac9 c4bd
00000220: bfa5 943d 40ab cebc a07d e6bd 3f0f 05bd
00000230: a754 56bd 167f 0fbd 9a3f 72bb 11d4 aebd
00000240: 5f3e 00be cdbb 12bd 1c6a 4e3d bb0f 4a3d
00000250: 570d 91bc 36ff 523d a4a1 5fbd e50f 79bc
00000260: bdee 653d 1d65 29be c186 b9bd 6a3c 513d
00000270: 7714 7abd 68ed 44be 7633 783d 4eb3 f7bc
00000280: be22 373d 1928 a83c 444e 86bd 9516 d1bc
00000290: 31a5 4bbc 14fb de3c 44f6 ff3c 0bed 643d
000002a0: be6c c23c 49e2 06be a7c4 9fbd b828 96bd
000002b0: ddf9 09bd c176 21bd 50c3 8fbd dcbe c43d
000002c0: 82a9 0cbd 7d79 763d cd79 923d 8b4d d93c
000002d0: db0e 1abd 7fa1 e93d 5b07 e43b 66e9 cbbd
000002e0: 46b2 2d3d c135 31bd 24be 393d 6357 363b
000002f0: 56d6 33bc e1f8 353d 2e6a efbc 6703 723d
00000300: 24cc 6a3c 9a16 853d 3672 e63d 5e71 8d3d
00000310: f3d6 19bc 913a 9fbc b3d0 77bd f6d5 b5bd
00000320: e87e 9bbb fc80 1bbd 3bf9 713c 1837 85bc
00000330: 8d31 903c 3c4c d73c 9eb0 9f3c 40c6 55bd
00000340: db62 4f3d 98ab 9abd a496 91bd a540 453d
00000350: 26b6 e83c f616 bd3d f9b3 bebc 3381 823c
00000360: 5ce0 96bd e47e b9bc a1c9 42bd 562f 61bd
00000370: 2a34 cebc 2101 10bd d090 6a3d 3ad1 8bba
00000380: 5a6b 863d deef 44bd dba9 0ebd 93a5 a2bd
00000390: 4b8e 85bd b1aa 8a3b 01af 17bd 6360 773c
000003a0: 16c6 83bc 0d6b 053c 78b4 433c b22f 57bc
000003b0: b20a 863c 9020 64bd 0918 5fbd 42b1 48bd
000003c0: f72a e7bc 3133 4bbd d571 92bc 5289 c53c
000003d0: 6802 e13d 7769 cd3c 92e7 a7bd 9e32 38bc
000003e0: daf6 83bc 0d91 8a3d 2e7e 7dbd cd25 b1bd
000003f0: 107a 8fbd 1a66 a63d 0233 a43d 7433 333b
0.015381632 0.04777624 0.013525256 0.07379248 0.00018299463 -0.062086593 0.042534787 -0.012088893
0.042849593 -0.06646923 -0.058597695 0.04178691 0.049869493 0.013078686 -0.059561837 -0.0598795
-0.09110617 0.0934058 0.010026776 0.0821287 -0.03915728 0.061528552 0.047419578 0.02726992
0.023073351 -0.078744814 0.011599622 0.08261756 0.012223967 -0.06415142 -0.01959431 -0.026063384
-0.04206607 -0.054067884 0.058388125 -0.025405236 0.0046853623 0.040901054 0.032328058 -0.023859356
-0.036161184 0.020685997 -0.05736426 -0.049495425 -0.030050917 0.07494354 -0.025664475 -0.04537014
0.026129834 -0.028575331 -0.03498582 -0.11058263 -0.07134137 0.018660542 0.06677106 -0.07000603
-0.013075282 0.006631602 -0.020719415 0.0018967087 0.0082229655 -0.029860936 -0.052246958 0.03130215
-0.09298969 -0.05138837 0.06519555 -0.016701182 -0.075126335 -0.058436457 -0.034145817 0.016064351
-0.012164405 -0.05708765 -0.008504155 -0.061787948 -0.071582824 0.05060412 0.0038093554 -0.052170176
-0.06779049 -0.038042024 -0.027925272 -0.083512396 -0.10355248 -0.023308583 -0.059607845 -0.062854536
-0.022511972 0.090584405 -0.0031233951 -0.066164 0.06835008 0.045610655 0.086216055 -0.0030904876
-0.09240067 -0.03879762 -0.075527094 0.05081343 0.029954301 0.013408236 0.010845334 -0.02000946
0.037665963 -0.038345456 -0.004178333 -0.0924978 -0.011320109 0.04017175 0.0006157825 -0.044084236
0.012816221 0.009770127 -0.035997324 0.03786648 -0.0036062591 0.04189294 0.009726181 0.01166986
0.038356937 0.003326691 -0.015461571 0.054579765 0.0018903731 -0.06382665 0.06626029 0.04687556
0.049411576 0.045707807 0.014774952 -0.0127547495 -0.06430402 -0.004992468 0.013266598 -0.096086696
0.07258176 -0.025228143 -0.1125443 -0.032485243 -0.052326825 -0.035033308 -0.003696418 -0.08536542
-0.12523793 -0.035823632 0.050394163 0.049331408 -0.017706556 0.05151292 -0.054597512 -0.015201543
0.05613588 -0.16542478 -0.090589054 0.051083006 -0.061054673 -0.19231188 0.060595952 -0.030236866
0.044710867 0.020526933 -0.06557897 -0.025523463 -0.012429521 0.027219333 0.031245358 0.055890124
0.023733493 -0.13172258 -0.0780118 -0.07331985 -0.033685554 -0.039419893 -0.07019675 0.09606716
-0.034341343 0.060174454 0.07152138 0.026526233 -0.037611824 0.11407756 0.0069588847 -0.099566266
0.042406343 -0.043264154 0.045347348 0.0027823083 -0.010976395 0.044426803 -0.029225435 0.059085276
0.0143308975 0.064984515 0.11252253 0.06906389 -0.009389627 -0.019437106 -0.060501765 -0.088787004
-0.004745353 -0.037964806 0.014768894 -0.016261622 0.017601753 0.026281469 0.019493397 -0.05219102
0.050631385 -0.0755226 -0.071088105 0.048157353 0.028407168 0.09232895 -0.023279177 0.015930748
-0.07367012 -0.022643514 -0.04755557 -0.054976784 -0.025171358 -0.035157327 0.05726701 -0.0010667213
0.065634444 -0.048080318 -0.034829956 -0.07941737 -0.06521281 0.004231774 -0.03703213 0.015098664
-0.016085666 0.008143199 0.011944883 -0.01313393 0.016362522 -0.055695117 -0.05446628 -0.04899717
-0.02821873 -0.049609367 -0.017876545 0.024113331 0.10986787 0.025074704 -0.081984654 -0.011242537
-0.016108919 0.067659475 -0.061887912 -0.08649788 -0.070057034 0.08124943 0.080175415 0.00273439

transformer_encoder.layers.0.linear2.bias f4 [64]
00000000: ec85 803b 9427 b5bd 787c 503d 93b6 b2bd
00000010: a5aa e4bd c4e9 0338 1108 26bd 08de 2fbd
00000020: 856c 1a3c bc74 febd ecf9 633b b44f a23d
00000030: 7edf 96bd 2e15 6fbd 9c67 0dbc a511 d83d
00000040: e0f4 f8bb 3a02 57bc d50b f8bc 024d c43d
00000050: 4997 ffbd c74a adbc 9b58 bbbd d796 33bb
00000060: 19ff d2bd 3679 1dbd d9d1 203d 4365 12bd
00000070: 64a9 3d3d b864 a93c f4ad 9b3d 5411 35be
00000080: b74b 8bbc 878a c0bb 57c0 97bd 6cdd 7e3d
00000090: a430 673d 9456 7d3d 9c04 5bbd cb8c c9bd
000000a0: 5131 79bd bd75 50bd d151 783d 2909 033e
000000b0: 0170 7e3d 8875 093e 2a41 dfbc 1bd2 b9bd
000000c0: 79c4 bcbd 9ad0 69bd ad3c d83d 1c02 8b3d
000000d0: 61d6 92bc a6d1 2d3d 9ee6 fe3a b8e6 65bd
000000e0: 3e5d 6cbd 354f 46bc a2da 123d 86b5 1f3d
000000f0: 1c46 b43d c255 163e 97b9 483c 504f 4cbd
0.0039222147 -0.088454396 0.050899953 -0.087262295 -0.1116536 3.1450545e-05 -0.040535036 -0.042936355
0.009425287 -0.12424609 0.0034786416 0.079253584 -0.073668465 -0.058369808 -0.008630659 0.105502404
-0.0075975507 -0.013123089 -0.03027908 0.095850006 -0.12480027 -0.02115382 -0.091477595 -0.002740314
-0.10302562 -0.038445674 0.039262626 -0.035741102 0.04630412 0.02067791 0.07601538 -0.17682391
-0.017003877 -0.0058758887 -0.07409733 0.062222883 0.05644287 0.061850145 -0.053471193 -0.09841307
-0.060838047 -0.050893534 0.0606249 0.12796463 0.062118534 0.13423741 -0.027252752 -0.090732776
-0.09217162 -0.057083704 0.10558448 0.06787512 -0.01792449 0.042436264 0.0019447391 -0.056128234
-0.05770611 -0.012103845 0.035853036 0.038991474 0.08802435 0.14681152 0.012251279 -0.049880326

transformer_encoder.layers.0.norm1.weight f4 [64]
00000000: 015e 863f a41f 813f ddb1 653f 842f 853f
00000010: 1523 803f aa26 833f d811 813f f3d7 783f
00000020: c7ea 793f e970 643f 5059 723f 7e77 8b3f
00000030: bb45 873f 39cf 853f 140e 703f b54e 803f
00000040: a7ee 823f 711e 883f c4da 823f 5c93 773f
00000050: e56b 843f cfd1 733f 1497 7b3f d825 6c3f
00000060: a95d 883f de08 7c3f 88cb 6c3f fdc1 6f3f
00000070: efe4 803f 23bc 7d3f dce9 873f 254a 8d3f
00000080: fd90 843f 6646 8b3f fbf5 783f 816f 803f
00000090: 4f52 833f e5bf 6e3f a3e4 913f c75d 813f
000000a0: 2436 823f 3985 803f 2f83 863f afe7 7a3f
000000b0: 4b22 8e3f 91b2 753f 1c44 853f 7f4b 783f
000000c0: f6cb 773f 838f 7a3f 14a3 623f 28fe 893f
000000d0: 043a 893f 6cf6 803f e4f2 8a3f 5608 803f
000000e0: b76a 933f dd24 843f 9ec6 8d3f 2d4a 823f
000000f0: 85f1 883f 0630 a43f fe2c 793f 2bc5 7b3f
1.0497438 1.0087781 0.8972452 1.0405126 1.0010706 1.0246174 1.008357 0.9720451
0.97623867 0.8923479 0.9466753 1.0895841 1.0568155 1.0453864 0.9377148 1.002402
1.0229081 1.063429 1.0223012 0.9670923 1.0345427 0.9524202 0.982774 0.92245245
1.0653583 0.9845103 0.92498064 0.9365538 1.0069865 0.991152 1.0618243 1.1038252
1.0356747 1.0880859 0.97250336 1.0034028 1.0259494 0.9326156 1.1397899 1.0106744
1.0172772 1.0040656 1.0508784 0.9800977 1.1104215 0.95975596 1.041141 0.969902
0.96795595 0.9787523 0.8853009 1.0780687 1.072083 1.0075202 1.0855374 1.0002544
1.1516942 1.032375 1.1076238 1.0178887 1.0698706 1.2827156 0.9733428 0.9834773

transformer_encoder.layers.0.norm1.bias f4 [64]
00000000: 9a70 ad3b bc73 953c a740 bd3d 7177 833c
00000010: 47f4 1f3a 6bec 8dbc 6027 a63c 1c05 3cbc
00000020: 6258 dd3d b4bf 883d 7e03 213d dc63 0a3c
00000030: 2052 a23c 7508 033d a737 fb3b d843 8e3d
00000040: c698 64bd 37e9 343d 99cc f2bc 98f2 dfbc
00000050: ccc2 7dbc 5e81 343d d672 713d c76a 163e
00000060: 385a b73b 02ac 4f3d e644 6dbd 7d20 8bba
00000070: 25ab 12bd ca77 753c ccd5 a83c 9956 f33c
00000080: 713c 4b3c 1103 3dbc 1e8e a3b9 15f3 e8bc
00000090: ed41 f93c 0d1b b8bd 9931 143d 9c17 f3bc
000000a0: 626b 3c3d 5400 2bbd b08d 9a3c 14e8 6ebd
000000b0: 932e 953c 7e02 21bd ddb9 70bc 0f98 5ebd
000000c0: 0ea1 473d d0d2 e1bc 6fa2 aa3d f937 f1bc
000000d0: e2f9 22bd 6d9e 14bb 5ae2 58bc d05d 68ba
000000e0: ef16 b4bc 680c 77bb 8de8 293d 6bd5 6f3c
000000f0: 2c32 1b3d d304 08bd 0d4f 5c3d 5d1a dbbc
0.005292964 0.018243663 0.09240847 0.016048165 0.0006101769 -0.017324647 0.020282447 -0.011475828
0.10807873 0.066771895 0.03930997 0.00844666 0.01981455 0.031990487 0.0076665464 0.06946534
-0.05580976 0.044167724 -0.029638575 -0.027337357 -0.015488338 0.044068687 0.058947407 0.1468917
0.0055954717 0.05070115 -0.057927035 -0.0010614541 -0.035807747 0.014982173 0.020609759 0.029704379
0.012404547 -0.011536376 -0.00031195668 -0.028436223 0.030426944 -0.089895345 0.036180113 -0.029674344
0.046000846 -0.04174836 0.01886639 -0.058326796 0.018210685 -0.039309017 -0.014692751 -0.054344233
0.048737578 -0.027566344 0.08331763 -0.029445635 -0.039789088 -0.0022677437 -0.01323756 -0.0008864077
-0.021983592 -0.0037696604 0.041481543 0.014638285 0.037889645 -0.033207726 0.053786326 -0.02674597

transformer_encoder.layers.0.norm2.weight f4 [64]
00000000: 72f5 7d3f c833 773f f3b9 8a3f 8c5a 793f
00000010: ce41 6f3f e808 743f eb76 7f3f f432 703f
00000020: f877 703f 5169 783f ab70 723f 1b35 733f
00000030: 5cfc 803f e955 883f dfa0 633f 1b1b 703f
00000040: 77a1 683f 3c3a 723f ea47 7f3f 8155 813f
00000050: 6ecb 7b3f fb4c 7d3f 2be5 793f dd7a 723f
00000060: 6860 813f 2423 813f b39e 783f 69a3 743f
00000070: e1a9 7e3f 5315 773f 4565 883f b75e 703f
00000080: 1264 703f 2f04 853f 08ef 793f b2e9 7b3f
00000090: 3943 843f c186 683f 8abf 703f 0749 793f
000000a0: 6f50 803f f8c0 793f 6826 843f 8f71 7f3f
000000b0: 1181 673f ac63 7c3f 68c5 813f 1a55 6f3f
000000c0: a00c 643f e275 813f 9844 773f 744a 743f
000000d0: 5521 793f f2a7 8d3f 90a0 763f e4ef 793f
000000e0: 2108 673f 2af5 7c3f 09e1 803f 302a 813f
000000f0: 9a82 6d3f 7833 793f a173 773f bfda 813f
0.99202645 0.96563387 1.0837997 0.9740379 0.93459785 0.9532609 0.9979083 0.9382775
0.9393306 0.970357 0.9470317 0.9500291 1.0077014 1.0651218 0.88917345 0.9379136
0.90871376 0.9462011 0.9971911 1.0104219 0.98357284 0.9894559 0.9761531 0.94718724
1.0107546 1.0088849 0.97117156 0.95561844 0.99477965 0.96516913 1.0655905 0.93894523
0.93902695 1.0391902 0.9763036 0.98403466 1.0333015 0.9083062 0.94042265 0.97377056
1.0024546 0.9756007 1.0324221 0.9978265 0.90431315 0.9858959 1.0138369 0.9348923
0.89081764 1.01141 0.9658904 0.95426106 0.97316486 1.1066878 0.9633875 0.9763167
0.9024678 0.9881159 1.0068675 1.0091 0.9277741 0.9734416 0.9666081 1.0144881
