transformer/results/t12_r4_i110_n3_h64_e1000_l0.01.pth (torch, 321541 bytes, 30 tensors)

embedding.weight f4 [64, 5]
0	0xbe7075e6	-0.23482475
1	0xbe61b618	-0.2204212
2	0x3e3f8e55	0.18706639
3	0xbdead7ae	-0.11466919
4	0xbe8964ad	-0.26834622
5	0xbe4518b1	-0.192477
6	0x3e97c1c2	0.29640013
7	0xbe4c1e9b	-0.1993355
8	0xbee0250f	-0.43778273
9	0x3e8a9843	0.2706929
10	0x3e2115cb	0.1573097
11	0xbdc5de58	-0.09661549
12	0x3e0426f0	0.12905478
13	0xbed186d2	-0.40923172
14	0xbf1fe239	-0.62454563
15	0x3e93a855	0.28839365
16	0x3eac07bb	0.33599648
17	0xbd803c5c	-0.06261513
18	0x3e7f237d	0.24915881
19	0x3dec29f6	0.11531441
20	0x3e88cbcb	0.26717982
21	0x3eacf6cd	0.33782044
22	0x3f015be3	0.50530833
23	0x3ea828a9	0.3284352
24	0xbf034ada	-0.5128609
25	0x3eb09056	0.3448512
26	0x3d5100dc	0.05102621
27	0xbe7472ba	-0.2387189
28	0x3c37cb0d	0.011217845
29	0x3ee50a0d	0.4473423
30	0x3eb040b6	0.3442437
31	0x3e851431	0.25991967
32	0xbe025d1c	-0.12730831
33	0x3ea4f9b1	0.3222175
34	0x3c995722	0.018718306
35	0xbe6a08df	-0.22854947
36	0xbe896d78	-0.2684133
37	0xbd68a4c1	-0.056797747
38	0x3e55b71f	0.20870636
39	0xbeb49035	-0.3526627
40	0x3ea60faa	0.32433826
41	0xbddd1fd9	-0.1079709
42	0x3e284fd6	0.16436705
43	0xbd4b8a2f	-0.04969233
44	0xbf0495ec	-0.5179126
45	0x3e5d3c16	0.21604952
46	0x3e1cd9c9	0.15317453
47	0x3e035ad3	0.12827615
48	0xbe3c60fb	-0.1839637
49	0xbf4141fb	-0.75491303
50	0xbdb5f02e	-0.08883701
51	0xbe2e1272	-0.16999224
52	0x3dc126d2	0.094312325
53	0xbe3f773a	-0.18697825
54	0x3e136126	0.14392528
55	0x3ecf1c31	0.40451196
56	0xbe0d16e1	-0.13778259
57	0xbe572856	-0.2101148
58	0xbe730b7f	-0.23734854
59	0x3eaa67d9	0.33282354
60	0xbe64c43d	-0.22340484
61	0x3e9be72d	0.3044981
62	0xbe6f2b71	-0.23356415
63	0x3e1587be	0.14602563
64	0x3e72a53b	0.23695843
65	0x3eb9b8fc	0.36273944
66	0xbe43b2ac	-0.19111127
67	0x3eefe39f	0.4685335
68	0x3e2a3a87	0.16623889
69	0xbe57c5cd	-0.21071549
70	0x3e6d13bd	0.23152061
71	0xbed29234	-0.4112717
72	0xbeace475	-0.3376805
73	0x3e3c03f9	0.1836089
74	0x3eb279ac	0.34858453
75	0xbe302949	-0.17203249
76	0x3db338ac	0.08751044
77	0xbcbb9901	-0.022900106
78	0xbe831455	-0.2560145
79	0xbf0b1fe5	-0.5434554
80	0xbeb5875c	-0.35454834
81	0x3df48de5	0.11941127
82	0x3e5cdb30	0.21567988
83	0xbd53e0d2	-0.051728077
84	0x3c987b30	0.018613428
85	0xbcb12f02	-0.02162886
86	0x3e961270	0.29310942
87	0x3e2415d9	0.16023959
88	0xbd6cb38d	-0.05778842
89	0x3f128bb0	0.57244396
90	0xbd2b5aa4	-0.04183449
91	0xbe17946a	-0.14802709
92	0x3e7d6e4e	0.24749109
93	0xbe854c47	-0.26034757
94	0xbe1423c0	-0.14466763
95	0x3e3c801b	0.18408243
96	0xbd8ee0a7	-0.06976443
97	0xbe2646bc	-0.1623792
98	0x3ed84feb	0.42248473
99	0x3f2695d2	0.6507236
100	0xbe5fe251	-0.21863677
101	0xbd5095ba	-0.05092404
102	0x3e4c746b	0.19966285
103	0x3eb7e5c6	0.3591749
104	0xbd4fcf84	-0.05073501
105	0x3ef2650f	0.47342727
106	0xbe4ff2b0	-0.20307422
107	0x3eee6e78	0.46568656
108	0x3e568514	0.20949203
109	0xbbbc5d89	-0.005748455
110	0x3dc90768	0.09815866
111	0x3e5b62aa	0.21424356
112	0xbcd56b5f	-0.026052175
113	0xbeab96dd	-0.33513537
114	0x3cb82eab	0.02248319
115	0xbca14726	-0.019687247
116	0xbe864cae	-0.26230377
117	0xbe19bcb1	-0.15013386
118	0x3e86e482	0.26346213
119	0x3eab6267	0.33473513
120	0x3e8beb5f	0.2732801
121	0x3e2953d5	0.16535886
122	0xbe7637bc	-0.24044698
123	0xbe2998d8	-0.16562212
124	0xbdd5b4b7	-0.10434859
125	0xbe096a70	-0.13419509
126	0xbdedc1cc	-0.116092294
127	0x3f013593	0.5047237
128	0x3b7229b4	0.0036951127
129	0xbe8974e5	-0.26846996
130	0xbe899038	-0.26867843
131	0xbf003fc7	-0.50097317
132	0xbdcc0395	-0.09961621
133	0xbe0355b1	-0.12825657
134	0xbe281d51	-0.16417433
135	0x3d12e077	0.035858598
136	0xbed193af	-0.40932986
137	0xbe5e5143	-0.21710686
138	0xbeb1577b	-0.34637055
139	0xbdaf9ee0	-0.08575225
140	0xbd27ffa8	-0.041015297
141	0x3e382aa4	0.17985016
142	0xbe60cb6b	-0.21952598
143	0x3ec1f149	0.37879398
144	0x3c92cfae	0.017921295
145	0x3e12c170	0.14331603
146	0xbebe7718	-0.37200236
147	0x3e6abc78	0.22923458
148	0x3cddf64f	0.027094988
149	0x3e814da5	0.2525455
150	0x3ed1487f	0.40875623
151	0xbef1ef1f	-0.47252747
152	0x3e98cb92	0.29842812
153	0x3e5fd8b8	0.21860015
154	0xbe148a8b	-0.14505975
155	0xbec15f2d	-0.37767926
156	0x3e5852e9	0.21125378
157	0xbddf59cc	-0.10905799
158	0x3d30ca4e	0.043161683
159	0x3f086622	0.5328084
160	0xbe81065a	-0.25200158
161	0x3d8a7cd2	0.06762089
162	0xbe692970	-0.22769713
163	0x3e29cfb7	0.16583143
164	0xbf0370ea	-0.5134417
165	0x3e78c95d	0.24295564
166	0xbea0a8b5	-0.31378713
167	0xbe060763	-0.13088755
168	0x3e638481	0.22218515
169	0xbf183216	-0.59451425
170	0x3e3d57d9	0.18490542
171	0x3e00f7d7	0.12594543
172	0xbeca64a2	-0.39529902
173	0xbe86deed	-0.26341954
174	0x3e222379	0.15833844
175	0x3e832754	0.25615942
176	0xbe050865	-0.12991484
177	0xbed2bd6d	-0.41160145
178	0x3e6d307b	0.23163025
179	0x3ee7aff9	0.45251444
180	0xbe2e0d07	-0.16997157
181	0x3de0b5d6	0.109721825
182	0xbdaff100	-0.08590889
183	0x3e671da4	0.22569901
184	0xbeee4b70	-0.4654193
185	0xbe74dfa1	-0.23913433
186	0xbd45d64f	-0.048300084
187	0xbe5c7a42	-0.21531013
188	0xbd9623fa	-0.07331081
189	0x3ed687f5	0.41900602
190	0xbe51239a	-0.20423737
191	0x3e348767	0.17629777
192	0x3eb08ed0	0.34483957
193	0x3d1a4402	0.037662514
194	0x3f05f30c	0.52323985
195	0x3dcb7585	0.099345244
196	0x3eda76d2	0.42668778
197	0x3dccf102	0.10006906
198	0x3ebd27b7	0.36944363
199	0x3ea34b35	0.31893316
200	0xbee10688	-0.43950295
201	0x3e381904	0.17978293
202	0xbf004cff	-0.50117487
203	0x3e8d397f	0.2758293
204	0x3f3c75bd	0.73617154
205	0xbeb6cb7b	-0.35702118
206	0xbcb7ea02	-0.02245045
207	0x3e6c899f	0.23099373
208	0x3e786e6a	0.2426087
209	0x3e332110	0.17493081
210	0x3e38caec	0.18046159
211	0xbe9b8e3b	-0.3038195
212	0x3e9d7888	0.3075602
213	0xbe0902aa	-0.13379923
214	0x3f1f02e4	0.62113786
215	0x3ca2b1e7	0.019860221
216	0xbda627c9	-0.08113057
217	0xbe5c4dd3	-0.21514063
218	0xbeeda4e2	-0.46414858
219	0xbf2615ae	-0.6487683
220	0x3e7038e0	0.23459196
221	0x3e0e97b3	0.13925056
222	0x3d8942fa	0.06702228
223	0xbedf37c8	-0.43597245
224	0x3ec86fe9	0.3914788
225	0x3ed9b78b	0.42522845
226	0xbe8e30cb	-0.277716
227	0x3d92e98d	0.071734525
228	0xbea19d4e	-0.31565326
229	0x3f20df4f	0.6284074
230	0xbe904251	-0.28175595
231	0x3ec59387	0.38589117
232	0x3c5bef29	0.013423719
233	0x3e39eb63	0.18156199
234	0x3ee22ad3	0.44173297
235	0xbe999c55	-0.30002084
236	0x3e9675f3	0.29386863
237	0xbebfe0d7	-0.37476227
238	0x3ea2ebab	0.31820425
239	0x3e47eeec	0.19524735
240	0x3e934836	0.2876603
241	0x3d42e7d7	0.04758438
242	0xbc825edd	-0.015914375
243	0x3e89f6c4	0.2694608
244	0xbedf451e	-0.4360742
245	0xbe939a8d	-0.2882885
246	0x3e9aef82	0.30260855
247	0xbe49852d	-0.19679709
248	0xbe5d4fce	-0.21612474
249	0xbe849bcc	-0.25900114
250	0x3efb8ce4	0.4913093
251	0x3e8d0542	0.27543074
252	0x3ee2e371	0.4431415
253	0xbea1e040	-0.31616402
254	0x3ebd0378	0.3691671
255	0xbeda5a87	-0.42647192

embedding.bias f4 [64]
0	0x3edeaeca	0.43492728
1	0xbdc9c1d7	-0.09851425
2	0xbd9aa775	-0.07551471
3	0x3eb15376	0.34633988
4	0x3e87b769	0.26507118
5	0x3f033947	0.51259273
6	0x3e6e5f8f	0.2327864
7	0xbb02c887	-0.001995595
8	0xbeccc8f4	-0.39997065
9	0x3dbe5d13	0.09295096
10	0xbea9b727	-0.33147547
11	0xbceb9683	-0.028758293
12	0x3eb6b4ef	0.35684916
13	0x3e34aa62	0.17643121
14	0xbec54c55	-0.385348
15	0x3eabadb9	0.33530977
16	0xbe84ebec	-0.25961244
17	0xbe64890b	-0.22317903
18	0x3da59a8d	0.08086119
19	0x3e1da338	0.15394294
20	0x3ed1c026	0.4096691
21	0xbec9dc41	-0.39425853
22	0x3e24156e	0.160238
23	0xbe103200	-0.14081573
24	0xbebd72bc	-0.37001598
25	0x3f023a48	0.5087018
26	0xbef96cee	-0.4871592
27	0xbed1ffba	-0.41015416
28	0x3e996a89	0.29964092
29	0xbec6257e	-0.3870048
30	0xbee89851	-0.45428708
31	0xbcc48b07	-0.023992075
32	0x3e9c623b	0.30543694
33	0x3e772a20	0.24137163
34	0xbeb7fa59	-0.35933188
35	0xbe474e98	-0.19463575
36	0x3e40f530	0.18843532
37	0x3eacf84a	0.3378318
38	0xbd229f10	-0.039702475
39	0x3e72d4ba	0.23713961
40	0x3d91d154	0.07120004
41	0xbe418371	-0.18897797
42	0xbed6efca	-0.4197982
43	0x3e9a7cb1	0.30173257
44	0xbd36f000	-0.044662476
45	0x3ea2661d	0.3171853
46	0xbd4da5d4	-0.050206974
47	0xbe7c267a	-0.24624053
48	0xbdaf4759	-0.0855853
49	0x3eb29bff	0.3488464
50	0x3e7475d2	0.2387307
51	0x3905204e	0.00012695903
52	0xbc80c1b9	-0.015717374
53	0x3dc7e175	0.097597994
54	0xbe5f530b	-0.21809022
55	0xbe786a52	-0.24259308
56	0xbd1c78fd	-0.03820132
57	0x3e30a3ff	0.1725006
58	0xbed6c814	-0.41949522
59	0xbeeae484	-0.4587747
60	0x3ec93405	0.392975
61	0xbdc72050	-0.0972296
62	0x3ea2cc51	0.31796506
63	0x3ca4788d	0.020077014

transformer_encoder.layers.0.self_attn.in_proj_weight f4 [192, 64]
0	0x3e1e2a6e	0.15445873
1	0x3caaa7fb	0.020832052
2	0xbe1a82aa	-0.15088907
3	0x3dc04ecb	0.093900286
4	0x3aa3e09d	0.0012502853
5	0x3e2316b1	0.15926625
6	0x3e5798aa	0.2105433
7	0xbda30b32	-0.0796112
8	0x3df91b9f	0.121634714
9	0x3cff4259	0.031159567
10	0xbd710c54	-0.058849648
11	0xbc6b5726	-0.0143640395
12	0x3e50f0fa	0.20404425
13	0xbcf54c71	-0.029943677
14	0xbd2c3a85	-0.042047996
15	0x3d82cc46	0.06386618
16	0x3b3d5a33	0.0028892874
17	0x3e58d096	0.21173319
18	0xbd9cb8d2	-0.07652439
19	0xbcd19761	-0.025584878
20	0xbb69ef3a	-0.0035695569
21	0xbc98ae5a	-0.018637825
22	0x3dc83241	0.0977521
23	0xbe1d7e6c	-0.15380257
24	0xbd0de8d2	-0.034645863
25	0x3e53f5b4	0.20699197
26	0xbdc5b74a	-0.096541
27	0x3d3d96a1	0.04628623
28	0x3d6c2724	0.057654515
29	0x3d6ee485	0.058323402
30	0xbd9c090d	-0.07618914
31	0x3e19b085	0.15008743
32	0x3c69a94f	0.014261558
33	0x3cab4e28	0.020911291
34	0xbe1710c4	-0.1475249
35	0x3da4edbe	0.08053158
36	0x3d9c527b	0.076329194
37	0x3d4e1b28	0.050318867
38	0xbd75ec86	-0.06004002
39	0x3e429cd4	0.19005138
40	0xbc85f8aa	-0.016353924
41	0x3c9c8912	0.019108329
42	0x3d04693e	0.03232693
43	0x3e41a891	0.18911959
44	0x3d7c529f	0.06160223
45	0x3dceebd5	0.10103575
46	0xbd289530	-0.0411579
47	0x3e461a0a	0.1934587
48	0x3e3a27e1	0.18179275
49	0x3e16172a	0.14657274
50	0x3de89bf1	0.113578685
51	0x3e0179df	0.12644146
52	0x3dbf2c6c	0.09334645
53	0x3e0bf246	0.13666639
54	0xbc008701	-0.007844687
55	0x3e6266c3	0.22109513
56	0xbc4d4e9b	-0.012530948
57	0x3d9d8be0	0.07692695
58	0xbdf7b491	-0.12094987
59	0x3da3b16d	0.07992826
60	0x3cb7b5d8	0.022425577
61	0x3e38532d	0.18000479
62	0x3e1298cb	0.14316098
63	0x3e398813	0.18118314
64	0xbd6168ba	-0.055031516
65	0x3d7eb154	0.062180832
66	0x3dc37897	0.09544485
67	0xbd1b7a66	-0.037958525
68	0xbdb8a831	-0.09016455
69	0xbd190d6f	-0.037366327
70	0x3d9e5918	0.07731837
71	0x3dc6c224	0.09704998
72	0xbdaa8526	-0.08326177
73	0xbdd29a47	-0.10283332
74	0x3df9483d	0.121719815
75	0x3d8854a4	0.06656769
76	0x3a17594b	0.00057734986
77	0xbc0d3d92	-0.008620637
78	0xbd3fa2af	-0.046786007
79	0x3d08571e	0.033286206
80	0xba57d139	-0.0008232776
81	0x3cb9acac	0.022665344
82	0x3e07d658	0.1326536
83	0xbd9f3085	-0.07772926
84	0x3cc6fe81	0.024291279
85	0xbe235871	-0.15951706
86	0xbdc06714	-0.093946606
87	0x3da1131f	0.07864975
88	0xbdd0289b	-0.10163995
89	0xbcdacef8	-0.026710019
90	0x3db039e0	0.08604789
91	0x3de4b71e	0.11167739
92	0xbd5750a1	-0.052567128
93	0x3d8e8244	0.0695844
94	0x3c924c85	0.017858753
95	0xbdbcbd90	-0.09215844
96	0xbd3b791a	-0.04576979
97	0xbe112e94	-0.14177924
98	0xbda494f1	-0.08036221
99	0xbd48da0f	-0.049036082
100	0x3ca1f831	0.019771667
101	0x3e03191d	0.12802549
102	0x3dc85f50	0.097838044
103	0x3d85e6dc	0.065381736
104	0x3ca94909	0.020664709
105	0x3d8a7135	0.06759874
106	0x3c0b730d	0.008511317
107	0xbdd80d66	-0.105494305
108	0x3d1bf35a	0.038073875
109	0x3c8442c5	0.01614512
110	0xbe0cb3f9	-0.13740529
111	0x3df14eaf	0.11782586
112	0x3d1b9f83	0.03799392
113	0xbe1d6218	-0.15369451
114	0xbc865b22	-0.016400877
115	0x3d2de70a	0.042456664
116	0xbdfabbef	-0.12242877
117	0x3d98465c	0.07435295
118	0xbdb3a0f8	-0.08770937
119	0x3df4a97b	0.11946388
120	0xbc483009	-0.012218484
121	0xbda3e287	-0.08002191
122	0x3ca5e8c9	0.020252602
123	0x3e09a927	0.13443433
124	0xbe11cd53	-0.14238481
125	0x3ddee44a	0.108833864
126	0xbd8ae080	-0.06781101
127	0x3dc7aa46	0.09749274
128	0xbd6fc22d	-0.05853479
129	0xbe3554d7	-0.17708145
130	0xbe963965	-0.29340664
131	0x3d0e1866	0.034691237
132	0xbdc8dcd3	-0.09807744
133	0x3db35f99	0.08758468
134	0x3d4c63b1	0.04989976
135	0x3dd40ab5	0.10353605
136	0xbd3b72e2	-0.045763858
137	0x3df8765c	0.1213195
138	0x3db00991	0.08595575
139	0x3c55688b	0.013025413
140	0xbd67f8ce	-0.056633763
141	0x3dc87929	0.097887345
142	0x3e0584b4	0.13038903
143	0xbc5c5942	-0.013449015
144	0x3df4d5e1	0.11954857
145	0x3e28512f	0.16437219
146	0xbcfba35d	-0.030717546
147	0x3e5ad122	0.2136884
148	0x3e1ff1eb	0.15619628
149	0xbd8c4f2b	-0.068510376
150	0x39a8c3f7	0.00032189462
151	0x3d4e14c8	0.050312787
152	0x3d551fb9	0.052032206
153	0x3dbdb535	0.09263078
154	0x3d9e62e9	0.07733709
155	0x3a9a73f5	0.0011783825
156	0x3cd8f6ad	0.026484812
157	0x3e179eeb	0.14806716
158	0xbd539d77	-0.051663842
159	0x3e040457	0.1289228
160	0x3d399960	0.045312285
161	0x3df766a6	0.120801255
162	0x3cce4885	0.025181064
163	0xbcd626b6	-0.026141506
164	0xbdbe6966	-0.09297447
165	0x3db50d10	0.08840382
166	0x3da32f80	0.07968044
167	0x3dce8a8e	0.10085021
168	0x3e637c93	0.2221549
169	0x3dfedcae	0.12444435
170	0x3e0e167b	0.13875763
171	0x3e2dbce7	0.16966592
172	0xbc9cbe88	-0.019133821
173	0xbd55b950	-0.05217868
174	0xbc60ef51	-0.0137289325
175	0x3d14bebb	0.036314707
176	0x3daf54b5	0.085610785
177	0x3c18fb16	0.009337207
178	0x3e040203	0.12891392
179	0x3ce3fa8d	0.027829433
180	0x3da585ee	0.08082186
181	0x3d339803	0.04384614
182	0xbe2b9b86	-0.16758546
183	0x3c82da4e	0.015973236
184	0x3aef0f7d	0.0018238869
185	0xbdb40317	-0.08789652
186	0xbe042a7e	-0.12906834
187	0x3dfdb905	0.12388805
188	0x3d964f14	0.07339302
189	0x3e24e9d8	0.1610483
190	0x3de7655f	0.11298632
191	0x3d0f40d8	0.03497395
192	0x3dea4d6b	0.114405476
193	0x3d9ccef2	0.07656659
194	0x3da07fd0	0.07836878
195	0xbd135ca5	-0.035977025
196	0xbd9aa8af	-0.07551705
197	0xbe049081	-0.12945749
198	0xbd604923	-0.05475725
199	0x3e582648	0.21108353
200	0xbd4facc6	-0.05070188
201	0xbdaafe66	-0.08349304
202	0xbd0e58b0	-0.034752548
203	0x3daa0dbb	0.083034
204	0xbe2723c7	-0.16322242
205	0xbe324321	-0.1740842
206	0x3b9c63b2	0.004772627
207	0x3dc2ba55	0.09508196
208	0xbd803089	-0.06259257
209	0xbdce54b1	-0.10074747
210	0xbdf90ffe	-0.121612534
211	0x3bc14bdf	0.005898937
212	0xbd9f5557	-0.07779949
213	0xbd8eb966	-0.06968956
214	0x3c8919d5	0.01673595
215	0x3e034647	0.12819777
216	0x3cf72893	0.030170714
217	0xbe081e74	-0.13292867
218	0x3d79585b	0.060875278
219	0x3e67178c	0.22567576
220	0x3d3a74a9	0.045521412
221	0xbe3f7809	-0.18698134
222	0xbd08be2b	-0.033384483
223	0xbdc44492	-0.09583391
224	0x3a855c8c	0.0010174676
225	0xbd6e9072	-0.058243223
226	0xbc79db94	-0.015250105
227	0xbe43d92f	-0.19125818
228	0xbb6e60c9	-0.0036373606
229	0xbba76101	-0.0051079993
230	0x3d2e15e0	0.04250133
231	0xbd41a69f	-0.047278043
232	0xbe3b8565	-0.18312605
233	0xbdf22415	-0.11823288
234	0xbe0c067d	-0.1367435
235	0xbe13f537	-0.14449011
236	0xbd851f26	-0.06500082
237	0xbe55c296	-0.2087501
238	0xbd0cb70e	-0.034354262
239	0xbd9e05e5	-0.07715968
240	0xbc610966	-0.013735151
241	0xbe1f879d	-0.15579076
242	0x3c696a09	0.014246472
243	0xbdd55a54	-0.10417619
244	0xbea5965a	-0.32341272
245	0xbe436de7	-0.19084893
246	0x3ddb38a4	0.10704163
247	0x3b34d498	0.0027592536
248	0xbda09a08	-0.07841879
249	0x3bdbc454	0.0067067537
250	0xbbfd2453	-0.0077252774
251	0x3e0da788	0.1383344
252	0xbe8425d6	-0.25810117
253	0xbe473c58	-0.19456613
254	0xbdc26b08	-0.09493071
255	0x3d12e6c9	0.035864625

transformer_encoder.layers.0.self_attn.in_proj_bias f4 [192]
0	0x3da29695	0.079388775
1	0xbcb4aaf7	-0.022054179
2	0x3d2c6b41	0.042094473
3	0xbd541945	-0.05178191
4	0xbd5c16c1	-0.053732637
5	0xbd3af6b7	-0.04564544
6	0x3d9bd341	0.07608653
7	0xbdb79413	-0.0896379
8	0xbdd4b2ad	-0.10385642
9	0xbdbda35d	-0.09259675
10	0x3dafc41a	0.08582325
11	0xbcebafd1	-0.02877036
12	0xbe1a6361	-0.15076973
13	0x3d08b281	0.03337336
14	0x3d739023	0.05946363
15	0xbd4a7512	-0.049428053
16	0x3d964caa	0.07338841
17	0x3d4b3b33	0.049617004
18	0x3d9a125f	0.07523035
19	0x3cf3bcbb	0.02975308
20	0x3ce73538	0.028223619
21	0xbcf4612f	-0.029831497
22	0xbc12cb81	-0.008959652
23	0xbd8adbec	-0.06780228
24	0x3d0aaa82	0.033854015
25	0x3d428f11	0.04749972
26	0xbd96f8f3	-0.07371702
27	0x3d3c50d0	0.045975506
28	0x3d6434d6	0.05571445
29	0xbd8bea7f	-0.06831836
30	0x3c1ce2ed	0.009575588
31	0x3d89c253	0.067265175
32	0x3d7d3fa0	0.061828256
33	0xbd8f93c3	-0.07010605
34	0xbdcd81ab	-0.10034498
35	0x3de4f657	0.11179798
36	0xbc79383b	-0.01521116
37	0x3d0e0cf3	0.034680318
38	0xbd81cc09	-0.06337745
39	0x3db369e9	0.08760435
40	0xbcfb0fd2	-0.030647192
41	0x3dbfbd4b	0.09362277
42	0x3bf9774a	0.0076130973
43	0x3ddbdb86	0.1073523
44	0xbdadc7ed	-0.084853984
45	0xbe08acfb	-0.13347237
46	0x3dc10cc1	0.09426261
47	0x3d3ce77a	0.04611919
48	0xbd6dc1c5	-0.05804612
49	0xbd92649f	-0.07148098
50	0x3db6882d	0.08912692
51	0xbdbd8bcc	-0.0925518
52	0xbdb6bbba	-0.08922525
53	0xbd80adab	-0.062831245
54	0xbe1ac5cc	-0.15114516
55	0xbdb34efb	-0.08755299
56	0xbb867f37	-0.0041045207
57	0x3cbc3340	0.022973657
58	0xbda3eb84	-0.080039054
59	0x3deb016b	0.1147488
60	0x3d022623	0.03177465
61	0xbd8c00a7	-0.06836062
62	0x3d5f0f01	0.05445767
63	0xbde0770f	-0.109602086
64	0xba916e9b	-0.0011095585
65	0xba079163	-0.00051715056
66	0xba81cf8e	-0.0009903775
67	0x38fbca02	0.000120062396
68	0x3a3e5638	0.00072607724
69	0x39c8cdb6	0.0003830024
70	0xbab1f4e8	-0.0013577016
71	0x3a999065	0.0011716007
72	0x3aede4a8	0.001814981
73	0x3adb44bd	0.001672886
74	0xb9b72e63	-0.0003493904
75	0x3a5c6002	0.000840664
76	0x3a83ddd8	0.0010060621
77	0xba698569	-0.00089081243
78	0xbab4be94	-0.0013789707
79	0x3a1467d2	0.00056612224
80	0xba467a5d	-0.0007571334
81	0xba9a7eb3	-0.0011787027
82	0xba1b7d92	-0.0005931492
83	0xba90df4a	-0.0011052873
84	0xbaba5917	-0.0014217225
85	0xb9c0674e	-0.00036698062
86	0xb9ecfecf	-0.00045203275
87	0x3a3446d6	0.00068770105
88	0xba8a6f55	-0.0010561744
89	0xba51ac0d	-0.0007998355
90	0x3a580516	0.0008240504
91	0xba4075ab	-0.00073417526
92	0xba51ff2f	-0.00080107426
93	0x3a846482	0.0010100754
94	0x3a9de6bf	0.0012046917
95	0xba8e4ff6	-0.001085757
96	0xba58aa15	-0.00082650903
97	0x3a41c58f	0.0007391804
98	0xbab6a200	-0.0013933778
99	0x3a533186	0.0008056391
100	0xb8942d82	-7.0656664e-05
101	0xbb389018	-0.0028162058
102	0xb92b72a7	-0.00016350542
103	0xba7040e0	-0.00091649406
104	0x3b042d61	0.002016865
105	0x3ace2f57	0.0015730661
106	0x3b3315fe	0.002732634
107	0x3ace4372	0.0015736653
108	0x3b278eff	0.002556741
109	0xbad328b5	-0.0016110154
110	0xbb0dffb3	-0.0021667301
111	0x3a318c5a	0.0006772928
112	0xbaa3aa78	-0.0012486717
113	0x39cf6d79	0.0003956368
114	0x3a87a015	0.0010347391
115	0xbaa74ad7	-0.0012763393
116	0x3933de30	0.00017153542
117	0xba14efa3	-0.00056814606
118	0xbb4e2d9d	-0.0031460293
119	0xbb0a9bba	-0.002114995
120	0xba9cb319	-0.0011955231
121	0xb9e9a671	-0.00044565232
122	0xbaa0e31a	-0.0012274713
123	0x3b14f878	0.0022731107
124	0xba10c4b5	-0.00055224757
125	0x39e1889d	0.0004301713
126	0x3b32dc36	0.00272919
127	0xbab70b1e	-0.0013965105
128	0xbceb9344	-0.028756745
129	0x3d4982d9	0.04919705
130	0xbd042f22	-0.03227151
131	0xbca04eed	-0.019568885
132	0x3d5c2552	0.05374653
133	0x3d414f61	0.047194842
134	0x3c9fbc24	0.019498892
135	0x3cb9f1dd	0.022698337
136	0xbd251b05	-0.04030897
137	0xbd6aa5ec	-0.05728714
138	0x3c8cc313	0.017182862
139	0x3d89c62b	0.06727251
140	0x3d6d7356	0.05797132
141	0xbd8053fa	-0.06266017
142	0x3d24d0be	0.040238135
143	0x3d7092da	0.0587338
144	0x3d25e257	0.040499058
145	0x3d61c118	0.05511579
146	0xbd46dc6d	-0.04855006
147	0xbd0698ed	-0.032860685
148	0x3d4d70c6	0.050156377
149	0x3d5e1c79	0.054226372
150	0xbd42dbf9	-0.047573064
151	0xbdce788f	-0.100815885
152	0xbdb70fe7	-0.0893858
153	0x3d838ac0	0.06422949
154	0x3d394a18	0.045236677
155	0x3d5bb6c4	0.053641096
156	0x3cac4e7a	0.021033514
157	0x3d99e423	0.07514217
158	0x3dc317fe	0.095260605
159	0xbbab61d2	-0.005230167
160	0x3d2bbda6	0.04192891
161	0xbd79430c	-0.060854957
162	0xbd6e1179	-0.058122132
163	0x3d910bd6	0.07082336
164	0xbd70bd68	-0.058774382
165	0x3db1c1fe	0.08679579
166	0x3cd7b12c	0.0263296
167	0x3d3d802f	0.046264824
168	0xbcb970e9	-0.022636848
169	0xbd29735d	-0.041369785
170	0x3c92eec6	0.017936122
171	0xbd7723a0	-0.06033671
172	0xbdade4b3	-0.084908865
173	0x3d5ec147	0.054383542
174	0x3c59cfc4	0.013294164
175	0xbd06df40	-0.03292775
176	0xbd93d1c5	-0.07217745
177	0x3d0b3dea	0.033994593
178	0x3d7892d4	0.0606869
179	0x3dacd734	0.08439484
180	0x3c12300d	0.008922589
181	0x3b7cdf4b	0.0038585241
182	0x3d7b1cbb	0.061306696
183	0xbd28c075	-0.041199166
184	0x3d61007d	0.054932106
185	0x3d2012e9	0.039080534
186	0x3d86d54b	0.06583651
187	0xbd3ddef5	-0.046355207
188	0xbd04b431	-0.032398406
189	0x3d8b336b	0.067969166
190	0xbc967ed5	-0.018371025
191	0x3d9ae53b	0.075632535

transformer_encoder.layers.0.self_attn.out_proj.weight f4 [64, 64]
0	0x3db03f4d	0.08605824
1	0x3e0e4b1d	0.13895841
2	0x3d49f6cc	0.04930763
3	0x3d973b53	0.07384362
4	0x3dc018fa	0.09379764
5	0xbd1e4792	-0.038642474
6	0xbd158556	-0.036504112
7	0x3db22b4d	0.08699665
8	0xbcb85274	-0.022500254
9	0x3abb68b2	0.0014298169
10	0xbddbe381	-0.10736752
11	0xbdaf3672	-0.085553065
12	0xbc8385fb	-0.016055098
13	0x3c4c7244	0.012478415
14	0x3de340af	0.11096322
15	0xbe054456	-0.1301435
16	0x3e0e3ca9	0.13890328
17	0xbcd25119	-0.025673436
18	0x3c823c2d	0.015897835
19	0x3d1a7da9	0.037717495
20	0xbd54a351	-0.051913563
21	0xbde8027f	-0.11328601
22	0x3e0e7d25	0.13914926
23	0x3e0e2c01	0.13883974
24	0x3d6bec57	0.057598438
25	0x3d6b5981	0.057458404
26	0xbb239304	-0.0024959454
27	0xbdc0c6f8	-0.0941295
28	0xbe151101	-0.14557268
29	0x3cad2ced	0.021139586
30	0xbdf048bd	-0.11732624
31	0xbd1305d3	-0.035894226
32	0x3d17b26f	0.037035402
33	0x3e46250b	0.19350068
34	0xba4d7fe0	-0.0007839184
35	0x3d403aef	0.046931203
36	0x3e37e022	0.17956594
37	0x3cf35156	0.02970187
38	0xbb1c836e	-0.002388205
39	0x3e081bd3	0.13291864
40	0xbdcf56f8	-0.1012401
41	0x3daed2a5	0.08536271
42	0xbe16c9d4	-0.14725429
43	0xbddbc14e	-0.10730229
44	0x3dcf1d94	0.101130635
45	0xbc7b0359	-0.015320622
46	0xbdc560ed	-0.09637628
47	0xbdc0e852	-0.094193116
48	0x3d52284b	0.051307958
49	0xbb634b19	-0.0034682213
50	0xbd755c08	-0.05990222
51	0xbe2df880	-0.16989326
52	0xbd51991c	-0.051171407
53	0x3c31b1a2	0.010845574
54	0x3e02985b	0.12753431
55	0xbcd3c697	-0.025851531
56	0x3d667294	0.056261614
57	0xbddfa208	-0.10919577
58	0xbe1a04cf	-0.15040897
59	0xbddfb65d	-0.10923455
60	0xbe0dc51c	-0.13844723
61	0x3d109470	0.03529781
62	0xbe211560	-0.1573081
63	0xbd4d4013	-0.050109934
64	0xbe142930	-0.14468837
65	0x3d3a5fa0	0.04550135
66	0xbd5a1241	-0.053240065
67	0xbda77fe7	-0.08178692
68	0xbda9f06a	-0.082978085
69	0xbd1a18ad	-0.03762119
70	0xbd417d76	-0.04723879
71	0xbd928605	-0.071544684
72	0x3b3be359	0.0028669445
73	0x3c9f8c97	0.019476218
74	0x3e5573d9	0.20844974
75	0x3d5fd7b1	0.05464906
76	0xbd2da356	-0.042392097
77	0x3df33154	0.11874643
78	0xbc7bf501	-0.015378238
79	0x3dc2707c	0.09494111
80	0xbdcc5260	-0.09976649
81	0xbe351792	-0.17684773
82	0x3df946ae	0.12171684
83	0x3e30ea98	0.1727699
84	0xbd5e9458	-0.05434069
85	0x3dd11420	0.10208917
86	0xbd3a8707	-0.04553893
87	0xbe3bd5f6	-0.18343338
88	0x3e0d6562	0.13808206
89	0x3e1ac1c2	0.15112975
90	0x3dfe32f1	0.1241206
91	0x3e159a8e	0.14609739
92	0xbd2f8312	-0.042849608
93	0xbd1e1893	-0.038597655
94	0x3cc9bbe5	0.024625728
95	0xba92e2ba	-0.0011206486
96	0xbddc924a	-0.1077009
97	0x3d583363	0.05278338
98	0xbe186b04	-0.14884573
99	0xbe3534bb	-0.17695896
100	0xbd1b6177	-0.037934747
101	0x3d331864	0.043724433
102	0xba80160c	-0.0009772195
103	0xbd52a7a8	-0.05142942
104	0x3dcdfff6	0.10058586
105	0xbe00a0e6	-0.12561378
106	0x3e2cd7ad	0.16879149
107	0xbc8b8209	-0.017029779
108	0xbe0f0d0f	-0.13969825
109	0xbd8238e4	-0.06358507
110	0xbdc02d4b	-0.09383639
111	0xbd31438c	-0.04327731
112	0xbd830e02	-0.06399156
113	0x3e1c80ac	0.1528346
114	0x3d753edc	0.0598744
115	0x3e18ee73	0.14934711
116	0x3ce83b91	0.028348716
117	0xbd35d98f	-0.044396933
118	0xbdb70724	-0.08936909
119	0x3e37644f	0.17909358
120	0xbc26473d	-0.0101488205
121	0x3db013ce	0.085975274
122	0x3e0958ef	0.13412832
123	0x3d1e4c90	0.038647234
124	0x3e052e0f	0.13005851
125	0x3d6a4be2	0.057201274
126	0xbb98d432	-0.0046639675
127	0xbca30553	-0.0199
128	0x3daa84c9	0.08326108
129	0xbd250b8c	-0.040294215
130	0x3d4c162a	0.049825825
131	0xbda593c6	-0.08084826
132	0xbe06f8a3	-0.13180785
133	0xbd4fd8eb	-0.05074398
134	0xbd14f010	-0.036361754
135	0xbdb8b5ce	-0.090190515
136	0x3deee109	0.11664016
137	0xbcc8d287	-0.02451445
138	0x3ddb6d9d	0.107142664
139	0xbc342441	-0.010994972
140	0x3c5445b7	0.012956074
141	0x3ce9b78b	0.028529903
142	0xbdba90d1	-0.09109653
143	0xbd638e8d	-0.05555587
144	0xbd39f96e	-0.04540389
145	0xbe04efee	-0.12982151
146	0x3dae7862	0.08519055
147	0x3dfb8554	0.1228129
148	0x3c460eac	0.012088459
149	0x3d3609c0	0.044442892
150	0xbdca740a	-0.09885414
151	0x3c17e7f1	0.009271608
152	0x3e0bcab4	0.13651544
153	0xbc32b9f7	-0.010908595
154	0x3e1781fe	0.14795682
155	0x3bfcf39e	0.007719471
156	0x3e2747e6	0.16336021
157	0x3e157ac0	0.14597607
158	0x3c4c8435	0.0124826925
159	0x3e319e5d	0.17345567
160	0xbe0815d5	-0.13289578
161	0xbde286ef	-0.11060893
162	0xbb864089	-0.0040970487
163	0xbdec198e	-0.11528312
164	0xbe2eed50	-0.17082715
165	0xbdb379ce	-0.08763467
166	0x3e1f67a3	0.15566878
167	0xbd82d560	-0.06388354
168	0xbc65c426	-0.014023816
169	0xbe008c9a	-0.12553635
170	0x3cee879a	0.029117394
171	0x3cb6d3ca	0.022317786
172	0xbe3eb201	-0.1862259
173	0xbd71f204	-0.059068695
174	0xbe10ae34	-0.14128953
175	0xbcce31d9	-0.025170254
176	0xbe1deadc	-0.15421623
177	0x3e2a7572	0.16646364
178	0xbbddf347	-0.0067733857
179	0x3da34c7c	0.079735726
180	0xbe2dc870	-0.16970992
181	0xbbd5a89a	-0.006520343
182	0xbc9df1af	-0.019280283
183	0xbd685a64	-0.05672683
184	0x3de22442	0.11042072
185	0x3a3c044c	0.0007172271
186	0xbd81abef	-0.06331622
187	0xbd8a7f75	-0.06762592
188	0x3e1289fa	0.14310446
189	0x3de540fd	0.11194036
190	0x3e293731	0.1652496
191	0x3cd08d4b	0.025457999
192	0x3d7825b9	0.06058285
193	0xbd8d50c9	-0.06900174
194	0x3dc895f9	0.0979423
195	0x3db1bcac	0.086785644
196	0xbcaa42ef	-0.02078387
197	0xbdc6901b	-0.09695455
198	0xbd6f0204	-0.05835153
199	0xbdb12a56	-0.08650653
200	0x3cdb5137	0.026772125
201	0x3d48d837	0.049034324
202	0x3d3e6c33	0.046489906
203	0xbd825214	-0.063633114
204	0x3d5c7668	0.05382386
205	0xbacaf0ae	-0.0015483105
206	0xbdf68fe0	-0.12039161
207	0xbdc4c32d	-0.09607539
208	0x3dacb4be	0.08432911
209	0xbe0ad107	-0.135563
210	0x3c2fd388	0.010731585
211	0x3cabb20b	0.020958921
212	0xbdce5918	-0.10075587
213	0x3d7e8fbd	0.0621488
214	0xbd57f0e6	-0.052719973
215	0xbb09e9ad	-0.0021043823
216	0xbd0d96a3	-0.034567486
217	0x3d1f06e4	0.03882493
218	0x3d36661c	0.044530973
219	0x3e259c18	0.16172826
220	0x3d3ba35e	0.045810096
221	0x3c97c4b8	0.01852642
222	0x3e0a4891	0.13504244
223	0x3e1536ae	0.1457164
224	0x3e00a461	0.12562706
225	0xbdcb2510	-0.099191785
226	0x3d5d0016	0.05395516
227	0xbe166646	-0.14687452
228	0xbe11450d	-0.14186497
229	0xbd89d4b7	-0.06730025
230	0xbdd1dbdf	-0.10247015
231	0x3c7ddb76	0.015494218
232	0x3de2712e	0.110567436
233	0x3d95152a	0.07279427
234	0x3e48ba65	0.19602354
235	0x3bcdfc91	0.006286212
236	0xbda2b79f	-0.07945179
237	0x3dcb9e34	0.09942284
238	0x3d4e8b59	0.05042586
239	0xbd3079bb	-0.04308484
240	0x3dd6e3c8	0.104926646
241	0xbdcceec6	-0.1000648
242	0x3d9fd267	0.07803803
243	0x3d9a28f5	0.07527343
244	0xbca1b2d9	-0.019738602
245	0x3dd12d85	0.1021376
246	0x3d9f0c77	0.07766049
247	0xbdaa23c0	-0.083076
248	0x3c87cb1a	0.016576339
249	0x3b68c9ee	0.003552075
250	0xbdccddc7	-0.10003238
251	0xbcfa29c8	-0.030537501
252	0x3c2b163c	0.010442313
253	0xbc0faf44	-0.008769814
254	0x3e2a1552	0.16609696
255	0xbe0ed81f	-0.13949631

transformer_encoder.layers.0.self_attn.out_proj.bias f4 [64]
0	0x3d5dd6bc	0.054159865
1	0xbd753f2f	-0.05987471
2	0xbd69c3e6	-0.05707159
3	0xbd2b44ae	-0.041813545
4	0x3d67b486	0.056568645
5	0x3cb1e7e4	0.02171702
6	0x3d9dafcf	0.076995485
7	0x3b6bca77	0.0035978833
8	0xbd9102f9	-0.07080645
9	0xbd3b8a05	-0.045785923
10	0xbdaba535	-0.0838112
11	0x3d40eaca	0.047098912
12	0x3d98a3ed	0.07453141
13	0x3d81c108	0.06335646
14	0xbd4f8d2a	-0.050671734
15	0x3c0f5a0d	0.008749497
16	0xbd7a8a2c	-0.061166927
17	0xbd4233db	-0.047412734
18	0x3d87da75	0.06633464
19	0x3c9798b1	0.018505426
20	0x3d5c7915	0.05382641
21	0x3d40b8bd	0.04705118
22	0x3cc6c21a	0.024262477
23	0x3c7d09a2	0.015444191
24	0x3d853974	0.06505099
25	0x3da028d5	0.07820288
26	0xbcbb5617	-0.0228682
27	0xbd78d389	-0.06074861
28	0x3d4a4547	0.049382474
29	0x3d172c7b	0.036907654
30	0xbc85acc7	-0.016317738
31	0x3d743d75	0.059628922
32	0x3ce55aa6	0.027997326
33	0x3cf34b92	0.02969912
34	0xbd662f71	-0.056197587
35	0xbd63e66e	-0.055639677
36	0xbd27f47d	-0.041004647
37	0x3d692060	0.05691564
38	0xbdabe386	-0.08393006
39	0x3d6b6f89	0.057479415
40	0xbd0016b0	-0.031271636
41	0xbd2c8317	-0.042117205
42	0xbda0228f	-0.078190915
43	0xbd83abae	-0.0642923
44	0xbd9039db	-0.07042285
45	0x3d85d2ef	0.06534373
46	0x3d697b93	0.057002615
47	0x3d2227c5	0.03958871
48	0xbd5de0c7	-0.054169443
49	0x3c7b2e19	0.015330815
50	0x3d9cec23	0.07662227
51	0x3d23d7a7	0.040000584
52	0x3d9ccc41	0.07656146
53	0xbc00da20	-0.007864505
54	0xbd8e244b	-0.06940516
55	0xbd5186fb	-0.051154118
56	0x3d5e1511	0.05421931
57	0x3d9586c1	0.07301093
58	0xbd794d62	-0.060864814
59	0xbd48533f	-0.048907515
60	0x3d844856	0.064591095
61	0x3db3163e	0.08744477
62	0xbd4f34a1	-0.0505873
63	0xbd7540d0	-0.059876263

transformer_encoder.layers.0.linear1.weight f4 [128, 64]
0	0x3cfc0326	0.03076322
1	0x3dec25cf	0.11530649
2	0x3d2b9dd5	0.041898567
3	0xbc761c75	-0.015021433
4	0xbe0f46fe	-0.13991925
5	0xbe0ad023	-0.1355596
6	0xbe5beeb9	-0.21477784
7	0x3ddf7ac6	0.10912089
8	0x3d8fd773	0.070235156
9	0x3d999755	0.074995674
10	0x3cd7667a	0.026293982
11	0x3e3cd21a	0.18439522
12	0xbd694251	-0.05694801
13	0xbd0d4cf6	-0.034497224
14	0x378d7d48	1.6866848e-05
15	0x3b834451	0.0040059467
16	0x3d7789b8	0.060434073
17	0x3cce0fed	0.025154078
18	0xbd80866e	-0.062756404
19	0x3d9dc82e	0.07704197
20	0x3cd3ef90	0.025871068
21	0x3e39e6c9	0.18154444
22	0x3dd4e5e4	0.10395411
23	0xbd66dad3	-0.05636103
24	0x3df939e2	0.121692434
25	0x3d129596	0.035787188
26	0xbce37f79	-0.027770745
27	0xbc22d827	-0.00993923
28	0xbdd80999	-0.105487056
29	0xbc83832b	-0.016053757
30	0xbe2a222e	-0.16614601
31	0x3df02a63	0.117268346
32	0xbdd3554b	-0.10319003
33	0xbdd96878	-0.10615629
34	0xbc979796	-0.018504899
35	0xbdcdcec8	-0.10049206
36	0xbdc004b7	-0.09375899
37	0xbde755a1	-0.11295629
38	0xbd1ba389	-0.037997756
39	0xbe4a46a3	-0.19753508
40	0xbc5c942a	-0.013463059
41	0xbdd999dc	-0.106250495
42	0x3dc58ddc	0.09646198
43	0xbd933fd4	-0.071899086
44	0x3e15806a	0.14599767
45	0x3d181109	0.03712562
46	0xbe645d77	-0.22301279
47	0x3e01eb54	0.12687427
48	0xbd89bc27	-0.0672534
49	0xbd732fe2	-0.059371836
50	0x3cc0163c	0.023448102
51	0xbdd25ba9	-0.10271389
52	0x3e0845f4	0.13307935
53	0xbdc6ea85	-0.097127
54	0x3dff932a	0.12479241
55	0xbe0e32a3	-0.13886504
56	0x3deac999	0.11464233
57	0xbd346808	-0.044044524
58	0xbc7b9dff	-0.015357493
59	0x3ddbeb1e	0.107382044
60	0x3e1ae007	0.15124522
61	0xbd401ecc	-0.04690437
62	0x3da41814	0.08012405
63	0xbd165e1d	-0.036710847
64	0x3d7152c7	0.058916833
65	0x3ad01a5a	0.0015876994
66	0x3d8af0b5	0.067841925
67	0xbc6116f6	-0.0137383845
68	0xbd49651a	-0.049168684
69	0xbd3b042e	-0.045658283
70	0x3bb179a3	0.0054161116
71	0x3da8a8d1	0.08235324
72	0xbcc19bb8	-0.023633823
73	0x3d4af1cc	0.049547
74	0x3db98aab	0.09059652
75	0x3e0e2b22	0.13883641
76	0xbd2330b1	-0.039841358
77	0x3c8295b1	0.015940519
78	0x3dd15775	0.10221759
79	0x3dd01b15	0.101614155
80	0x3d21ede7	0.039533522
81	0x3c9728a5	0.018451998
82	0x3e0f476c	0.13992089
83	0x3c9ab1f4	0.018883683
84	0x3d2a611e	0.041596524
85	0x3d5507c5	0.052009363
86	0x3d0b8365	0.034060854
87	0x3ce760b3	0.028244352
88	0x3e18abac	0.14909238
89	0x3c5941de	0.013260333
90	0x3e35dab8	0.17759216
91	0x3b61ac9f	0.0034435166
92	0xbd872f50	-0.06600821
93	0xbc77485d	-0.015092936
94	0xbce252cb	-0.02762737
95	0x3db68051	0.08911193
96	0xbd864add	-0.06557248
97	0xbded5e29	-0.11590225
98	0x3d4fa812	0.050697394
99	0xbcf9e29f	-0.03050357
100	0x3d67c2dd	0.05658232
101	0xbd990098	-0.074708164
102	0xbd6ab687	-0.057302978
103	0xbe223379	-0.15839948
104	0x3d76f59e	0.060292833
105	0xbd44f5e3	-0.04808606
106	0x3e3ed8fa	0.18637457
107	0xb9e43018	-0.00043523381
108	0xbb9b10aa	-0.004732211
109	0xbd8633f2	-0.065528765
110	0x3ceb546c	0.028726779
111	0x3e1b54f8	0.15169132
112	0xbe1e70dd	-0.15472741
113	0x3a1077cb	0.00055110146
114	0xbd07c9bb	-0.03315137
115	0xbe0a3ac4	-0.1349898
116	0xbc37c806	-0.011217123
117	0xbddf81a4	-0.10913399
118	0x3e07550e	0.1321604
119	0xbd04595b	-0.03231178
120	0xbd1d09fa	-0.038339593
121	0x3d58b466	0.052906416
122	0x3d348be3	0.04407872
123	0x3d47e32a	0.048800625
124	0x3c86f246	0.016472947
125	0xbe0eb4e0	-0.13936186
126	0xbc7f387a	-0.01557743
127	0xbc194cd8	-0.0093567
128	0x3e239859	0.15976085
129	0x3e14d8e8	0.14535868
130	0xbd10cb2d	-0.035350014
131	0xbd1d31db	-0.038377624
132	0xbda4f0a6	-0.080537125
133	0x3a6d6eba	0.0009057332
134	0xbc8311d2	-0.015999708
135	0x3daa2ed9	0.08309717
136	0x3c301eed	0.010749561
137	0x3c84549a	0.016153622
138	0x3db68b43	0.08913281
139	0x3c41a4ec	0.011819106
140	0x3e4bbc4f	0.19896053
141	0x3d6c1a63	0.05764235
142	0x3e231700	0.15926743
143	0x3dbb9c5e	0.09160684
144	0x3e137b37	0.14402471
145	0xbd1c41aa	-0.03814856
146	0x3daab8a5	0.083359994
147	0x3c7b4d6c	0.015338283
148	0x3cb4640e	0.022020366
149	0x3d41791b	0.047234636
150	0x3cb49850	0.022045285
151	0x3d4c9506	0.049946807
152	0x3e0976b7	0.13424192
153	0xbdbf6b01	-0.09346581
154	0x3dcb0bd4	0.099143654
155	0x3e2bdcab	0.16783397
156	0x3da538e7	0.08067494
157	0xbc02520b	-0.007954131
158	0xbda5a5d2	-0.08088268
159	0x3a37a3a0	0.0007005278
160	0x3daca10b	0.08429154
161	0xbda7861b	-0.081798755
162	0xbd529ab9	-0.051417086
163	0xbe410110	-0.18848062
164	0x3dc772cc	0.09738693
165	0xbd838dc3	-0.06423523
166	0xbdfa872a	-0.12232812
167	0xbd297a9d	-0.0413767
168	0xbcb3136a	-0.021859843
169	0x3d38fbdb	0.045162063
170	0x3dba585b	0.09098884
171	0xbd92e59a	-0.07172699
172	0x3e054d58	0.13017786
173	0xbb465464	-0.0030262703
174	0x3e110d4f	0.14165233
175	0x3d492390	0.04910618
176	0x3ca49e8f	0.020095138
177	0xbe12a0e2	-0.14319184
178	0x3e262f1f	0.16228913
179	0xbe0d8ff1	-0.1382444
180	0x3e1e072e	0.15432426
181	0x3d933233	0.07187309
182	0x3d81d84f	0.06340086
183	0x3c84cc67	0.016210748
184	0xbd26c8ba	-0.04071877
185	0xbde7f28f	-0.11325561
186	0x3d31e1e5	0.04342832
187	0x3b5527b7	0.0032524893
188	0xbb11f73a	-0.0022272603
189	0xbdbe48e8	-0.092912495
190	0x3cbe6777	0.023242695
191	0xbdb43911	-0.08799947
192	0xbdf71849	-0.12065179
193	0xbe51e08b	-0.20495813
194	0xbd613854	-0.05498536
195	0x3e2a979e	0.166594
196	0x3d17b7ab	0.037040394
197	0xbbc3e074	-0.0059776846
198	0xbdccb7a3	-0.099959634
199	0xbe3ccf8a	-0.18438545
200	0x3e04aa2d	0.12955542
201	0x3e3115a3	0.1729341
202	0xbd6d681c	-0.057960615
203	0xbcdf7f72	-0.02728245
204	0xbd3143a0	-0.043277383
205	0x3d859f25	0.06524495
206	0xbdc13811	-0.09434522
207	0x3e4611b3	0.19342689
208	0xbe0414c2	-0.12898543
209	0xbe556c9d	-0.20842214
210	0xbdd3df30	-0.10345304
211	0xbe1c0470	-0.15236068
212	0x3e243dac	0.16039151
213	0xbddcd750	-0.10783255
214	0x3e019de3	0.12657885
215	0xbd2a6003	-0.04159547
216	0x3d5e2179	0.05423114
217	0x3ca11c80	0.01966691
218	0xbc34a4ea	-0.011025647
219	0xbd37fcdd	-0.044918884
220	0x3dd33d07	0.103143744
221	0xbd2fce94	-0.042921618
222	0x3da687b9	0.08131356
223	0xbd8cdae6	-0.06877689
224	0xbe4bdadd	-0.19907708
225	0x3e2ce5ce	0.16884539
226	0x3d025a19	0.031824205
227	0x3dec5ebe	0.11541508
228	0xbd268883	-0.04065753
229	0x3cc27177	0.023735745
230	0x3d428f51	0.04749996
231	0xbd4ef749	-0.0505288
232	0xbdfac7ff	-0.122451775
233	0xbda3eb10	-0.08003819
234	0x3d749736	0.05971452
235	0x3d68b174	0.056809857
236	0x3d80adf6	0.062831804
237	0x3d2ab305	0.041674633
238	0xbe3021b8	-0.17200363
239	0xbca004d7	-0.019533558
240	0x3ceb24c4	0.028704055
241	0x3d5e2cb5	0.054241855
242	0xbd90e0fd	-0.07074163
243	0xbb3ae725	-0.002851912
244	0xbcd91a4c	-0.026501797
245	0x3c8ce41e	0.017198619
246	0xbdbc7e13	-0.09203734
247	0xbd6725dc	-0.05643259
248	0xbd695fa9	-0.056975994
249	0x3db1d36c	0.08682904
250	0x3d0d5505	0.03450491
251	0xbe0176d0	-0.1264298
252	0xbe2177f4	-0.15768415
253	0x3dc541fd	0.09631727
254	0xbcf12d7e	-0.029440638
255	0x3e3cf34c	0.18452185

transformer_encoder.layers.0.linear1.bias f4 [128]
0	0xbd8ef4bc	-0.06980273
1	0x3d20f652	0.03929741
2	0xbe150689	-0.14553274
3	0xbd6c7cbf	-0.057736155
4	0xbdd4ad80	-0.10384655
5	0xbe09af35	-0.13445742
6	0xbdb04c94	-0.08608356
7	0xbd7b4598	-0.061345667
8	0xbe4357d7	-0.19076477
9	0x3c633a30	0.013868853
10	0xbd7469e1	-0.059671286
11	0xbd53d7f7	-0.051719632
12	0xbe463ac3	-0.19358353
13	0xbc9873dd	-0.018609935
14	0xbe3f69e2	-0.18692735
15	0x3d668c1d	0.056285966
16	0xbe05fc29	-0.13084473
17	0x3e087ae6	0.13328132
18	0xbe27ab8a	-0.1637403
19	0xbe35192c	-0.17685384
20	0xbbea6958	-0.0071536712
21	0xbdf3255c	-0.1187236
22	0xbde3a5f1	-0.11115635
23	0xbdab4285	-0.08362297
24	0xbcb79fce	-0.022415068
25	0x3bec6508	0.0072141923
26	0xbe00c7a9	-0.12576164
27	0x3dc13d7f	0.094355576
28	0xbc0ec53d	-0.008714017
29	0x3d323bfe	0.043514244
30	0xbd0b7c1d	-0.03405391
31	0xbd7e9b6d	-0.062159944
32	0xbce942eb	-0.028474292
33	0xbd97c674	-0.07410899
34	0x3dba37d9	0.09092683
35	0x3bd0d9c3	0.0063736155
36	0xbd3a49e0	-0.04548061
37	0x3e098840	0.13430882
38	0xbe5f7650	-0.21822476
39	0xbe42643b	-0.18983547
40	0x3ddbf8d0	0.107408166
41	0x3db771ff	0.0895729
42	0xbc943281	-0.018090488
43	0xbd90bc85	-0.07067207
44	0x3dd7755d	0.10520432
45	0xbe4006c5	-0.18752582
46	0x3e07e54b	0.13271062
47	0xbdfcea35	-0.12349359
48	0xbe4badf3	-0.19890575
49	0xbe3ddf21	-0.18542148
50	0xbdfb630e	-0.122747526
51	0x3d3537e3	0.04424275
52	0xbccbc1e4	-0.024872728
53	0xbe030e94	-0.1279853
54	0x3d0b7714	0.03404911
55	0x3c750ded	0.014956933
56	0xbe3225f1	-0.17397286
57	0xbdb9838d	-0.090582944
58	0xbc81e772	-0.015857432
59	0xbe14f405	-0.14546211
60	0x3dffe06e	0.124939784
61	0x3ce08b35	0.02741013
62	0x3e22396e	0.1584222
63	0xbd3d296b	-0.046182077
64	0xbdfa0fcf	-0.122100465
65	0xbe2575f0	-0.16158271
66	0x3cf1b3c5	0.029504666
67	0xbd3510f3	-0.044205617
68	0xbd534b1a	-0.051585294
69	0x3e0960d4	0.13415843
70	0xbe011a8a	-0.1260778
71	0xbdb8ca3d	-0.09022949
72	0x3d6eb9ca	0.05828265
73	0x3e550fa0	0.20806742
74	0xbcb0b0bb	-0.021568647
75	0xbdce3ede	-0.10070585
76	0xbdf76c40	-0.12081194
77	0x3e06f09e	0.13177726
78	0x3d26b04e	0.04069548
79	0xbda2da1a	-0.07951756
80	0xbd98a6ff	-0.07453727
81	0xbaee1372	-0.0018163754
82	0xbe2367eb	-0.1595761
83	0x3e1dbaa1	0.15403225
84	0x3dc85c2f	0.097832076
85	0x3a2832ce	0.0006416262
86	0xbce56e8a	-0.02800681
87	0x3e003c76	0.12523064
88	0x3d1fdbed	0.039028097
89	0xbdd5d925	-0.10441808
90	0x3d6a06f3	0.057135534
91	0x3e2dab37	0.16959845
92	0x3d5efae1	0.054438476
93	0x3c92cfda	0.017921377
94	0xbca2b368	-0.019860938
95	0x3e0c97ce	0.13729784
96	0xbe0f75f2	-0.14009836
97	0xbce072b2	-0.027398441
98	0xbe352104	-0.17688376
99	0xbd24d1f6	-0.040239297
100	0xbd69370a	-0.056937255
101	0xbdd8d047	-0.10586601
102	0xbb96adc3	-0.0045983507
103	0xbe0eaadc	-0.13932365
104	0xbe27365d	-0.16329332
105	0x3e0bfedc	0.1367144
106	0x3c0731b3	0.008251595
107	0xbd1addbf	-0.03780913
108	0xbdbc6996	-0.091998264
109	0xbcc80744	-0.024417527
110	0xbdee78b5	-0.11644117
111	0xbe435fbe	-0.19079491
112	0x3d88906a	0.0666817
113	0xbc9f558f	-0.019449977
114	0x3e0fc780	0.14040947
115	0xbd94c463	-0.0726402
116	0xbe07ec8d	-0.1327383
117	0x3e1a42a1	0.1506448
118	0x3de8e371	0.11371506
119	0x3da1b63d	0.07896087
120	0x3e062782	0.13101009
121	0xbdfb1ca9	-0.12261326
122	0x3d0bf26e	0.034166746
123	0x3df6bf0e	0.120481595
124	0xbe60eec8	-0.21966088
125	0x3de23188	0.110446036
126	0xbe28ede7	-0.16497003
127	0x3d221f81	0.039580826

transformer_encoder.layers.0.linear2.weight f4 [64, 128]
0	0x3da7f0b7	0.082002096
1	0x3dcb0460	0.09912944
2	0x3d043e85	0.032286186
3	0xbc7381ca	-0.014862487
4	0x3d4e32a9	0.050341282
5	0x3d85811a	0.06518765
6	0x3da3012c	0.07959208
7	0x3d18280d	0.03714757
8	0xbcc2259d	-0.023699576
9	0x3ca5e727	0.020251824
10	0xbd04bcaa	-0.032406487
11	0xbc874820	-0.016513884
12	0x3d1be552	0.038060494
13	0xbd0acf22	-0.033888943
14	0x3d58f7fd	0.052970875
15	0xbd917fac	-0.071044296
16	0x3e06355e	0.13106295
17	0xbc0b2eb0	-0.008495018
18	0x3d28319a	0.04106293
19	0x3c984951	0.018589647
20	0x3de35339	0.11099858
21	0x3cb8388d	0.022487903
22	0x3dbee96b	0.09321865
23	0xbbe71dab	-0.0070530972
24	0x3de076d2	0.10960163
25	0x3d0579cf	0.03258687
26	0x3d8d12a1	0.06888319
27	0xbd131384	-0.035907283
28	0xbb177047	-0.0023107694
29	0x3bbcf49c	0.0057664644
30	0x3c02751f	0.007962494
31	0xbcd90a65	-0.026494214
32	0x3dcf9b07	0.10136991
33	0x3d13855b	0.03601585
34	0x3d4019de	0.04689967
35	0x3d3d05d2	0.04614813
36	0xbc939226	-0.018014025
37	0xbcffeec9	-0.031241791
38	0x3d97035c	0.073736876
39	0x3d85124e	0.06497632
40	0x395c8444	0.00021030108
41	0x3d9fcb85	0.0780249
42	0x3e100c66	0.1406723
43	0xbd41c427	-0.047306206
44	0x3dc059cd	0.09392128
45	0xbc2e9bb7	-0.0106572425
46	0x3d903ac3	0.07042458
47	0xbc964cfa	-0.018347252
48	0x3c44bb33	0.012007522
49	0x3cf65bde	0.030073103
50	0xbc6cf55c	-0.014462795
51	0xbd396046	-0.04525783
52	0x3de1a46b	0.11017688
53	0x3b78964c	0.003793138
54	0x3dc16d0d	0.09444628
55	0x3c6491f8	0.013950817
56	0x3d3a4cd8	0.04548344
57	0xbcad453d	-0.02115118
58	0x3dda4c9f	0.106591456
59	0x3ac32549	0.0014888431
60	0x3da51c98	0.080620944
61	0xbab11942	-0.0013511556
62	0xbcd1bb41	-0.025601985
63	0x3c17a27e	0.00925505
64	0xbb8d5a94	-0.0043137763
65	0x3dd9ea99	0.10640449
66	0x3ab025ac	0.0013438961
67	0xbc559839	-0.013036781
68	0xbcc9461b	-0.024569562
69	0x3d4e7098	0.050400347
70	0x3d647743	0.0557778
71	0x3d8f8d44	0.07009366
72	0x3d848c83	0.06472113
73	0xbd52626b	-0.05136339
74	0x3db3a4bc	0.08771655
75	0xbdba32a3	-0.090916894
76	0xbc417ab8	-0.011809044
77	0x3d8f73f9	0.07004542
78	0x3d2e8782	0.0426097
79	0x3dc22c3f	0.094810955
80	0x3c7b982d	0.015356106
81	0x3dc6249c	0.096749514
82	0x3d6211d0	0.05519277
83	0xbd57d6b2	-0.052694984
84	0x3ca40452	0.020021591
85	0xbc8f3572	-0.01748154
86	0x3dd7c53c	0.10535666
87	0x3ca3c640	0.019991994
88	0x3d10c476	0.03534361
89	0x3dabaa22	0.0838206
90	0x3c08e310	0.008354917
91	0x3c271d66	0.01019988
92	0x3966987f	0.00021991318
93	0xbc6852d7	-0.014179907
94	0xbd45c30f	-0.048281725
95	0x3d8fa5ac	0.07014021
96	0x3dc3fdd0	0.09569895
97	0x3d0dc568	0.03461209
98	0x3ddd883f	0.108170025
99	0x3b2f4ab5	0.002674741
100	0x3cc32147	0.023819579
101	0x3e0e9129	0.13922562
102	0x3d55600b	0.052093547
103	0xbc84d19f	-0.016213236
104	0xbce2fbc1	-0.027707936
105	0x3dee63b0	0.11640108
106	0x3cef2d11	0.029196294
107	0xbca62fea	-0.02028652
108	0x3d3d9962	0.046288855
109	0xbd1c5fa9	-0.038177166
110	0x3bb3f695	0.0054920414
111	0x3e171a22	0.14756063
112	0x3de32ac6	0.11092143
113	0x3e1824af	0.14857744
114	0x3ddd7a65	0.108143605
115	0x3d94b38d	0.07260809
116	0x3d654aef	0.055979665
117	0xbe4fd4f4	-0.20296079
118	0x3dabdd77	0.083918504
119	0x3dceb800	0.10093689
120	0x3e13c204	0.1442948
121	0x3dcfa6e2	0.10139252
122	0x3bd1f1b7	0.0064069885
123	0x3da7c4d7	0.08191841
124	0x3d8d3a23	0.06895854
125	0xbcd3cce6	-0.02585454
126	0x3cf7577c	0.030193083
127	0x3d4cf362	0.050036795
128	0xbd780b63	-0.060557734
129	0xbcd18cf6	-0.02557991
130	0xbd884d5f	-0.06655382
131	0xbc54d424	-0.012990031
132	0xbd579833	-0.052635383
133	0xbd36b1b0	-0.04460305
134	0x3c279930	0.010229394
135	0xbd536dd5	-0.051618416
136	0xbcf5c6cf	-0.030002026
137	0xbd6c17df	-0.057639953
138	0xbe02605b	-0.12732069
139	0xbdad434f	-0.08460104
140	0xbda6c455	-0.08142916
141	0xbe2150fb	-0.15753548
142	0x3bbd6393	0.0057796924
143	0xbdd71ed3	-0.10503926
144	0xbdffdbe3	-0.12493112
145	0xbd169049	-0.036758695
146	0xbd8badfb	-0.068202935
147	0xbd9f10c0	-0.07766867
148	0x3c62d83f	0.013845502
149	0x38f9986a	0.000119016346
150	0xbe073487	-0.13203631
151	0xbddfa2b4	-0.10919705
152	0xbdffc377	-0.12488454
153	0xbcbcf2e4	-0.023065038
154	0xbdd1207c	-0.10211274
155	0xbde31a83	-0.11089041
156	0xbd827992	-0.06370844
157	0xbdb2763e	-0.08713959
158	0xbd0a0599	-0.033696745
159	0x3c0d7b28	0.00863532
160	0xbd99aedf	-0.07504057
161	0xbd4978c6	-0.049187444
162	0xbcee35cb	-0.029078385
163	0xbd4ccd59	-0.050000522
164	0xbd55d74e	-0.052207284
165	0xbe2595df	-0.16170453
166	0xbe182365	-0.14857252
167	0xbdaeea46	-0.08540778
168	0xbcb29273	-0.021798348
169	0xbd8db349	-0.069189616
170	0xbda7d470	-0.08194816
171	0xbdee7f9c	-0.11645433
172	0x3b7c710c	0.003851953
173	0x3cb3852e	0.021914091
174	0xbd95abf0	-0.07308185
175	0xbdd25d99	-0.102717586
176	0x3a8e9448	0.0010877931
177	0xbd5cdc06	-0.05392077
178	0xbca0e2fe	-0.019639488
179	0x3b00fe63	0.0019682876
180	0xbb44fe64	-0.0030058855
181	0x3da3b03b	0.07992598
182	0x3d31e7c7	0.04343393
183	0xbdb14c4d	-0.08657131
184	0xbd2e2314	-0.04251392
185	0xbdb1c043	-0.08679249
186	0xbe09a47e	-0.13441655
187	0xbdffae51	-0.1248442
188	0xbd73acdd	-0.059491027
189	0x3c908e50	0.017645985
190	0xbd8c62c6	-0.06854777
191	0xbd2feb9d	-0.042949308
192	0xbdcb4a8c	-0.09926328
193	0xbdf5b78f	-0.11997902
194	0xbd701a48	-0.058618814
195	0xbdc249b0	-0.09486711
196	0xbddbeefc	-0.10738942
197	0xbd08ef49	-0.033431325
198	0xbd5e872a	-0.05432812
199	0xbad63030	-0.0016341265
200	0xbc8ac8d9	-0.016941475
201	0xbe193029	-0.14959778
202	0x3cca9d06	0.024733078
203	0x3d125f69	0.03573552
204	0x3c15e1fc	0.009148117
205	0xbd64e220	-0.055879712
206	0xbd646fd7	-0.05577072
207	0xbdf79f67	-0.120909505
208	0xbddb2b14	-0.10701576
209	0xbe1a806e	-0.15088055
210	0x3b290d80	0.00257954
211	0xbdf7a338	-0.120916784
212	0x3d9fe1dc	0.07806751
213	0x3c94f486	0.018183004
214	0xbd364dda	-0.04450784
215	0xbc030b18	-0.00799825
216	0xbc96ca17	-0.01840691
217	0xbccf0ff9	-0.025276171
218	0x3a919d31	0.0011109469
219	0x3b38a31a	0.0028173388
220	0xbdbe90f8	-0.09304994
221	0x3be005cf	0.00683663
222	0x3dde62ed	0.10858712
223	0xbdb8e352	-0.09027733
224	0xbd0dac35	-0.034588058
225	0xbd0a074c	-0.033698365
226	0xbce2f22c	-0.027703367
227	0xbe0473fa	-0.12934867
228	0xbd209c3f	-0.039211508
229	0xbd842df0	-0.064540744
230	0xbdcaab8b	-0.098960005
231	0xbdcb9382	-0.09940244
232	0xbd22600e	-0.039642386
233	0xbceffda4	-0.02929575
234	0xbdf0e678	-0.117627084
235	0xbdf8041c	-0.12110159
236	0xbdac2197	-0.08404844
237	0xbd94a61a	-0.07258244
238	0xbdefdc92	-0.11711992
239	0xbcdb8e28	-0.026801184
240	0xbb064993	-0.002049063
241	0xbd566db0	-0.0523507
242	0xbdaf3b35	-0.08556215
243	0xbe1f6874	-0.1556719
244	0xbd403e66	-0.046934508
245	0x3ddc7797	0.107649975
246	0xbd28f3cf	-0.04124814
247	0x3cd6ff1a	0.026244689
248	0xbe1e338a	-0.15449348
249	0x3cbc8455	0.02301232
250	0xbd8841c9	-0.066531725
251	0xbdf72d3c	-0.12069175
252	0xbce16860	-0.02751559
253	0xbe044fb9	-0.12921037
254	0x3d291beb	0.04128639
255	0xbc6edcdf	-0.014579027

transformer_encoder.layers.0.linear2.bias f4 [64]
0	0xbcfdf48d	-0.0310004
1	0xbe13a5a8	-0.14418662
2	0xbd714fab	-0.058913868
3	0xbdcd4ec8	-0.10024792
4	0x3d6211ad	0.05519264
5	0x3e19d7fe	0.150238
6	0x3e1559f1	0.14585091
7	0xbd662bed	-0.056194235
8	0xbb9bb69a	-0.0047519924
9	0x3d00f2a1	0.03148139
10	0xba94a3cc	-0.0011340319
11	0xbb99655d	-0.004681273
12	0x3d10af99	0.035323713
13	0xbc6539b5	-0.013990809
14	0xbe0f2b56	-0.13981375
15	0xbb005812	-0.0019583744
16	0xbe007c6c	-0.12547463
17	0xbdf7b8fc	-0.1209583
18	0x3dab01f6	0.083499834
19	0x3d7d2ad3	0.06180842
20	0xbc7a6256	-0.015282234
21	0x3d96e847	0.07368522
22	0xbcbe4bc4	-0.023229487
23	0x3cf3cb2b	0.029759964
24	0x3e0fe5d8	0.14052522
25	0x3dbb0ee6	0.09133701
26	0x3caedab4	0.02134452
27	0xbdebc614	-0.1151239
28	0x3cb06900	0.021534443
29	0xbc063a49	-0.008192607
30	0xbc55e8d4	-0.013055999
31	0x3c9860c3	0.018600827
32	0x3da7e5ef	0.08198153
33	0x3cda551b	0.02665191
34	0xbdf41480	-0.119179726
35	0xbdfe3120	-0.124117136
36	0xbdce95ce	-0.10087167
37	0x3d3560ff	0.044281956
38	0x3a9cd2de	0.0011964699
39	0x3c38a7dd	0.0112704905
40	0xbcb5a44e	-0.022173073
41	0xbda5b929	-0.08091957
42	0xbcf9bca7	-0.030485464
43	0x3c010bab	0.007876317
44	0xbdc4ee4b	-0.09615763
45	0x3ded73a7	0.115943246
46	0xbbb674d2	-0.0055681253
47	0x3dadd620	0.08488107
48	0xbbdf6e64	-0.0068185795
49	0x3de73ad7	0.1129052
50	0x3e20b5ca	0.15694347
51	0x3d47d80e	0.04879003
52	0x3d0916b6	0.033468924
53	0x3dc07af5	0.09398452
54	0x3c38f616	0.01128914
55	0x3c757e5d	0.014983741
56	0x3dcb7dea	0.099361256
57	0x3c7b539a	0.015339756
58	0xbe0f4ec2	-0.13994887
59	0xbd8a8be8	-0.06764966
60	0x3d5f038e	0.05444675
61	0x3e1d186e	0.1534135
62	0x3bad3772	0.0052861506
63	0xbdb05b02	-0.08611108

transformer_encoder.layers.0.norm1.weight f4 [64]
0	0x3f6cdd1c	0.92524886
1	0x3f87db27	1.0613755
2	0x3f8799b8	1.0593786
3	0x3f6ea5b0	0.9322157
4	0x3f86beae	1.0526941
5	0x3f74ca1a	0.9562088
6	0x3f8a85c6	1.0822074
7	0x3f78cc2a	0.9718653
8	0x3f7f3277	0.9968638
9	0x3f7cb3d7	0.98711914
10	0x3f8a6766	1.0812805
11	0x3f71c3b2	0.9443923
12	0x3f78856e	0.970786
13	0x3f88a39f	1.0674933
14	0x3f83a359	1.0284225
15	0x3f6b52f6	0.91923463
16	0x3f89b325	1.0757796
17	0x3f7f7de8	0.9980149
18	0x3f6f1c05	0.9340213
19	0x3f740acc	0.95328975
20	0x3f87b36a	1.0601628
21	0x3f7270ec	0.94703555
22	0x3f80aea9	1.0053302
23	0x3f71089b	0.94153756
24	0x3f719e12	0.9438182
25	0x3f8149d0	1.0100651
26	0x3f8095f1	1.0045758
27	0x3f874184	1.0566869
28	0x3f878433	1.0587219
29	0x3f73e275	0.9526742
30	0x3f70ce03	0.9406435
31	0x3f713ab9	0.9423023
32	0x3f649371	0.8928748
33	0x3f844930	1.0334835
34	0x3f87a1e0	1.0596275
35	0x3f707695	0.9393094
36	0x3f8008b8	1.0002661
37	0x3f872df2	1.0560896
38	0x3f6d28af	0.92640203
39	0x3f874c11	1.0570089
40	0x3f86affd	1.0522457
41	0x3f712242	0.941929
42	0x3f88d90f	1.0691241
43	0x3f7387c8	0.9512906
44	0x3f880620	1.0626869
45	0x3f898893	1.0744804
46	0x3f77ddd1	0.9682284
47	0x3f70065a	0.9375969
48	0x3f72c7ee	0.9483632
49	0x3f7dd2f7	0.9915003
50	0x3f7cf5af	0.98812383
51	0x3f82d9f6	1.0222766
52	0x3f70c05e	0.9404353
53	0x3f795cd9	0.974073
54	0x3f8a794e	1.0818269
55	0x3f6e9cf4	0.9320824
56	0x3f7995dc	0.9749429
57	0x3f880a9d	1.0628239
58	0x3f8ab9de	1.0837972
59	0x3f85aca2	1.0443308
60	0x3f6f71b8	0.93532896
61	0x3f8a59b3	1.0808624
62	0x3f759743	0.9593393
63	0x3f6f6729	0.93516785
