transformer/results/t12_r4_i110_n1_h64_e400_l0.001_d0.10_w0.10_f4.0_nh4/model.pth (torch, 287539 bytes, 20 tensors)

embedding.weight f4 [64, 5]
0	0xbe50672e	-0.2035186
1	0x3e910389	0.2832301
2	0xbe8d65a7	-0.27616617
3	0x3eb62ccc	0.35581052
4	0x3f147b2c	0.58000445
5	0x3ea426c7	0.32060835
6	0xbc9d58e3	-0.019207424
7	0x3dcf9812	0.10136427
8	0x3ecc5e48	0.3991568
9	0xbed62814	-0.41827452
10	0xbe994268	-0.29933476
11	0x3ee19da6	0.4406559
12	0xbe09736d	-0.13422938
13	0x3d1df902	0.03856755
14	0xbdb37730	-0.087629676
15	0xbb8cc1c8	-0.0042955615
16	0x3ecfdf60	0.4060011
17	0x3eaea83e	0.34112734
18	0xbd179100	-0.037003517
19	0xbef21bd0	-0.47286844
20	0x3d4cac46	0.04996898
21	0x3da7103c	0.08157393
22	0x3ea1bceb	0.31589445
23	0xbd362cf3	-0.04447646
24	0xbdd255ce	-0.10270272
25	0xbeb5d538	-0.35514235
26	0x3e191f7e	0.1495342
27	0x3ea2946e	0.31753868
28	0x3bcfd8ca	0.006342982
29	0x3df04ff7	0.11734002
30	0xbd87b30c	-0.06625947
31	0xbe05c668	-0.13063967
32	0xbc84ef7c	-0.016227476
33	0x3e29a645	0.16567333
34	0xbf02f31f	-0.51152223
35	0x3e9394e7	0.2882454
36	0x3e8d43eb	0.2759088
37	0xbec2fe89	-0.3808482
38	0x3d01409a	0.03155575
39	0xbcb569b4	-0.02214513
40	0xbebf345a	-0.3734463
41	0x3e1e8580	0.15480614
42	0xbe40702e	-0.18792793
43	0xbeb2f601	-0.3495331
44	0x3cc0b802	0.023525242
45	0x3e4f0714	0.20217544
46	0x3e49f648	0.19722855
47	0x3e8a4706	0.27007312
48	0xbed08f7c	-0.4073447
49	0xbea5fb57	-0.3241832
50	0xbebc7a1e	-0.36811918
51	0xbe476b41	-0.19474508
52	0xbe5151df	-0.20441388
53	0xbe293ea7	-0.16527806
54	0x3eba1f52	0.3635202
55	0x3e8337cd	0.2562851
56	0x3e8dbc7c	0.27682865
57	0xbec68a2e	-0.38777298
58	0x3e3969ae	0.1810672
59	0xbedfb2cd	-0.43691102
60	0xbe504178	-0.20337474
61	0x3c3f60e8	0.011680819
62	0xbe9a4b81	-0.3013573
63	0x3ddfb562	0.10923268
64	0xbf14b0ec	-0.5808246
65	0x3eb4e38c	0.35329854
66	0x3e4248bd	0.1897306
67	0xbcc80941	-0.024418475
68	0xbceeaf02	-0.029136185
69	0x3ec9ea0b	0.39436373
70	0x3e037693	0.12838201
71	0x3eac8b33	0.3369995
72	0xbe87495d	-0.2642316
73	0xbe9eb3e8	-0.30996633
74	0x3e799761	0.24374153
75	0xbd467161	-0.04844797
76	0x3e49edd6	0.19719633
77	0x3e45a350	0.1930058
78	0x3d6f9f2d	0.05850141
79	0x3eda7aed	0.4267191
80	0x3c82f5d0	0.015986353
81	0xbe516f13	-0.20452528
82	0xbd10135c	-0.035174713
83	0x3e982b7e	0.29720682
84	0x3e7295b2	0.23689917
85	0x3e077769	0.13229145
86	0x3ee7cd02	0.45273596
87	0x3e1620c8	0.14660943
88	0xbea61f8c	-0.32445943
89	0x3d590ce2	0.0529908
90	0xbcc671ea	-0.02422424
91	0x3ded03aa	0.115729645
92	0x3e609884	0.2193318
93	0xbe3120fd	-0.1729774
94	0xbd3f7f25	-0.046752114
95	0xbdbea507	-0.0930882
96	0x3eb5da72	0.35518223
97	0x3eb05f9d	0.34447947
98	0xbeb978e7	-0.36225054
99	0xbe2bae80	-0.16765785
100	0xbea5d398	-0.32387996
101	0x3e348494	0.176287
102	0xbe5275aa	-0.20552698
103	0xbdd0974e	-0.10185109
104	0x3e6f2272	0.23352984
105	0x3e83ade0	0.25718594
106	0xbea44003	-0.32080087
107	0xbe8b5dd2	-0.27220017
108	0x3ee118d6	0.4396426
109	0xbe893787	-0.26800177
110	0x3d1eea1f	0.038797494
111	0x3ee9bf7c	0.45653903
112	0xbebc9192	-0.3682981
113	0x3d786907	0.060647037
114	0x3d46d8c4	0.048546568
115	0x3e55be07	0.20873271
116	0xbeae197d	-0.3400382
117	0x3f0736a2	0.5281774
118	0xbe55a1f7	-0.20862566
119	0xbde0888f	-0.109635465
120	0x3c07372c	0.0082529
121	0x3f05199c	0.519922
122	0xbebf583a	-0.37372
123	0xbd12d845	-0.035850782
124	0xbf279eb1	-0.6547652
125	0x3e68ac69	0.2272202
126	0xbec95096	-0.39319295
127	0x3e796b88	0.24357426
128	0xbe068abc	-0.1313886
129	0xbdcf9ce6	-0.10137348
130	0x3e79a33b	0.24378674
131	0xbe4884f3	-0.19581966
132	0x3ecd98c9	0.40155628
133	0xbdf2ace4	-0.118493825
134	0xbec02bb2	-0.37533337
135	0x3e2f7b05	0.17136772
136	0x3e8b4d36	0.27207345
137	0xbd25c686	-0.04047253
138	0xbd1ad4e9	-0.037800703
139	0xbde466ac	-0.111523956
140	0x3e656551	0.2240193
141	0x3ea95919	0.3307579
142	0xbe75d6d9	-0.24007739
143	0xbb9253c2	-0.004465551
144	0x3dbca266	0.092106625
145	0xbea2dff5	-0.3181149
146	0xbdba924d	-0.09109936
147	0xbe727dfc	-0.23680872
148	0xbd15ba6a	-0.03655473
149	0x3f02f110	0.5114908
150	0x3e6eaee3	0.23308901
151	0x3d31f21e	0.04344379
152	0xbdf06d1d	-0.11739562
153	0xbddabee0	-0.10680938
154	0x3e4e20d8	0.20129716
155	0x3ebb475d	0.36577883
156	0xbecb3ba7	-0.3969395
157	0x3c602e75	0.013682951
158	0x3e2cee81	0.16887857
159	0x3ee5fa7c	0.44917667
160	0xbe927069	-0.28601387
161	0xbda7aa9d	-0.08186839
162	0x3c6b69a1	0.014368446
163	0xbe8bc467	-0.2729828
164	0x3ec88a64	0.39168084
165	0x3e0bb1e0	0.13642073
166	0x3ed5d705	0.4176561
167	0xbe8efdd0	-0.2792802
168	0xbeddf344	-0.4334966
169	0xbe9092a0	-0.28236866
170	0xbded93f2	-0.11600484
171	0xbe2b2e2a	-0.16716829
172	0x3df3a256	0.118961975
173	0xbe968552	-0.2939859
174	0xbde3d421	-0.11124445
175	0xbdf0a36d	-0.11749921
176	0x3e289999	0.16464843
177	0xbedcf358	-0.43154407
178	0xbeb35ba7	-0.35030863
179	0x3f1bd999	0.608789
180	0xbec01801	-0.37518314
181	0x3e67f8a9	0.2265345
182	0xbed48f04	-0.41515362
183	0xbd75675c	-0.059913024
184	0xbef38975	-0.4756581
185	0xbe23e79c	-0.1600632
186	0x3df0a161	0.117495306
187	0x3e909eaa	0.2824605
188	0xbd0628b1	-0.03275365
189	0x3e6a3599	0.22872008
190	0xbe3d766e	-0.18502209
191	0x3e86a77e	0.2629966
192	0xbe5c25b5	-0.21498759
193	0x3ec74460	0.38919353
194	0x3e96ca62	0.2945128
195	0xbd909922	-0.07060458
196	0xbeef019a	-0.4668091
197	0xbdac5433	-0.08414497
198	0x3d2d3520	0.042286992
199	0xbe63d1e2	-0.22248033
200	0x3e4a5775	0.19759925
201	0x3f0a4aab	0.54020184
202	0xbe528ef7	-0.2056235
203	0xbd6b693b	-0.057473402
204	0x3f0d6774	0.5523598
205	0x3db006c8	0.085950434
206	0xbc26f7ea	-0.010190943
207	0x3ea6c21c	0.3256997
208	0x3e5c6808	0.2152406
209	0xbe97974b	-0.29607615
210	0x3edadc44	0.42746174
211	0xbed568d8	-0.41681552
212	0xbe8073a9	-0.25088242
213	0x3ec9de5d	0.39427462
214	0xbe842a91	-0.25813726
215	0x3d71d7e8	0.059043795
216	0xbf07258c	-0.52791667
217	0x3e6eaa49	0.23307146
218	0xbe3bd933	-0.18344574
219	0xbe40d7f2	-0.18832377
220	0xbe71562b	-0.23568027
221	0xbe93d01a	-0.28869706
222	0xbe1d3059	-0.15350474
223	0x3ee40d91	0.445416
224	0xbe822506	-0.25418872
225	0x3ea3b681	0.31975177
226	0xbeaef1d5	-0.34168878
227	0xbda4b339	-0.080419965
228	0xbe0a49a4	-0.13504654
229	0x3f2090a5	0.6272071
230	0x3d06c0ba	0.032898642
231	0x3ed635b1	0.41837838
232	0xbe839970	-0.25703
233	0x3dc1172d	0.094282486
234	0xbf16fa6d	-0.5897587
235	0x3e9edc59	0.31027487
236	0xbeb67856	-0.35638684
237	0x3ebcd19d	0.36878672
238	0x3d175d95	0.03695448
239	0x3f326ec7	0.6970028
240	0xbeaa4e80	-0.33263016
241	0xbdc31571	-0.09525574
242	0x3f0bbcea	0.54585135
243	0xb9855f19	-0.0002543859
244	0x3e3ce9b2	0.18448523
245	0x3ea71c0a	0.3263858
246	0xbe9f3a8a	-0.3109935
247	0xbed385c9	-0.41313007
248	0xbe5682f0	-0.20948386
249	0x3e3ba934	0.18326265
250	0x3ea7bc0c	0.32760656
251	0xbe78cd96	-0.24297175
252	0xbedc2081	-0.4299355
253	0xbe289934	-0.16464692
254	0xbeb11fad	-0.3459448
255	0x3e8f1700	0.27947235

embedding.bias f4 [64]
0	0xbe64d340	-0.2234621
1	0xbe07ceaa	-0.1326243
2	0x3c9f9b09	0.019483106
3	0x3e502d9b	0.20329897
4	0x3e225c14	0.15855438
5	0xbe148cdf	-0.14506863
6	0xbeb6e0dc	-0.3571843
7	0xbebc2eb0	-0.3675437
8	0xbd821f56	-0.06353633
9	0x3e802547	0.2502844
10	0x3ebe0959	0.37116507
11	0xbcfa0d63	-0.030523961
12	0x3e9e06c6	0.30864543
13	0xbec051fb	-0.37562546
14	0x3e7530e9	0.23944439
15	0xbdd6042e	-0.10450016
16	0xbc56e34b	-0.013115714
17	0x3e789775	0.24276526
18	0xbec6f45e	-0.38858312
19	0xbd92f516	-0.07175653
20	0xbeb2ceb6	-0.34923333
21	0xbea4cd4f	-0.32187888
22	0xbebc6176	-0.36793107
23	0xbd13713d	-0.035996664
24	0x3e97994b	0.2960914
25	0xbe0384ba	-0.128436
26	0xbee67ed1	-0.45018628
27	0x3d5e3fbc	0.05426
28	0x3e753e76	0.23949608
29	0x3ebb0132	0.3652435
30	0xbdd8b600	-0.10581589
31	0xbdf53178	-0.11972326
32	0x3e0ca1c1	0.13733579
33	0x3d1c4856	0.038154922
34	0xbe97da75	-0.29658857
35	0xbd48eec5	-0.049055833
36	0x3e80c6bc	0.25151622
37	0xbda0f9fa	-0.07860179
38	0xbeba0428	-0.36331296
39	0x3cea0632	0.028567407
40	0xbeae1cda	-0.34006387
41	0xbd5217e5	-0.05129232
42	0xbe9438cf	-0.28949592
43	0x3da012d7	0.078160934
44	0x3d5e801e	0.0543214
45	0xbe2a19cd	-0.16611405
46	0x3ec7d0e3	0.39026555
47	0x3e673706	0.22579584
48	0xbe57376e	-0.21017238
49	0x3e0977c5	0.13424595
50	0x3d65367b	0.05596016
51	0x3dd37cad	0.103265144
52	0xb9265de1	-0.00015865966
53	0x3c21d242	0.0098767895
54	0xbe57aed7	-0.2106279
55	0xbe45db0b	-0.1932184
56	0x3e89228e	0.26784176
57	0xbe91c389	-0.28469494
58	0xbeb4fad9	-0.35347632
59	0xbeb02f82	-0.34411246
60	0xbddb1e37	-0.106991224
61	0xbd0e345a	-0.034717895
62	0xbe16e199	-0.14734496
63	0xbeb682f4	-0.35646784

transformer_encoder.layers.0.self_attn.in_proj_weight f4 [192, 64]
0	0x3d92b539	0.07163472
1	0xbdaed2c3	-0.08536293
2	0xbb3b9f71	-0.002862897
3	0x3deb2e67	0.1148346
4	0xbdab5a0d	-0.08366785
5	0x3d76c82d	0.060249496
6	0x3ce6f606	0.028193485
7	0xbbacacae	-0.0052696085
8	0x3dbd1f33	0.092344664
9	0x3cc510f5	0.024055937
10	0x3cee6d79	0.029104935
11	0x3e81b421	0.2533274
12	0x3d3b2ba9	0.045695934
13	0x3cf167e3	0.029468482
14	0x3cd39f38	0.025832757
15	0x3e39a19a	0.18128052
16	0x3d2dc143	0.042420637
17	0xbd8558b7	-0.06511062
18	0xbcf0e98e	-0.029408243
19	0x3defa8ec	0.11702141
20	0xbdde3598	-0.10850066
21	0x3e0c18d8	0.13681352
22	0xbe49efd8	-0.197204
23	0x3dedbca4	0.11608246
24	0x3b948112	0.004531988
25	0x3dcea7a4	0.10090569
26	0x3d7e39c7	0.06206682
27	0xbe064b5b	-0.13114683
28	0x3db84f19	0.08999462
29	0xbd916947	-0.07100158
30	0x3e1fe098	0.1561302
31	0x3d9be602	0.0761223
32	0xbcbdcbc1	-0.023168446
33	0x3dad84ec	0.084726185
34	0x3dca8df1	0.098903544
35	0xbd983ef3	-0.074338816
36	0xbe0513b0	-0.12995791
37	0xbd9c2823	-0.07624843
38	0xbe4a32c1	-0.19745924
39	0x3e292802	0.16519168
40	0xbe307091	-0.1723044
41	0x3b907a97	0.004409145
42	0xbe255295	-0.16144784
43	0xbda37651	-0.079815514
44	0xbdbde0dd	-0.09271405
45	0x3e00a691	0.1256354
46	0xbdda3b40	-0.10655832
47	0xbdd60f21	-0.10452104
48	0x3d9068c9	0.07051236
49	0xbd75b15c	-0.059983596
50	0xbe26209d	-0.16223378
51	0xbdc862f7	-0.09784501
52	0x3d75d1e7	0.06001463
53	0xbcdcd95e	-0.026959118
54	0xbda94dd1	-0.082667954
55	0x3dda4f19	0.10659618
56	0xbd7d727d	-0.061876763
57	0x3d8e5292	0.06949343
58	0xbd1904fb	-0.037358265
59	0x3deaf7e9	0.11473066
60	0xbd919b68	-0.071097195
61	0x3c58fef8	0.013244383
62	0x3c6b6a5e	0.014368622
63	0xbdd3dfc4	-0.10345414
64	0x3e1e9dd4	0.15489894
65	0xbd463936	-0.048394404
66	0x3dd99c1c	0.106254786
67	0xbd8c4813	-0.068496846
68	0x3d51bd9b	0.051206212
69	0x3e1dee33	0.15422897
70	0xbe0a4930	-0.13504481
71	0xbdbb970c	-0.09159669
72	0xbd5d2575	-0.0539908
73	0x3e264512	0.16237286
74	0xbc160be1	-0.009158106
75	0x3c90af05	0.01766158
76	0xbd8ad6e4	-0.067792684
77	0x3c5b4085	0.013382082
78	0xbd970fa7	-0.07376032
79	0x3d85b7bb	0.065291844
80	0xbe382a50	-0.17984891
81	0x3b5d4dd8	0.0033768322
82	0xbd05e4a1	-0.03268874
83	0xbe04172a	-0.12899461
84	0xbd992386	-0.07477479
85	0xbd6babd5	-0.05753692
86	0x3e241c05	0.16026314
87	0xba5147c5	-0.0007983412
88	0xbd735f66	-0.05941715
89	0xbe109ba7	-0.14121877
90	0x3e2ccd02	0.1687508
91	0xbdefb45f	-0.11704325
92	0xbdaaed48	-0.08346039
93	0xbe35d8f6	-0.17758545
94	0x3ce54aa0	0.027989686
95	0x3ddf6cc5	0.10909418
96	0x3d608011	0.054809634
97	0x3e076d91	0.1322539
98	0xbdf4ed4d	-0.11959324
99	0xbe0660f2	-0.13122919
100	0xbdb8e0c7	-0.09027248
101	0x3dffc205	0.12488178
102	0x3dbee14d	0.093203165
103	0xbe1e0aeb	-0.15433852
104	0x3e19edef	0.1503217
105	0xbd9b151c	-0.07572386
106	0xbd941089	-0.07229716
107	0x3cd2e55d	0.025744135
108	0xbdf88f65	-0.12136725
109	0x3bec4972	0.007210904
110	0xbd269db1	-0.04067773
111	0x3d1a8bd9	0.037731025
112	0xbd5bc388	-0.05365327
113	0xbdb10b01	-0.08644677
114	0x3d5434d1	0.051808182
115	0xbd8ce9ca	-0.06880529
116	0xbe0825a9	-0.13295616
117	0xbd31217a	-0.043244816
118	0x3e454bd2	0.19267204
119	0x3d80b0a3	0.06283691
120	0xbe0c3475	-0.13691886
121	0xbdca11f6	-0.09866707
122	0xbe1b72e6	-0.15180549
123	0xbe06026d	-0.13086863
124	0x3dc31bb0	0.09526765
125	0x3d5fda87	0.054651763
126	0xbde4082d	-0.11134372
127	0xbe926b16	-0.28597325
128	0x3d4105f6	0.047124825
129	0xbe26476a	-0.1623818
130	0x3e4c8025	0.19970758
131	0xbdb033c5	-0.08603624
132	0xbe6b7431	-0.22993542
133	0x3e8057d8	0.2506702
134	0x3e12fc6f	0.14354108
135	0x3e7a6ac8	0.24454796
136	0x3e4a3093	0.19745092
137	0xbdf5eed8	-0.120084465
138	0x3e353f15	0.17699845
139	0x3c769718	0.015050672
140	0x3b306ed2	0.0026921523
141	0x3e90e0d2	0.28296524
142	0xbda5766d	-0.080792286
143	0xbe5e1633	-0.21688156
144	0x3d8d1fbb	0.06890818
145	0xbea09612	-0.31364495
146	0x3e6d3b61	0.23167183
147	0xbe7c433d	-0.24635024
148	0x3e34b47c	0.17646974
149	0x3ddcefe3	0.10787942
150	0x3e621c44	0.22081095
151	0x3e85989c	0.26092994
152	0xbe51ba9c	-0.20481342
153	0x3da26c8b	0.07930859
154	0xbe50df91	-0.20397784
155	0xbd1297ca	-0.03578929
156	0xbe3c9fab	-0.18420283
157	0x3e2de347	0.1698123
158	0xbea950bc	-0.33069408
159	0xbe157b23	-0.14597754
160	0x3e71faa3	0.23630767
161	0xbeab3c21	-0.33444312
162	0x3e99b569	0.30021217
163	0x3e2901a4	0.16504532
164	0x3e4e24a1	0.2013116
165	0xbea7dbaf	-0.32784793
166	0x3e040d53	0.12895708
167	0xbd84656a	-0.06464656
168	0xbe93f147	-0.28895018
169	0xbde34bb5	-0.11098424
170	0x3e8efdb9	0.2792795
171	0xbe85fd6d	-0.2616991
172	0x3e44ca50	0.19217801
173	0xbe22c074	-0.15893728
174	0xbe61dc58	-0.2205671
175	0xbdb9c62b	-0.09071001
176	0x3eb0fb3a	0.3456667
177	0xbe7ebd8b	-0.24876992
178	0x3dbcb6e7	0.09214573
179	0xbe8cddcb	-0.27512965
180	0x3ea31384	0.31850827
181	0xbdac069a	-0.08399697
182	0x3c1ce62c	0.009576362
183	0xbe30c55c	-0.17262787
184	0xbe4889ad	-0.19583769
185	0xbe8a9c18	-0.27072215
186	0x3ea57ef1	0.3232341
187	0xbc87e6ef	-0.01658961
188	0x3d94c8cd	0.07264862
189	0x3ebf2e9d	0.3734025
190	0x3e93b256	0.28846997
191	0x3df445a4	0.119273454
192	0xbd605b8f	-0.054774817
193	0x3dcb1d1b	0.09917661
194	0x3c96df95	0.01841716
195	0x3df69523	0.12040164
196	0x3d93c2a5	0.0721486
197	0x3dff09d1	0.12453044
198	0xbd5a67bb	-0.05332158
199	0x3d919d37	0.071100645
200	0xbe1c793f	-0.15280627
201	0xbd117fa5	-0.035522122
202	0x3cf47b59	0.029843973
203	0x3e2adccb	0.16685788
204	0xbe512d3c	-0.20427412
205	0xbdc65922	-0.096849695
206	0x3c340acf	0.010988905
207	0x3d14c38d	0.036319304
208	0xbd27612f	-0.040864166
209	0x3df25a84	0.11833671
210	0x3b23692d	0.0024934516
211	0xbd3a43d4	-0.045474842
212	0xbe17a5d3	-0.1480935
213	0x396cbca3	0.00022576987
214	0xbc63746c	-0.013882738
215	0xbde038d1	-0.10948337
216	0x3e35e1fc	0.17761987
217	0xbdd72cd9	-0.10506601
218	0xbd72a823	-0.05924238
219	0xbd9d5e03	-0.07683947
220	0x3e3676dc	0.17818779
221	0xbe8ab492	-0.2709089
222	0x3d1c7daa	0.03820578
223	0x3cd14f5e	0.02555054
224	0xbe48fb7d	-0.19627185
225	0x3cbd1102	0.023079399
226	0xbd820675	-0.06348888
227	0xbdc936d5	-0.098249115
228	0xbe1aff07	-0.15136348
229	0x3e1b4393	0.15162496
230	0xbe0200dd	-0.12695642
231	0x3d2eb470	0.042652547
232	0x3e8b5d0e	0.27219433
233	0x3ceb5e62	0.028731529
234	0xbc8016cf	-0.015635876
235	0xbd73f412	-0.059558935
236	0xbe0542ed	-0.13013811
237	0xbb478de7	-0.003044957
238	0x3c87016b	0.016480168
239	0x3e083e5d	0.1330504
240	0xbe1d0706	-0.1533471
241	0x3abbdb99	0.0014332413
242	0xbdd4482f	-0.103653304
243	0x3da3c07b	0.07995697
244	0xbe472eab	-0.19451396
245	0x3dc4e573	0.096140765
246	0x3e03ab4b	0.12858312
247	0x3c8e491d	0.017368848
248	0xbcd5ffaa	-0.026122887
249	0x3ce0fd32	0.027464483
250	0xbcee2af6	-0.02907322
251	0x3deccba0	0.11562276
252	0xbc0f0e0b	-0.008731375
253	0xbe61802b	-0.22021548
254	0x3dcf788c	0.10130414
255	0xbea15f75	-0.3151814

transformer_encoder.layers.0.self_attn.in_proj_bias f4 [192]
0	0x3cf77114	0.030205287
1	0xbbf12a0c	-0.0073597487
2	0xbe4369ef	-0.19083379
3	0x3cf4662c	0.029833876
4	0xbe0ce1f5	-0.13758071
5	0xbdee07df	-0.11622595
6	0x3e442d92	0.19158009
7	0xbce8f032	-0.028434847
8	0xbcec8664	-0.028872676
9	0xbd9abee1	-0.075559385
10	0x3d320b8d	0.043468047
11	0x3ddd7d70	0.10814941
12	0xbc1d6ae6	-0.009608006
13	0x3dc308d5	0.09523169
14	0xbd075f58	-0.03304991
15	0xbce5ee8a	-0.028067846
16	0x3b832c98	0.0040031187
17	0xba113fd6	-0.00055408233
18	0xbdc25599	-0.09488983
19	0xbe0efb09	-0.1396295
20	0xbd667601	-0.05626488
21	0xbd56953f	-0.052388426
22	0xbe13e2b3	-0.14441948
23	0xbd339f52	-0.04385311
24	0xbd10f69d	-0.03539144
25	0xbd4ef97b	-0.050530892
26	0xbda709b1	-0.08156145
27	0x3d6b85bf	0.057500597
28	0x3d8b2c62	0.06795575
29	0xbdd1702d	-0.10226474
30	0xbd1997e9	-0.03749839
31	0x3d3a549d	0.04549085
32	0x3dab39fd	0.0836067
33	0xbda4ec39	-0.080528684
34	0xbb0139d4	-0.0019718306
35	0x3dc2b46a	0.095070675
36	0x3df759e0	0.12077689
37	0x3d8db0c1	0.06918479
38	0xbdf4501a	-0.11929341
39	0x3de1f787	0.1103354
40	0x3c17e83e	0.009271679
41	0xbd69b3ff	-0.057056423
42	0xbd584e46	-0.052809022
43	0x3d73c52d	0.059514213
44	0x3d3342fe	0.04376506
45	0x3e17219d	0.14758916
46	0x3c4750f5	0.012165298
47	0x3e210c5c	0.15727371
48	0x3de937d0	0.113875985
49	0x3d8cfe7a	0.06884475
50	0x3c5a176e	0.01331125
51	0x3c4a96e6	0.012365079
52	0x3d8d6786	0.06904511
53	0xbd57f4ba	-0.052723624
54	0x3c9f1a35	0.019421676
55	0x3dc82784	0.09773162
56	0xbcc6f147	-0.024284972
57	0xbdca1f0f	-0.09869205
58	0x3e04bdcc	0.12963027
59	0xbdb9fc35	-0.09081308
60	0xbd4c7f52	-0.04992611
61	0x3e12b5e5	0.143272
62	0xbd72b565	-0.059255023
63	0xbdcb4858	-0.09925908
64	0x3a95a82f	0.001141792
65	0x399c9fb8	0.00029873638
66	0xba8c22c1	-0.001069151
67	0xb9e0e0a4	-0.0004289198
68	0x398b0926	0.00026518962
69	0x3b49ca2d	0.0030790672
70	0x3a1ca242	0.0005975106
71	0x3ae70ec7	0.0017628305
72	0xb9cc5ef7	-0.00038980666
73	0x3b1f785e	0.002433322
74	0xb92973e6	-0.00016160271
75	0xb90838ad	-0.00012991084
76	0x390a78ab	0.00013205658
77	0x3949176e	0.00019177582
78	0x3ad3e0f6	0.0016165066
79	0x3a185a5c	0.00058118044
80	0x3989f719	0.00026314778
81	0xba963509	-0.0011459898
82	0x3b22d806	0.0024847998
83	0x3b0f32ab	0.0021850269
84	0x38f1e384	0.000115341536
85	0x3a1d944e	0.0006011174
86	0x3b8c98d8	0.0042906813
87	0x39ecdc53	0.00045177582
88	0x3ab9786b	0.0014150267
89	0x3ada8883	0.0016672764
90	0x3a328fb4	0.00068115746
91	0xb97efe81	-0.00024318138
92	0xbaf36c22	-0.0018571655
93	0x3b295dcd	0.0025843263
94	0x39cd696b	0.0003917919
95	0xba88e795	-0.0010444993
96	0xb98053fe	-0.00024476642
97	0xb8ba17a8	-8.8735775e-05
98	0xb8882db8	-6.493501e-05
99	0x38d3a805	0.0001009256
100	0x3727cda7	1.0001858e-05
101	0xb951ccd7	-0.00020008102
102	0x3a24c8a7	0.0006286003
103	0x38181fef	3.6269365e-05
104	0xb9d277aa	-0.00040143478
105	0x392c8a41	0.00016454702
106	0xba06886e	-0.0005132024
107	0xb9a80535	-0.00032047337
108	0xb95ac883	-0.00020864797
109	0xb8d0574e	-9.934475e-05
110	0xb7397f42	-1.1056489e-05
111	0xb8a6d7f5	-7.955722e-05
112	0x39e8eaf8	0.00044425554
113	0x38ac0efb	8.2043895e-05
114	0x390054ea	0.00012238664
115	0xba9c0ad9	-0.0011905088
116	0x39c12a55	0.00036843368
117	0xba90361c	-0.0011002454
118	0xb99edbd2	-0.00030299887
119	0x3998eb48	0.00029166997
120	0xb939eeb5	-0.000177319
121	0x398e78c7	0.00027174337
122	0xba94e411	-0.0011359473
123	0xb3a021ab	-7.456705e-08
124	0x399d1981	0.00029964375
125	0x3ac7ffd1	0.0015258734
126	0xb96da421	-0.00022663224
127	0x3a5b52bd	0.0008366516
128	0xbc826000	-0.015914917
129	0x3c877dd3	0.01653949
130	0xbaaf01bd	-0.0013351958
131	0x3c00e5b9	0.00786727
132	0xbbb928d2	-0.005650618
133	0xba3e295e	-0.0007254089
134	0x3c446e1e	0.011989145
135	0xba80fba7	-0.0009840623
136	0xbb3649c2	-0.002781496
137	0xbcdff774	-0.027339675
138	0x3c92783d	0.0178796
139	0xbce12f70	-0.02748844
140	0x3b49cd43	0.0030792512
141	0x3bea46ee	0.0071495688
142	0xbc7b5575	-0.015340199
143	0xbab9f644	-0.0014187773
144	0xbc4e15ed	-0.01257847
145	0xbcbcb12a	-0.023033697
146	0x39c53c7e	0.00037619838
147	0xbc51bc3a	-0.012801224
148	0x3b05bb0c	0.0020405678
149	0x3cecac31	0.028890701
150	0xba8581fc	-0.0010185833
151	0xbc0c979f	-0.008581071
152	0xbb944a9c	-0.0045254957
153	0x3c2ca0bc	0.010536369
154	0xbc8f3b2b	-0.017484268
155	0x3c901499	0.017587947
156	0xba090ccc	-0.0005228042
157	0x3b371357	0.0027935111
158	0x3b3a4c32	0.0028426764
159	0xbc8916ac	-0.016734444
160	0x3c6c7e2d	0.0144343795
161	0x3c3a2a1a	0.011362577
162	0xbc3cdad0	-0.011526778
163	0x3b8a388a	0.0042181658
164	0xbcc9db7f	-0.024640797
165	0xbbee0cfd	-0.007264732
166	0x3bdc5066	0.0067234514
167	0xbc47a2cb	-0.012184809
168	0xbc884d71	-0.01663849
169	0x3c290129	0.010315218
170	0x3c94f579	0.018183457
171	0x3d1fe308	0.039034873
172	0x3bac8e5a	0.005265993
173	0xbc9f8c24	-0.019476004
174	0xbc2ea212	-0.010658758
175	0xbc59cdfb	-0.0132937385
176	0x3cbd020e	0.023072269
177	0xbb41895e	-0.002953134
178	0xbc500c3d	-0.01269823
179	0xbc722fae	-0.014781876
180	0x3c71cdb3	0.014758515
181	0xbb8a0b53	-0.0042127757
182	0x3b733c59	0.0037114827
183	0x3a836397	0.0010024187
184	0xbbaf9b6e	-0.005359105
185	0x3be30dc8	0.006929133
186	0xbb9038b2	-0.00440129
187	0x3c0daa1e	0.008646516
188	0xbc8f90ff	-0.017525194
189	0xbbd6c7b0	-0.0065545663
190	0x3bf082ca	0.00733981
191	0xbbea3786	-0.007147732

transformer_encoder.layers.0.self_attn.out_proj.weight f4 [64, 64]
0	0x3dcba606	0.09943776
1	0xbdbe9274	-0.093052775
2	0x3b9e7d18	0.0048366897
3	0x3c5487d8	0.012971841
4	0xbcb46db8	-0.022024974
5	0xbdb8efb6	-0.09030096
6	0x3bb274ee	0.005446068
7	0x3d8d7396	0.06906812
8	0x3d4c73c4	0.04991509
9	0xbdc482af	-0.095952384
10	0x3dda14e5	0.106485166
11	0x3d8a0a8c	0.06740293
12	0x3dda293b	0.10652395
13	0x3d157941	0.03649259
14	0x3c846d82	0.016165499
15	0x3dad2f30	0.08456266
16	0xbdd07ec3	-0.10180428
17	0x3e316585	0.17323883
18	0xbc2f4870	-0.010698423
19	0x3bd2ea9e	0.00643666
20	0x3d7443d6	0.059635006
21	0x3c2cdd99	0.01055088
22	0x3d5f0210	0.054445326
23	0x3e14ffea	0.14550748
24	0x3ce4bc95	0.027921954
25	0x3cc6166f	0.024180619
26	0x3e1437f4	0.1447447
27	0xbde1e5d7	-0.110301666
28	0xbbfc5078	-0.0077000223
29	0xbce0d1c2	-0.02744377
30	0x3c04e1d0	0.0081104785
31	0x3e0cc574	0.13747197
32	0xbda21bc8	-0.07915455
33	0xbcf96619	-0.030444192
34	0x3dda94e2	0.106729284
35	0xbb97c55c	-0.0046316814
36	0xbc30d4fa	-0.010792965
37	0x3d42aa61	0.047525767
38	0xbd3d0d4e	-0.046155266
39	0xbe1baa28	-0.15201628
40	0x3e17f0f3	0.14838009
41	0x3d06a212	0.032869406
42	0xbcf9966f	-0.03046724
43	0xbd3f8914	-0.046761587
44	0xbd1fbf36	-0.039000712
45	0xbe238811	-0.15969874
46	0xbd50f85c	-0.051018104
47	0x3d631037	0.055435386
48	0x3deebe85	0.116574325
49	0xbde6559a	-0.11246796
50	0xbb3d7775	-0.0028910313
51	0x3cd6ba77	0.02621196
52	0xbdbf32a5	-0.093358316
53	0xbc895b97	-0.016767306
54	0x3dc5f0a2	0.09665038
55	0x3d96909e	0.07351802
56	0xbbf70257	-0.0075381207
57	0x3ccad838	0.024761304
58	0xbdd32aa5	-0.10310868
59	0xbd5de94a	-0.05417756
60	0xbdcb3aad	-0.09923301
61	0x3dbca4af	0.092110984
62	0xbde43ceb	-0.11144432
63	0x3cd3710e	0.025810745
64	0x3dde89c6	0.10866122
65	0xbc5c1333	-0.013432312
66	0xbdb1c92b	-0.08680948
67	0x3d7809f6	0.060556374
68	0xbd1f8598	-0.038945764
69	0xbd3e26b9	-0.046423648
70	0x3d9641c4	0.073367625
71	0xbc00d19e	-0.007862477
72	0xbb1acd2d	-0.002362083
73	0xbe39562b	-0.18099277
74	0x3d6b8e9a	0.057509042
75	0xbcc3ec45	-0.023916373
76	0x3ddf1f3b	0.108946286
77	0x3ddf39d0	0.10899699
78	0x3d9dd9db	0.07707568
79	0x3db5e0c2	0.0888076
80	0x3a31a868	0.00067771086
81	0xbde6b4b7	-0.11264937
82	0xbdf7fcef	-0.1210879
83	0x3dce522f	0.10074269
84	0xbc71ff33	-0.014770317
85	0x3e008153	0.12549333
86	0xbdbbc75f	-0.091688864
87	0x3db13895	0.0865337
88	0x3df8f5b0	0.12156236
89	0xbd794a0b	-0.06086163
90	0xbcab76bf	-0.020930646
91	0xbd203dba	-0.039121367
92	0xbdac6ffe	-0.08419798
93	0xbd5ab294	-0.05339296
94	0xbcb259b9	-0.021771299
95	0xbdb365d9	-0.0875966
96	0xbce83455	-0.028345266
97	0xbb6ae969	-0.003584469
98	0x3ad32531	0.0016109106
99	0xbd1c51bb	-0.03816388
100	0xbcd708a2	-0.026249234
101	0xbda848c0	-0.08217001
102	0x3dcfca08	0.10145956
103	0xbd9ffc99	-0.07811851
104	0x3de8c448	0.11365563
105	0xbd8d5f35	-0.06902925
106	0xbd5b80b0	-0.053589523
107	0x3da1d6d7	0.079023056
108	0x3c5d1079	0.013492697
109	0x3d9466eb	0.072461925
110	0xbd132d0a	-0.035931624
111	0xbd34b201	-0.04411507
112	0xbd952285	-0.07281975
113	0x3ddf081a	0.10890217
114	0x3e3455c5	0.17610843
115	0xbdab8188	-0.083743155
116	0x3e085376	0.13313088
117	0x3d66bfad	0.05633514
118	0x3ca9ae1b	0.020712903
119	0xbbe973f2	-0.0071244175
120	0x3cf5eb74	0.0300195
121	0x3c7e3ed1	0.015517906
122	0x3daf920e	0.085727796
123	0xbddcaed4	-0.10775533
124	0x3da384bb	0.07984301
125	0x3e38ab0b	0.18033998
126	0x3de40836	0.111343786
127	0xbdf4506f	-0.11929404
128	0xbde80019	-0.113281436
129	0xbdf72f93	-0.12069621
130	0x3da90335	0.08252565
131	0xbd39aebe	-0.045332663
132	0x3c9c7743	0.019099837
133	0xbdcfa959	-0.101397224
134	0xbd5fe299	-0.05465946
135	0x3d7a1572	0.061055608
136	0x3caebf11	0.021331342
137	0xbe1a4487	-0.15065204
138	0x3e3e1e08	0.18566144
139	0xbdce266c	-0.10065922
140	0xbde26b6f	-0.110556476
141	0x3d85621f	0.06512856
142	0xbd301b30	-0.042994678
143	0xbd4601d9	-0.048341606
144	0xbd58114a	-0.052750863
145	0xbd1fca56	-0.039011322
146	0x3e609bb6	0.21934399
147	0x3e031883	0.12802319
148	0x3d970bac	0.07375273
149	0x3c68bd2f	0.014205261
150	0xbd29a274	-0.041414693
151	0x3c4f3bd5	0.012648542
152	0xbdc3fd59	-0.095698066
153	0x3d861032	0.06546058
154	0x3de9cf9c	0.114165515
155	0x3d3fb9a9	0.04680792
156	0x3d90f824	0.07078579
157	0x3da978d8	0.08275002
158	0x3d0cd987	0.034387138
159	0x3db34652	0.08753647
160	0xbd21eb26	-0.039530896
161	0xbc3b2a14	-0.011423606
162	0x3e0261f6	0.12732682
163	0x3cf3f1c9	0.029778378
164	0x3e09dde3	0.1346355
165	0xbd310492	-0.04321725
166	0xbd3a7c95	-0.045528967
167	0xbd142754	-0.03617032
168	0xbd402dc0	-0.04691863
169	0x3ace1d82	0.0015725347
170	0xbd813892	-0.06309618
171	0xbd068b2f	-0.03284758
172	0xbdaa4e03	-0.08315661
173	0xbdf0df46	-0.11761336
174	0x3e07e58c	0.13271159
175	0x3bb6843b	0.0055699623
176	0xbd5442bc	-0.051821455
177	0x3d69eae9	0.057108793
178	0x3e032c01	0.12809755
179	0x3d897958	0.067125976
180	0xbbf5813e	-0.0074922135
181	0x3d6705e1	0.05640209
182	0x3b98185c	0.0046415757
183	0x3d6e0a38	0.058115214
184	0x3dc4c49b	0.09607812
185	0x3e07f5b2	0.13277319
186	0x3e23a800	0.15982056
187	0xbd71c807	-0.05902865
188	0xba1ff3ea	-0.00061017147
189	0xbe3353a6	-0.17512378
190	0xbe32135a	-0.17390195
191	0x3e099416	0.13435397
192	0x3cbbc35b	0.022920301
193	0x3d4c4e34	0.049879268
194	0xbd59ace1	-0.053143386
195	0xbdd012a7	-0.10159808
196	0x3db4dc8b	0.08831128
197	0x3dc8e831	0.09809912
198	0xbe5ae25c	-0.21375412
199	0xbdaec881	-0.08534337
200	0x3dd3d643	0.103436016
201	0x3da55601	0.080730446
202	0xbe1add0e	-0.15123388
203	0x3d8a36a9	0.06748707
204	0xbd85454a	-0.065073565
205	0xbded514e	-0.11587773
206	0x3d7685d6	0.06018623
207	0xbcd196b1	-0.02558455
208	0xbe2fa904	-0.17154318
209	0x3c75a4a4	0.014992867
210	0x3d378216	0.044801794
211	0x3dc26a7d	0.09492967
212	0xbe01136f	-0.1260507
213	0x3e03abe9	0.12858547
214	0xbe0217ef	-0.12704442
215	0xbd84df30	-0.06487882
216	0xbdee9f00	-0.116514206
217	0x3df72fe6	0.12069683
218	0x3d68c6ed	0.056830335
219	0xbd81e2c6	-0.06342082
220	0xbe035050	-0.12823606
221	0x3a1ebdc9	0.0006055502
222	0xbe0f2263	-0.13977961
223	0xbe152171	-0.14563538
224	0x3de185af	0.11011826
225	0x3e178400	0.14796448
226	0x3d0dd797	0.03462943
227	0xbddc1eb3	-0.10748043
228	0xbd4627b0	-0.048377693
229	0x3d780874	0.060554937
230	0x3e03ea01	0.12882234
231	0x3dcfa8c6	0.10139613
232	0x3e0bfedb	0.13671438
233	0xbcfb7d8c	-0.030699514
234	0x3dc19b34	0.09453431
235	0xbd6b25f9	-0.05740926
236	0x3da1ba2f	0.0789684
237	0x3d4d4b02	0.05012036
238	0x3d464216	0.04840287
239	0xbdd75524	-0.10514286
240	0xbb206a7f	-0.002447754
241	0x3dbfba9a	0.09361763
242	0xbd97fdb3	-0.07421436
243	0x3c66a0ae	0.014076395
244	0x3dd67de8	0.104732335
245	0x3d1eb0f6	0.03874298
246	0xbd84692a	-0.06465371
247	0x3de6e61c	0.11274359
248	0x3e2ce777	0.16885172
249	0x3de80afe	0.113302216
250	0xbe0a9aa9	-0.1353556
251	0xbd51db86	-0.051234744
252	0x3e3d08b0	0.18460345
253	0xbe1ccd82	-0.1531277
254	0xbdb47127	-0.088106446
255	0x3e03ba25	0.12863977

transformer_encoder.layers.0.self_attn.out_proj.bias f4 [64]
0	0x3b873d5e	0.0041271886
1	0x3c06a476	0.0082179215
2	0x3bc96a21	0.0061466848
3	0xbc5567ca	-0.0130252335
4	0x3b912417	0.004429351
5	0x3c7e28d5	0.015512665
6	0x3cfc59f8	0.03080462
7	0x3c7b9a9a	0.015356684
8	0x3babbce2	0.0052410224
9	0xbc2f7b6c	-0.010710578
10	0x3cd4ac1d	0.025960976
11	0x3bfa951b	0.0076471693
12	0x3c7b28c9	0.015329548
13	0xbc3737dc	-0.0111827515
14	0xbc958962	-0.018253986
15	0xbc88f040	-0.016716123
16	0x3b8723a2	0.004124121
17	0xba19547c	-0.0005849076
18	0x3bf37771	0.00743001
19	0x3bfb1187	0.0076620015
20	0xbd0985ff	-0.033575054
21	0x3c0b4fb9	0.008502894
22	0xbc714df9	-0.014728063
23	0x3c90a1ac	0.017655216
24	0xbc38f778	-0.01128947
25	0x3c021860	0.007940382
26	0x3c228895	0.009920259
27	0x3bcb97c4	0.00621316
28	0xbb716ed8	-0.003683975
29	0x3c9732d1	0.018456848
30	0xbce8fc76	-0.028440695
31	0xbc6bb880	-0.01438725
32	0x3bf983e8	0.0076146014
33	0xbd092157	-0.03347906
34	0x3c88da2b	0.016705593
35	0xba7c4458	-0.0009623221
36	0x3be5f383	0.0070175542
37	0x3ca0683f	0.019580958
38	0xbcd6d6a2	-0.026225392
39	0xbd0abf77	-0.033874
40	0x3c59a4f6	0.013283959
41	0x3d80642b	0.062691055
42	0xbd43f579	-0.047841523
43	0xbc1971b6	-0.00936549
44	0xbd4a43f1	-0.0493812
45	0xbaf9fa5e	-0.0019071808
46	0x3c914519	0.017733144
47	0x3bd3add8	0.006459933
48	0x3b8afbac	0.0042414274
49	0xbc24eb0a	-0.010065803
50	0x3d29e226	0.041475438
51	0x3c4db46d	0.012555224
52	0xbc9920ad	-0.018692339
53	0xbc53a61a	-0.01291802
54	0xbc327756	-0.01089271
55	0x3cd9ab0f	0.026570825
56	0xbca5ec80	-0.020254374
57	0x3c89fc6d	0.016843999
58	0xbc930bd2	-0.017949972
59	0xbb95942a	-0.0045647817
60	0x3c87c323	0.01657254
61	0xbbc99ae9	-0.0061525
62	0xbc65ce66	-0.01402626
63	0x3bcd1612	0.0062587345

transformer_encoder.layers.0.linear1.weight f4 [256, 64]
0	0x3d1a2613	0.037633967
1	0xbe0ac4d5	-0.13551648
2	0xbcd24c00	-0.025671005
3	0xbdfa3908	-0.12217909
4	0xbd394ac2	-0.04523731
5	0xbd07656a	-0.0330557
6	0x3dc29242	0.09500553
7	0x3bf8398a	0.0075752186
8	0x3dee7ad2	0.1164452
9	0xbdca59ff	-0.09880447
10	0x3dbb66dd	0.09150479
11	0x3c9c441c	0.019075446
12	0xbc96c4c2	-0.018404368
13	0xbc91e15a	-0.017807651
14	0x3c39d007	0.0113411015
15	0xbc735f88	-0.014854319
16	0xbcb8857b	-0.022524586
17	0xbc2f6b6d	-0.010706765
18	0xbc8960ec	-0.016769849
19	0x3dcfff69	0.101561375
20	0xbd1c3098	-0.03813228
21	0x3df4bddf	0.119502775
22	0x3e0e9a37	0.13926016
23	0xbd6d5072	-0.057938047
24	0xbdd93039	-0.10604901
25	0x3dabdffd	0.08392332
26	0x3c43ad5f	0.01194319
27	0xbdd283cd	-0.10279045
28	0x3bcf4c39	0.006326225
29	0x3d81664c	0.0631834
30	0xbe217b81	-0.15769769
31	0xbe017b6c	-0.12644738
32	0xbd99094d	-0.07472477
33	0xbcc77e94	-0.02435235
34	0xbd749a0b	-0.05971722
35	0xbd463ab6	-0.048395835
36	0x3dde0384	0.10840514
37	0xbe1fe743	-0.15615563
38	0xbdd3e2da	-0.10346003
39	0xbdf8605f	-0.12127756
40	0x3ce24013	0.027618444
41	0xbdfc08bf	-0.12306356
42	0xbcd818aa	-0.026378948
43	0x3d3adbe2	0.045619853
44	0x3dd92cd4	0.106042534
45	0xbdf995ec	-0.121867985
46	0x3c98e1d3	0.018662369
47	0xbe18d710	-0.1492579
48	0x3d43f9c4	0.047845617
49	0xbe04ea4e	-0.12980005
50	0x3d9953db	0.07486697
51	0xbe231731	-0.15926816
52	0xbd8fc614	-0.07020202
53	0x3d1fb3a5	0.03898968
54	0xbd511a5f	-0.05105054
55	0xbdb924fa	-0.09040256
56	0xbe296c9b	-0.16545336
57	0xbb61c402	-0.0034449105
58	0x3d1172cb	0.035509866
59	0xbda58097	-0.08081167
60	0x3b730eca	0.0037087672
61	0xbcac910a	-0.021065254
62	0xbd23f9fd	-0.04003333
63	0xbc8d82fe	-0.017274376
64	0x3d52ce4f	0.051466282
65	0x3dd9738e	0.106177434
66	0x3bf040e8	0.007331956
67	0x3ce16ec5	0.02751864
68	0xbd9b98d7	-0.07597511
69	0xbdc2903e	-0.09500168
70	0x3d077da7	0.033078816
71	0xbcfd2cb4	-0.030905105
72	0xbd572015	-0.05252083
73	0x3e232dc3	0.15935425
74	0x3dcac365	0.0990055
75	0x3dfd469b	0.123669825
76	0xbb67f24d	-0.0035392225
77	0xbd7108a3	-0.058846127
78	0x3db040c2	0.086061016
79	0xbdc13fee	-0.09436022
80	0xbe51911d	-0.20465513
81	0x3ce7f42b	0.02831467
82	0xbbe09a79	-0.006854352
83	0x3da551de	0.080722556
84	0x3dd255df	0.10270285
85	0xbe0faede	-0.1403155
86	0x3e2006d5	0.15627606
87	0x3d29a0cd	0.041413117
88	0x3ba5e8fd	0.0050631748
89	0xbd00d95b	-0.031457286
90	0xbd10a710	-0.035315573
91	0x3d98acb6	0.07454817
92	0xbe2fca88	-0.17167103
93	0x3d2aa458	0.041660637
94	0xbd1f30bc	-0.038864836
95	0xbe3a49cc	-0.18192214
96	0xbd8752ba	-0.06607576
97	0xbda48bf4	-0.080345064
98	0xbdc08caf	-0.09401833
99	0x3d6642de	0.056216113
100	0xbd1a37c6	-0.037650846
101	0xbdc32b4e	-0.09529744
102	0x3b5196eb	0.0031980823
103	0xbdb80dd1	-0.0898701
104	0xbd9378f9	-0.07200808
105	0xbded4290	-0.115849614
106	0x3d783c2b	0.060604256
107	0xbe5218ad	-0.20517226
108	0xbd817b4e	-0.06322347
109	0xbdbc285c	-0.091873854
110	0xbd58d840	-0.052940607
111	0x3d12ed4e	0.035870843
112	0xbdc20d13	-0.0947515
113	0x3c9a4fb6	0.018836837
114	0x3d12c85f	0.03583562
115	0x3dd353c4	0.103187114
116	0xbdf21a3b	-0.11821409
117	0xbe0f5c0d	-0.13999958
118	0x3e077eea	0.13232008
119	0xbe1f9e86	-0.15587816
120	0xbdd219e8	-0.102588475
121	0x3dad585f	0.08464121
122	0x3d901d31	0.07036818
123	0x3e092591	0.13393237
124	0x3cb13a80	0.02163434
125	0x3dff828c	0.12476072
126	0x3d8903b9	0.06690163
127	0x3d9077c2	0.07054092
128	0xbd83ef93	-0.064421795
129	0xbe150a6b	-0.14554755
130	0x3cb8930d	0.022531057
131	0xbc810a12	-0.015751872
132	0xbd5e294a	-0.054238595
133	0x3d85d4c7	0.06534725
134	0xbc04c905	-0.008104567
135	0x3e1ad416	0.15119967
136	0xbd064d55	-0.032788593
137	0xbb53a658	-0.0032295194
138	0xbd05cbb1	-0.03266496
139	0x3e1e2a59	0.15445842
140	0x3e14d037	0.14532553
141	0xbcc5b3d3	-0.024133598
142	0x3e04d260	0.12970877
143	0xbe37cc4d	-0.17949028
144	0xbe04cb47	-0.12968169
145	0xbc077f7f	-0.0082701435
146	0x3daf745d	0.085671164
147	0x3dbff4a4	0.09372833
148	0xbc1262b3	-0.008934665
149	0xbdca504d	-0.098785974
150	0x3d7556a3	0.059897076
151	0x3c880534	0.016604044
152	0x3cbe01d2	0.023194227
153	0x3dee6d91	0.11641992
154	0xbd50f853	-0.05101807
155	0xbe8a590a	-0.27021056
156	0xbc59cdd1	-0.013293699
157	0x3cf69b74	0.030103423
158	0x3d35e3bd	0.04440664
159	0xbb337ed7	-0.0027388835
160	0xbe723282	-0.2365208
161	0xbddb3c0c	-0.107048124
162	0x3dbf9278	0.093541086
163	0xbd812888	-0.06306559
164	0xbc448aaa	-0.011995951
165	0xbc89632b	-0.01677092
166	0x3cca6d29	0.024710255
167	0xbdc084dd	-0.09400342
168	0x3d60106e	0.05470317
169	0xbcce5254	-0.025185741
170	0x3c95e9a1	0.01829988
171	0x3d023c7b	0.03179596
172	0x3e3a3d16	0.18187365
173	0xbd49bd72	-0.049252935
174	0x3db07505	0.0861607
175	0xbd255f66	-0.040374182
176	0x3ce534d0	0.027979285
177	0xbe256116	-0.16150317
178	0xbd238ea7	-0.039930966
179	0x3d9d5e8e	0.076840505
180	0xbcaf9400	-0.021432877
181	0xbdee81ca	-0.11645849
182	0xbd82e986	-0.06392197
183	0xbe55dfef	-0.20886205
184	0x3db310f5	0.08743469
185	0xbdb61d89	-0.08892352
186	0x3e615800	0.22006226
187	0xbca7c4cd	-0.020479584
188	0xbd97f9e7	-0.07420712
189	0xbcf9297d	-0.030415291
190	0xbda42b30	-0.0801605
191	0x3e09a806	0.13443002
192	0x3d4529ed	0.048135687
193	0x3ce85e93	0.028365409
194	0x3c983640	0.018580556
195	0xbd92eee7	-0.07174473
196	0x3da034e7	0.0782259
197	0xbbafe738	-0.0053681396
198	0x3cec096b	0.028813085
199	0x3c9d9662	0.019236747
200	0x3d93eff9	0.072235055
201	0xbdd3684e	-0.10322629
202	0x3d714616	0.05890473
203	0xbe2c6dbb	-0.16838734
204	0x3b001a44	0.0019546906
205	0xbcb01597	-0.02149467
206	0xbd83c4ac	-0.064339966
207	0xbdf2424b	-0.11829051
208	0x3d52066b	0.051275652
209	0xbcc3438d	-0.023835922
210	0x3dd174fd	0.10227392
211	0xbd902ce5	-0.07039813
212	0x3cc8968e	0.024485853
213	0xbce844f7	-0.028353198
214	0x3df60f16	0.12014596
215	0xbbbbbdec	-0.0057294276
216	0xbde2d8f6	-0.11076538
217	0xbdc74d44	-0.09731534
218	0xbdfa61b8	-0.122256696
219	0xbc5ced37	-0.013484291
220	0x3d2353a0	0.039874673
221	0xbd35d521	-0.04439271
222	0xbe0b7739	-0.13619699
223	0xbe13b6a5	-0.14425142
224	0x3c913545	0.017725596
225	0x3d674db8	0.056470603
226	0x3af82fb7	0.0018935119
227	0xbe295e38	-0.16539848
228	0x3e05ffb4	0.13085824
229	0xbc19c9b1	-0.009386466
230	0x3d3f870b	0.046759646
231	0xbdcf8c5d	-0.10134194
232	0x3d8ac4d2	0.06775822
233	0xb937a208	-0.00017512601
234	0xbc45b27e	-0.012066482
235	0xbda941da	-0.08264513
236	0x3d0be3db	0.034152847
237	0xbd5817e7	-0.05275717
238	0xbe8d9294	-0.27650893
239	0x3d583419	0.05278406
240	0x3dd79bf3	0.10527792
241	0xbd139d3f	-0.036038633
242	0x3de28010	0.11059582
243	0xbe3769bc	-0.17911428
244	0x3e2bbe60	0.16771841
245	0xbd9de9cb	-0.07710608
246	0x3e2365c4	0.1595679
247	0xbdd02bc6	-0.10164599
248	0xbddcc58f	-0.10779869
249	0xbdfd4a0c	-0.12367639
250	0x3bb7fe69	0.005615045
251	0x3dad66c1	0.084668644
252	0xbd42955f	-0.047505733
253	0xbde78083	-0.113038085
254	0x3da4a90b	0.08040055
255	0x3cee1187	0.029061092

transformer_encoder.layers.0.linear1.bias f4 [256]
0	0xbde38e7f	-0.11111163
1	0x3d4d39dc	0.050104007
2	0xbe2d4e7d	-0.16924472
3	0xbd2cc819	-0.042183015
4	0x39a83a70	0.00032086996
5	0xbe07e46e	-0.13270733
6	0x39cc79bd	0.00039000614
7	0x3d100b03	0.03516675
8	0xbda8fa1b	-0.08250829
9	0x3c52fcc8	0.012877651
10	0x3be00921	0.0068370258
11	0x3dae605d	0.085144736
12	0xbe0793f7	-0.13240038
13	0xbd6908d4	-0.056893185
14	0xbe1b1d54	-0.15147907
15	0xbd8faf38	-0.07015842
16	0x3d7d80a4	0.06189026
17	0x3d38b6eb	0.04509632
18	0x3d31b768	0.0433878
19	0x3d73865c	0.059454307
20	0xbe1d85cc	-0.1538307
21	0xbd2b7d5c	-0.0418676
22	0xbca61ecd	-0.020278359
23	0x390e8db0	0.00013594958
24	0xbd2e8a32	-0.042612262
25	0xbe2db39c	-0.16963047
26	0xbd455f1d	-0.04818641
27	0xbc50cb63	-0.012743804
28	0xba84f3d6	-0.001014347
29	0xbddbcea1	-0.10732771
30	0xbe09f330	-0.13471675
31	0xbcc53da4	-0.024077244
32	0xbdb449cb	-0.088031374
33	0xbe0cb782	-0.13741878
34	0xbb826bfd	-0.0039801584
35	0xbe23d8b3	-0.16000633
36	0xbdf4c6d6	-0.119519874
37	0xbd8dd93a	-0.06926198
38	0xbe04c23b	-0.12964718
39	0xbe04facb	-0.12986295
40	0xbde5a7b3	-0.11213627
41	0xbdfdda08	-0.12395102
42	0x3d70546c	0.05867426
43	0x3cb11f61	0.021621408
44	0xbd4e9aca	-0.050440587
45	0x3cf1b623	0.029505795
46	0xbcd92e7f	-0.026511429
47	0x3d7a9523	0.061177384
48	0xbdab990e	-0.08378802
49	0xbe1c046b	-0.1523606
50	0xbd46d730	-0.048545063
51	0xbd98d098	-0.07461661
52	0x3d95905b	0.07302924
53	0x3d1caba3	0.038249623
54	0xbc3e939c	-0.0116318725
55	0xbc75aff0	-0.01499556
56	0xbd673ecc	-0.056456372
57	0xbc6d5367	-0.014485217
58	0x3ce281c1	0.027649762
59	0xbd100bdd	-0.035167564
60	0xbdc415c2	-0.095744625
61	0xbd87cc91	-0.06630815
62	0xbe0d33a9	-0.13789238
63	0xbd3ac734	-0.04560013
64	0xbdaf93ef	-0.08573138
65	0xbdc67d0e	-0.09691821
66	0x3d2adb5e	0.04171311
67	0xbe038a45	-0.12845714
68	0xbe1464a4	-0.14491516
69	0xbd888e61	-0.066677816
70	0xbdf5cdbe	-0.12002133
71	0xbcd666e0	-0.026172101
72	0x3d32c7a3	0.04364742
73	0xbc8a35c9	-0.01687135
74	0xbc86b07c	-0.016441576
75	0x3d120575	0.035649735
76	0xbe1ef396	-0.15522608
77	0xbdb1cf0d	-0.0868207
78	0xbc4f27a0	-0.012643725
79	0x3b053082	0.0020323102
80	0xbda2ee70	-0.079556346
81	0xbe027055	-0.12738164
82	0xbe123828	-0.14279234
83	0x3d651285	0.055925865
84	0xbd03c7a7	-0.032172825
85	0x3c67463e	0.014115868
86	0xbd981b92	-0.074271336
87	0x3dfb965a	0.12284537
88	0x3d50d0ed	0.050980497
89	0xbdf594d2	-0.11991276
90	0x3da43f25	0.08019856
91	0x3d9720f7	0.073793344
92	0xbd84ff91	-0.06494058
93	0x3c6ef2a1	0.014584214
94	0xbe344807	-0.17605601
95	0x3dbc9826	0.092087075
96	0xbd15d80a	-0.036582984
97	0xbde44608	-0.1114617
98	0x3cb787fd	0.022403711
99	0x3c565cfa	0.013083691
100	0xbe01dcd9	-0.12681903
101	0xbd34342c	-0.043995067
102	0x3d4edca7	0.0505034
103	0x3ca5eb20	0.020253718
104	0x3d49f742	0.04930807
105	0xbdbb3743	-0.091414
106	0x3d9a83a5	0.075446405
107	0xbe0abbea	-0.13548246
108	0xbbf37b72	-0.0074304873
109	0xbe17eed7	-0.14837204
110	0xbdf1e693	-0.11811557
111	0xbde376d0	-0.11106646
112	0xbe0526ae	-0.13003036
113	0xbd90d69e	-0.07072185
114	0xbe032e41	-0.12810613
115	0xbd8a51e2	-0.06753899
116	0x3db5eb92	0.08882822
117	0xbd41917c	-0.047257885
118	0xbce1d519	-0.027567433
119	0xbdee9023	-0.11648586
120	0xbe335684	-0.17513472
121	0x3d4eeba3	0.05051769
122	0x3d33090f	0.04370981
123	0xbd0956f5	-0.033530194
124	0xbde9d29f	-0.11417126
125	0x3da56ce1	0.08077408
126	0x3db91c6d	0.09038625
127	0xbd3ae687	-0.045630004
128	0x3d0e12a3	0.034685742
129	0x3c5ba089	0.013404974
130	0xbdc2192b	-0.09477457
131	0x3cb74433	0.022371387
132	0xbc80bf7a	-0.015716303
133	0xbd5aa091	-0.053375784
134	0x3d20c076	0.039246045
135	0xbdad6d1b	-0.08468076
136	0xbd3d128f	-0.046160277
137	0x3d67143c	0.05641578
138	0xbdc5cbbc	-0.09658
139	0xbdeee47d	-0.116646744
140	0xbe15e9dd	-0.14639993
141	0x3ca59630	0.020213217
142	0xbe0f53c6	-0.13996801
143	0xbd197ca7	-0.037472393
144	0xbba47d4c	-0.0050198194
145	0xbd278c6e	-0.04090541
146	0x3d938f8d	0.072051145
147	0xbc985370	-0.018594474
148	0xbd22ea1e	-0.039774053
149	0x3dc9e404	0.09857944
150	0xbde16dc4	-0.11007264
151	0xbd3c4ecf	-0.045973595
152	0x392f62ae	0.00016726062
153	0xbdafb4ce	-0.08579408
154	0x3d65da73	0.056116533
155	0xbc1c9419	-0.009556794
156	0xbdb0c948	-0.08632141
157	0xbd058a9e	-0.0326029
158	0xbd86c509	-0.0658055
159	0xbdc0a7d9	-0.094070144
160	0x3c9bbdf3	0.019011473
161	0xbc682785	-0.014169578
162	0xbda44e67	-0.080227666
163	0x3bad12ee	0.0052817976
164	0x3d715ca6	0.058926247
165	0xbd8a2b88	-0.06746584
166	0xbd8c0b42	-0.06838085
167	0x3d14a9d1	0.036294762
168	0x3b03fe9f	0.002014078
169	0xbd37638b	-0.044772666
170	0xbdc5f220	-0.09665322
171	0xbd8271cd	-0.06369362
172	0xbd84df0c	-0.06487855
173	0xbd579ce8	-0.05263987
174	0xbe09c64c	-0.1345455
175	0xbbb9df46	-0.005672368
176	0x3d6c08f9	0.057625744
177	0x3dc41a7f	0.09575366
178	0xbd9105b8	-0.07081169
179	0xbe0a5a95	-0.13511117
180	0xbe056e59	-0.13030376
181	0x3d9b2835	0.07576028
182	0xbe17518f	-0.14777206
183	0x3c08dd98	0.008353613
184	0x3d5bbf1b	0.05364905
185	0x3dd044c0	0.10169363
186	0xbd5f8f1e	-0.054579847
187	0xbdd5319d	-0.104098536
188	0xbd136bd2	-0.035991497
189	0x3b5cf84a	0.0033717328
190	0xbd8956f0	-0.06706035
191	0xbd105f54	-0.035247162
192	0xbd6d290e	-0.05790048
193	0xbd8e8daa	-0.06960614
194	0xbb355519	-0.002766913
195	0x3da32e6b	0.07967838
196	0x3d69cf7d	0.057082642
197	0xbd8ac3df	-0.06775641
198	0x3c0e2926	0.008676803
199	0xbe176f39	-0.14788522
200	0xbd9ad28e	-0.07559691
201	0xbddd459c	-0.108042926
202	0xbe112361	-0.14173652
203	0x3bbe8582	0.005814255
204	0xbe0f5fba	-0.1400136
205	0xbdae2feb	-0.085052334
206	0xbdb42a1e	-0.08797096
207	0x3d8be1dd	0.068301894
208	0x3d8fc5e4	0.070201665
209	0xbe05b480	-0.13057137
210	0xbe01bc21	-0.12669422
211	0xbdd9b018	-0.1062929
212	0xbd4a5c0e	-0.049404196
213	0xbd1cdca4	-0.038296357
214	0xbdc9679c	-0.09834215
215	0xbdc273ad	-0.0949472
216	0xbdec2b46	-0.11531691
217	0xbcf9cb35	-0.030492404
218	0x3d55bb02	0.052180298
219	0x3d66ae2b	0.056318443
220	0xbd7b8b7e	-0.061412327
221	0xbcceb940	-0.025234818
222	0x3cde0cb0	0.02710566
223	0xbdc3a9c6	-0.09553866
224	0xbc5e73f6	-0.013577452
225	0xbd6aae8b	-0.057295363
226	0xbc94c619	-0.018160867
227	0xbc13d975	-0.009024014
228	0xbde4a2c9	-0.11163861
229	0x3cde893c	0.027165048
230	0xbdcfd1d4	-0.101474434
231	0xbae26128	-0.0017271386
232	0x3d202aa3	0.03910316
233	0xbe0a2fe3	-0.1349483
234	0xbae97ad2	-0.0017813093
235	0xbccefc7b	-0.025266876
236	0xbe0ff71f	-0.14059113
237	0xbe1a29f8	-0.15055072
238	0x3da72ff1	0.08163441
239	0xbd5c7275	-0.053820092
240	0xbdfcd506	-0.123453185
241	0xbd24b065	-0.040207285
242	0xbc8477ad	-0.016170347
243	0x3dbc04b4	0.091805845
244	0xbcd66574	-0.026171423
245	0x3dcceda3	0.10006263
246	0xbdcc93cb	-0.09989127
247	0xbdc26f0a	-0.09493835
248	0x3d82edf1	0.0639304
249	0x3d6e6cdf	0.058209296
250	0x3d50b985	0.050958175
251	0xbd95d79d	-0.073165156
252	0x3b469286	0.0030299737
253	0x3da64f38	0.081205785
254	0xbdaf34c0	-0.08554983
255	0xbd94d3c8	-0.072669566

transformer_encoder.layers.0.linear2.weight f4 [64, 256]
0	0x3d7e4bf6	0.06208416
1	0x3c586678	0.013208024
2	0x3d40ad31	0.04704017
3	0xbd59b3e7	-0.053150084
4	0x3d308295	0.043093283
5	0xbdcf24fa	-0.101144746
6	0x3db79fef	0.08966052
7	0x3d908137	0.07055896
8	0x3da2d7c4	0.0795131
9	0x3d4af2a7	0.049547818
10	0xbe45ced4	-0.1931718
11	0x3d6e257f	0.058141228
12	0x3c9f0190	0.019409925
13	0x3d694aa0	0.056955934
14	0xbcc4ed24	-0.024038859
15	0x3d7a1d91	0.061063353
16	0xbc225d2e	-0.009909911
17	0xbde4853e	-0.111582264
18	0x3d206cef	0.039166387
19	0x3dc6c13a	0.09704824
20	0x3c88d29b	0.016701987
21	0x3bdeba29	0.0067970944
22	0xbe4c2bcd	-0.19938584
23	0x3da2c84c	0.0794836
24	0xbb4c8b3f	-0.0031210927
25	0x3c9d23df	0.019182144
26	0xbcf81649	-0.030284064
27	0x3d30423a	0.04303191
28	0x3dc1a35e	0.09454988
29	0xbc381a54	-0.011236746
30	0x3c5a8f8a	0.013339886
31	0xbcf62b62	-0.030049983
32	0x3cb43ba9	0.022001104
33	0x3c95ed59	0.018301653
34	0x3d809dea	0.0628012
35	0x3d25b550	0.040456116
36	0xbd93de16	-0.07220094
37	0xbcf0ed13	-0.02940992
38	0x3d2c944a	0.042133607
39	0xbd8c1581	-0.06840039
40	0xbb89c35d	-0.0042041973
41	0x3d0abc4b	0.033870976
42	0x3d04026d	0.032228876
43	0x3dbc543b	0.09195753
44	0x3d148680	0.03626108
45	0xbd6a3dc1	-0.0571878
46	0xbbffa92f	-0.0078021507
47	0xbd3cd7c5	-0.04610421
48	0x3d4045c4	0.046941534
49	0xbd3a5206	-0.04548838
50	0x3e3384f4	0.17531186
51	0x3d88d67e	0.06681536
52	0xbbc8cd57	-0.006127994
53	0xbce32a27	-0.02773006
54	0xbd534666	-0.05158081
55	0xbdd050b4	-0.10171643
56	0xbccc93b2	-0.02497277
57	0xbcba6151	-0.022751482
58	0x3ce1d1b0	0.027565807
59	0xbd96a187	-0.07355028
60	0xbd47dc9d	-0.048794378
61	0x3cb5365c	0.022120647
62	0x3cf01a56	0.029309433
63	0x3c9289e2	0.017888013
64	0xbd6e8a2d	-0.058237243
65	0x3d2cdbd4	0.042201832
66	0x3dbb3276	0.09140484
67	0xbdb72a42	-0.08943607
68	0xbd5a507f	-0.053299423
69	0x3c986fda	0.018608022
70	0xbd394c6b	-0.045238893
71	0x3df186f2	0.11793317
72	0xbd1ad427	-0.03779998
73	0xbb2fca54	-0.0026823478
74	0xbcc36ac8	-0.023854628
75	0x3d1b42aa	0.037905373
76	0xbb36a6ea	-0.0027870485
77	0x3ddab038	0.10678142
78	0x3d18b6ea	0.037283815
79	0x3d528bf8	0.051403016
80	0x3bfa495a	0.0076381387
81	0xbd9b7650	-0.07590926
82	0x3d401e94	0.04690416
83	0xbc0bf07f	-0.008541225
84	0xbc6ae4f5	-0.014336814
85	0xbda6bb9d	-0.08141253
86	0xbc2cfab6	-0.010557821
87	0xbd008c86	-0.031384014
88	0xbdba1b73	-0.09087267
89	0x3c484f44	0.01222593
90	0x3d81fc48	0.06346947
91	0x3c723d37	0.014785103
92	0x3dabf9b5	0.08397237
93	0xbd335921	-0.04378617
94	0x3d7a8e5e	0.06117093
95	0xbcbb55fe	-0.022868153
96	0x3c39de56	0.011344513
97	0x3afa3403	0.0019088987
98	0x3e1c1fae	0.1524646
99	0xbd730b65	-0.05933704
100	0x3d190063	0.037353884
101	0xbdc6c8b4	-0.0970625
102	0x3de7c53f	0.113169186
103	0x3cca2016	0.024673503
104	0x3bde8b3a	0.0067914994
105	0x3dc6bfc9	0.09704549
106	0x3d591ccb	0.053005975
107	0xbd86c2e4	-0.06580141
108	0x3d612e82	0.054975994
109	0xbaaa20c1	-0.0012979732
110	0xbdde2a23	-0.10847881
111	0x3defaad0	0.11702502
112	0xbdd514c2	-0.1040435
113	0xbc59eccb	-0.013301085
114	0xbb90f357	-0.0044235396
115	0x3b948208	0.0045321025
116	0xbcd57d99	-0.026060866
117	0xbd6250e2	-0.055252917
118	0xbd56b6fb	-0.052420598
119	0xbca339ac	-0.019924961
120	0xbd973575	-0.07383243
121	0x3d7e8b32	0.062144466
122	0x3ca96d55	0.020682016
123	0x3de824a7	0.11335116
124	0x3d158acc	0.03650932
125	0xbd797184	-0.060899273
126	0xbe03dd76	-0.1287745
127	0xbd60de42	-0.05489946
128	0xbcf2d009	-0.029640215
129	0x3ccfcc4a	0.025365967
130	0xbc87e1ad	-0.016587103
131	0x3d766d74	0.060162976
132	0x3da30c44	0.07961324
133	0xbc25a954	-0.010111172
134	0x3d427b84	0.047481075
135	0x3c5a1dbe	0.013312755
136	0xbe0bf51f	-0.13667725
137	0xbd60c5a2	-0.054875977
138	0xbcc38e18	-0.023871467
139	0x3dd779dd	0.105212905
140	0x3d48775d	0.04894196
141	0xbd40d0d5	-0.047074158
142	0x3dc2995b	0.095019065
143	0xbccf98c5	-0.0253414
144	0x3dc9d5e3	0.09855249
145	0x3d624053	0.055237126
146	0xbd0b03e1	-0.033939246
147	0x3d267fe2	0.040649302
148	0xbd9674ad	-0.07346473
149	0xbd254809	-0.0403519
150	0x3c8dc802	0.017307285
151	0xbd470619	-0.0485898
152	0xbc8febef	-0.017568557
153	0x3c7e1de9	0.015510061
154	0x3c821662	0.015879814
155	0x3de115a6	0.10990457
156	0x3b621947	0.003449993
157	0xbd9b67b5	-0.0758814
158	0xbd8a7fa8	-0.0676263
159	0xbcbd4758	-0.023105308
160	0x3dc794cb	0.09745177
161	0x3c529a8a	0.012854228
162	0x3c1b5439	0.009480529
163	0xbcafb5ab	-0.02144893
164	0x3cd778e2	0.026302759
165	0xbd149e6f	-0.036283907
166	0xbc4c5b88	-0.012472995
167	0xbcf5997e	-0.029980417
168	0x3c5d4a5c	0.013506498
169	0x3d350335	0.04419251
170	0xbd986fd2	-0.07443203
171	0xbd373efb	-0.044737797
172	0x3dec9d50	0.115534425
173	0x3c270752	0.010194616
174	0x3ca11a29	0.019665794
175	0x3bfafdf4	0.007659668
176	0xbd131b81	-0.0359149
177	0xbda95fe6	-0.08270244
178	0xbd194afc	-0.037425026
179	0x3bd8cf9b	0.0066165454
180	0xbbe456e1	-0.0069683646
181	0x3d9603da	0.073249534
182	0x3cf44a6d	0.029820645
183	0x3dce242d	0.10065494
184	0xbc86131f	-0.01636654
185	0x3d4689b8	0.048471183
186	0xbd8a87a9	-0.06764156
187	0xbd87b8b1	-0.06627024
188	0x39f5184a	0.00046748138
189	0x3da8fb28	0.08251029
190	0xbdaf7a27	-0.085682206
191	0xbd247891	-0.040154044
192	0x3c9e47d4	0.01932136
193	0xbddaf3dd	-0.106910445
194	0xbdd0abef	-0.10189044
195	0xbd58aef2	-0.052901216
196	0xbb96552a	-0.004587789
197	0xbdaa5edc	-0.08318874
198	0x3c30cf28	0.010791577
199	0x3d56efc5	0.052474756
200	0x3c1e87b3	0.009675908
201	0xbd05dae6	-0.03267946
202	0xbd7d3084	-0.061813846
203	0xbda3b651	-0.079937585
204	0x3d658914	0.05603893
205	0xbdec62e3	-0.11542299
206	0xbc3fa2cc	-0.011696529
207	0xbc29fb6b	-0.010374884
208	0x3c4ad1d3	0.012379128
209	0xbd823079	-0.06356902
210	0x3c79e624	0.015252624
211	0x3c1306a6	0.008973753
212	0xbccc3b50	-0.024930626
213	0x3d27c26c	0.0409569
214	0xbb3aee85	-0.0028523516
215	0x3c3bdc54	0.011466105
216	0xbc8dbe53	-0.017302668
217	0x3de2aff6	0.11068718
218	0x3bbfc294	0.005852053
219	0xbd80ba1c	-0.062854975
220	0xbcbcf36f	-0.023065297
221	0x3deda70e	0.11604129
222	0xbd1f3d36	-0.038876735
223	0x3dcee18b	0.10101613
224	0xbdee1ac3	-0.11626198
225	0x3d320bda	0.043468334
226	0x3d562802	0.05228425
227	0xbc2baf4e	-0.010478808
228	0xbd180bfb	-0.0371208
229	0x3d463471	0.048389856
230	0xbdb225a6	-0.08698587
231	0x3c9b8bed	0.01898762
232	0xbc246f55	-0.010036309
233	0xbcf4dd66	-0.029890727
234	0x3d56bce1	0.052426223
235	0x3d4cfd59	0.0500463
236	0xbd2f2aa6	-0.042765282
237	0xbce02edd	-0.027366096
238	0x3cd89f72	0.026443217
239	0xbe229b56	-0.15879568
240	0xbde395fe	-0.11112593
241	0x3d277a44	0.040888086
242	0x3d1c3703	0.0381384
243	0x3d7764d4	0.06039889
244	0x3d171292	0.036882944
245	0xbd4549c3	-0.048166048
246	0x3e3d7b86	0.18504152
247	0x3c8328fe	0.016010758
248	0x3d284671	0.041082803
249	0x3c0131d2	0.007885413
250	0x3c004fce	0.007831527
251	0x3dbc84cc	0.092050165
252	0xbc11207a	-0.008857841
253	0x3d42f7e6	0.047599696
254	0x3d2e39e3	0.042535674
255	0x3d1183e6	0.03552618
